model/0.002_1500_40_14:46.pth (torch, 17424 bytes, 8 tensors)

layer_in.weight f4 [40, 3]
00000000: 8c5d a13e 2074 373e 8ed3 853e 48ae dcbe
00000010: 9cdc 8dbe 65ca c03e 89ba 343e bb17 ce3d
00000020: 0e78 5dbd 645e 3ebd 7acb 283d d1c2 64be
00000030: 3d6d 9a3e e921 82be bdda d53d b479 f33d
00000040: 45c9 5a3e e347 9dbe e53a f33e 425a 95bd
00000050: a0ab ad3e 57f5 2e3e 53ac fa3d 1e93 343e
00000060: 4f19 ff3d 76c6 12bf 6d00 1cbe 1867 80bd
00000070: de97 6fbe 2401 f1be 7cdd 9e3e 1a6e 9e3e
00000080: 2f97 c73e f541 e13e c023 bd3e 0b28 043f
00000090: 489d 05bf 2ea2 cfbe dec1 df3c 1dd8 ffbe
000000a0: dab6 07bf c0a3 c33b 62b6 c33e 09de dbbe
000000b0: fddc a03e 5479 ea3e d9f6 9d3e a5ed 0d3f
000000c0: d541 f63e cb63 c73e 8bec 87bd d798 263e
000000d0: 802c f03e 8ab7 8ebd 033e 0a3f 36a5 b13c
000000e0: 5a4a 2cbe 5257 17bd d720 c83e 5f06 98be
000000f0: 6784 eb3d 5a4e be3d 18f3 a03e 93b4 933e
00000100: afc6 f23e 85fe 84be 72a3 9f3e ce1c 8ebd
00000110: 7a7f 04bf e38e 043f 045d b23d 522c 83be
00000120: bafa 1bbd 2e48 b5be 9c9c 20b8 1228 803e
00000130: 484a 63be cefa cabe 3083 053f 775c 8f3e
00000140: d883 e93e f0f8 0fbe 22c7 c93c 3036 c73e
00000150: ec92 9bbe b0e6 6ebe 2adc e3bd a698 fbbe
00000160: 2f21 113e d86c f73e 9a9f 4bbe c1a3 5cbd
00000170: d853 a03e 4626 d6be d34c 7f3e 9b29 853e
00000180: 2d07 793e 2b4e a13e f052 173e fed7 b13d
00000190: af1b 35bd 1d6f 82bd 82aa 6bbe ddd5 a03e
000001a0: 4bb5 d63e e2ff ce3e 5898 fc3e f110 d1be
000001b0: 031f f43e 0cbd bfbe 9b34 db3e 1084 abbd
000001c0: 8813 403d d57d 21bd 1c90 da3e cab0 d9be
000001d0: e472 da3d 6205 0b3f 9f54 aebd 31d8 d43e
0.31516683 0.17915392 0.26137966 -0.43101716 -0.27707374 0.37654415 0.17649283 0.1006312
-0.05406957 -0.046476737 0.041209675 -0.22339942 0.30161467 -0.25416496 0.10442112 0.118884474
0.2136584 -0.30718908 0.4750587 -0.07292606 0.33920002 0.17085777 0.122398995 0.17634246
0.12455999 -0.5733408 -0.15234537 -0.062696636 -0.23397776 -0.47071183 0.31028354 0.30943376
0.3898253 0.43995634 0.36941338 0.516236 -0.5219312 -0.4055342 0.027314123 -0.4996957
-0.53013384 0.0059704483 0.38225085 -0.42942837 0.314186 0.4579569 0.30852392 0.5544074
0.480971 0.38943323 -0.06636914 0.16269241 0.4690895 -0.06968601 0.5400087 0.021685224
-0.16825238 -0.03694851 0.39087555 -0.2969236 0.11499863 0.09292288 0.31435466 0.28848705
0.4741721 -0.25975433 0.31179386 -0.06939088 -0.51757014 0.5178053 0.087091476 -0.2561975
-0.03808091 -0.3540663 -3.8292827e-05 0.2503057 -0.22196305 -0.39644474 0.521533 0.28000233
0.456084 -0.14059806 0.024631087 0.3890853 -0.3038553 -0.23330188 -0.11125977 -0.491399
0.14172815 0.4832523 -0.19885102 -0.053867105 0.31313968 -0.41826075 0.2493165 0.26008305
0.24319144 0.3150495 0.14777732 0.08683775 -0.044215854 -0.063688494 -0.23014262 0.31413165
0.4193519 0.40429598 0.4933498 -0.40833238 0.4767991 -0.3744892 0.42813572 -0.08374798
0.046893626 -0.039426643 0.42688072 -0.42517692 0.10666445 0.5430509 -0.08512234 0.4157119

layer_in.bias f4 [40]
00000000: 1d8d babe 616a ab3e f298 f0bc 956d bcbd
00000010: ae0f 3c3e 3ef7 133e 5251 21be ad4f 653d
00000020: 844f 87be a1df 7bbc 1cca bcbd 88f2 0a3f
00000030: 86b4 b13e fa0a 103f a720 973d 57b2 603e
00000040: 0b93 e63e e67d a13d d646 03bf e30d 06bc
00000050: 908c 8e3e 2067 c7be 0b3b 0f3e a2d0 6d3e
00000060: 43f9 c2bb 897f 69be 3bd5 023f bcba 7bbe
00000070: 115d 8abd e320 c53e 597f 4f3e f5e4 993e
00000080: 8250 bbbe a32b 9f3e 5783 c3bc 950b 903e
00000090: 6ce3 b4bc 0155 4f3e 91f8 a43e 321e ee3d
-0.36435786 0.33479598 -0.029369805 -0.092005886 0.18365356 0.14449784 -0.15753677 0.055984188
-0.26427853 -0.0153731415 -0.09218237 0.54276323 0.3470804 0.5626675 0.07379275 0.21943031
0.4503406 0.07885341 -0.5127996 -0.008182022 0.27841616 -0.38945866 0.13987367 0.23224118
-0.0059501245 -0.22802557 0.51106614 -0.24582952 -0.06756032 0.38501653 0.20263423 0.30057493
-0.3658486 0.3108798 -0.023866339 0.28133836 -0.0220811 0.2024727 0.3222089 0.11626853

middle_layers.0.weight f4 [40, 40]
00000000: 7735 223f 1b4b 9abf eff1 e5be 8cc6 28bf
00000010: 50b2 d33e c98c 85be 4023 fcbf 8a97 383e
00000020: ece9 e53f b1ca 55bd 5303 3abe 092f 03c0
00000030: ad01 0140 977d 2fbe 27c1 08c0 dcb3 6fbf
00000040: e80d c13d 00c9 a03e 9eae c13e 502e fdbc
00000050: eaac 1140 00ca 13be fd22 27c0 71f1 eabe
00000060: 3081 90bd befb 4d3f ffbe d33e 5991 2840
00000070: f779 9cbd b92c fa3d 9f42 d8be 1cdd 11c0
00000080: b633 ee3e 3ee0 5ebe 5943 943e cde0 f6bf
00000090: e285 4fbd 33ad 0ebd a84b d83d d018 ccbf
000000a0: 0e6f d9bd aba3 dcbe 73cc 3c3d 7c96 9f3e
000000b0: ad08 1dbd 83a5 923e dc68 873e 5b23 fabc
000000c0: 088e 8b3c a812 c6bc 7158 673e 7b27 d53e
000000d0: 0c11 b1be a4fa 1b3e e6e7 933e 2fa5 febd
000000e0: e7b3 31be 1fb2 643c 2b39 acbe 02a0 66bd
000000f0: feb8 54bf f264 1a3e 7bfa 7e3e 233b e23e
00000100: 61e4 283e a5a6 14be f940 973e 2458 b13e
00000110: 1df7 8cbd 4009 01be f0e2 143e fc89 943e
00000120: fd43 85be 5fe8 753d 339e acbe 68c2 f53d
00000130: 4422 aebd 87fe 5e3d 5060 243e 3496 823d
00000140: f110 afbc 89f6 0e40 9a24 c3be 59ca 42bc
00000150: b78a da3c 200a 40bf 81fa 00bf 989d 463f
00000160: 5664 07be 3db1 0f3e 731f 0f3f ba44 bdbe
00000170: ae81 c9be 362e 7b3e 48ba 29b9 5de0 d03e
00000180: 3565 d4be 446b 07be 85ae f8bd 29e4 ebbe
00000190: 835d b33f c574 0fbf 2942 553e d5c2 c8be
000001a0: 3b66 ddbf 8af0 11bf d9e9 cfbf 30bf 08bf
000001b0: c4e5 ae3e 0c58 28be b767 363e 1407 063e
000001c0: 39a7 963e 6705 bc3d 8d64 9e3e 511b 1c3e
000001d0: 40da 8b3f a782 76be 6aaa 923c 5d4a bd3d
000001e0: 93a3 aabc f54a b43d 797c 78bc 58ba 04bd
000001f0: 42bf 17be ae6e 25bf ce69 503f 0bfb c43d
00000200: f8e9 543e 4977 cc3e 1ec5 97bd efbd 7e3e
00000210: f23d 1fbe d220 ddbc 8051 8d3e de07 923d
00000220: 554f dbbc bd09 cebe f214 043e b880 afbc
00000230: 2d16 1dbf 78ef aa3e e7cd 6a3f 8d61 92b9
00000240: 9321 393e 70bf 45be e2a8 9ebb 5237 d13d
00000250: 99a6 0abe af25 7d3d e83b 22be cc13 ab3e
00000260: 6582 583e d81d c03e dd36 9dbe 9c50 b23e
00000270: e980 80be 615c 813d fc74 db3d d0d8 60bd
00000280: c952 08bf c6fd 173f 350a c6bc 6583 243f
00000290: 2406 a0be e0fe 503c 7992 de3f 687a 903e
000002a0: 9850 4dbf 2784 5a3e f187 f3bd 7f46 f83f
000002b0: 5d85 e7bf a9fc 203e 60eb f13f db38 233f
000002c0: 70c4 a63e f693 51bb f6f6 a7be 71f1 963e
000002d0: 20ce 6bc0 bf37 b83e 374d f83f 8fbf 3f3f
000002e0: 1fb3 cabe cc8f 03bf af7d 06be b3b4 4bbf
000002f0: 6017 8dbe 3ee2 703c 18b6 8abd 5659 fa3f
00000300: 23d5 a2be 5494 533e 1d0c 78bd ea94 cf3f
00000310: ab3e 453e 95e2 0c3f b93e 9a3c 3834 623f
00000320: 1b10 113e da4e c53b 5621 ffbc 76ff 1ebe
00000330: aa16 933e 31dc c1be e16e f5bd 33c2 dabd
00000340: a528 973e 518f 71bd 1d31 823e fabd 46bf
00000350: 50af 8c3f d878 6c3d 5621 c7be 0419 913d
00000360: fb5c 8cbe 27bc 943e af5e 853e 9748 62be
00000370: 9ef4 863f 957d adbe d3a8 1dbf 6eb1 ffbc
00000380: a01a cfbe 792c 90be e439 59bd 0b96 ce3e
00000390: 8d1b 85bd 26ac 5d3e e648 c0bc 42b1 89bf
000003a0: 51f0 b83e f920 b0bc e45f 4b3e 5f19 ebbc
000003b0: 8641 59bd 164b b7be 45b3 a9be 86ca 67be
000003c0: 286e 1fbd 70d4 18bd 114c 19be 7b0d a7be
000003d0: 9cbc 993e 9b81 d1be 7f88 bcbe 6728 403e
000003e0: 3812 373f c469 b4bd 12dc 89be 2824 42bf
000003f0: 96d7 393f c9d2 96bd 09ac a8be 3ecc f6be
0.6336283 -1.205417 -0.44911143 -0.6592796 0.4134698 -0.26083973 -1.9698257 0.18026558
1.7962012 -0.052195255 -0.1816533 -2.0497458 2.0157273 -0.17137752 -2.136789 -0.9363382
0.094264805 0.3140335 0.37828535 -0.030905873 2.2761788 -0.14432526 -2.6115105 -0.4588733
-0.070558906 0.80462253 0.41356656 2.6338713 -0.076404504 0.122155614 -0.42238328 -2.2791204
0.46523827 -0.21765229 0.28957632 -1.9287354 -0.05066479 -0.034833144 0.10561305 -1.5945072
-0.10616885 -0.4309362 0.046093415 0.31169498 -0.038338352 0.286419 0.2644719 -0.030534437
0.0170355 -0.024178818 0.22592331 0.41631684 -0.34583318 0.1523233 0.28887862 -0.1243385
-0.17353784 0.013958483 -0.33637366 -0.05630494 -0.83094776 0.1507757 0.24900238 0.44185743
0.1649337 -0.14516695 0.29541758 0.34637558 -0.068830706 -0.12601185 0.14539695 0.29011524
-0.26028433 0.06003606 -0.33714446 0.11999971 -0.085026294 0.054441955 0.16052365 0.06376305
-0.021370383 2.2337973 -0.38113862 -0.011889064 0.026677473 -0.7501545 -0.5038224 0.7758422
-0.13221869 0.14032455 0.5590736 -0.36966497 -0.3935675 0.24529347 -0.00016186491 0.40796176
-0.41483465 -0.13224512 -0.12142662 -0.4607251 1.4012913 -0.5603755 0.2082602 -0.39211145
-1.7296823 -0.5700766 -1.624324 -0.5341673 0.34159672 -0.16439837 0.17813002 0.13088638
0.29424456 0.09180718 0.3093609 0.15244795 1.092598 -0.24073277 0.017903525 0.09242699
-0.020829951 0.088033594 -0.015166395 -0.032404274 -0.14819053 -0.6462201 0.81411445 0.09618195
0.20792377 0.39934757 -0.07410644 0.24877141 -0.15550974 -0.026993189 0.27601242 0.07130407
-0.026771227 -0.40241805 0.12898615 -0.021423683 -0.6136196 0.33385825 0.9172043 -0.0002791997
0.18079214 -0.19311309 -0.0048419097 0.1021563 -0.13540114 0.061803516 -0.15843165 0.3341354
0.21143492 0.3752277 -0.3070592 0.34827125 -0.2509835 0.06316448 0.107156724 -0.05489427
-0.5325132 0.593716 -0.024174789 0.6426299 -0.31254685 0.012756079 1.738845 0.2821839
-0.802011 0.21339475 -0.11891163 1.9396514 -1.8087574 0.15721382 1.8899956 0.6375863
0.32571745 -0.003197906 -0.32805604 0.2948108 -3.6844559 0.3598003 1.9398564 0.7490167
-0.39589784 -0.5139129 -0.13133882 -0.795726 -0.27556896 0.014702378 -0.06773013 1.9558513
-0.31803235 0.20662051 -0.060558427 1.621732 0.19262187 0.55033237 0.018828737 0.8836093
0.141663 0.0060213627 -0.031143826 -0.15527138 0.2872823 -0.37863305 -0.11984039 -0.10681572
0.29523197 -0.058974568 0.25428095 -0.7763363 1.0991001 0.057732433 -0.3889262 0.070848495
-0.27414688 0.290498 0.260488 -0.22098003 1.0543401 -0.33884874 -0.6158573 -0.031212535
-0.4045 -0.2815893 -0.053033724 0.4034885 -0.064993955 0.216477 -0.02347226 -1.075722
0.36120847 -0.021500098 0.19860798 -0.028698621 -0.053041004 -0.35799474 -0.33144584 -0.2263585
-0.038923413 -0.03731197 -0.14970423 -0.32627472 0.3002671 -0.40919194 -0.36822888 0.18765412
0.71512175 -0.08809236 -0.26925713 -0.7583642 0.72594583 -0.07364423 -0.32943752 -0.482027

middle_layers.0.bias f4 [40]
00000000: 912a 123e 09e9 e9bd 639a 9b3d f1e4 23bd
00000010: a293 9cbd f51a 683e c032 a03d 6d33 f93b
00000020: 772f 053e 93b3 183d abc3 c2bd bf90 fdbc
00000030: 1599 443e c23f da3e 7bc8 4ebe bd9f 0a3e
00000040: 46ca 82be 585e d43d be56 58bf 4438 88bc
00000050: 6b06 183e bbb5 24be dd2a 95bd ac39 043e
00000060: 3864 15bd a4fa 393c 7c32 1dbd e53d 1dbe
00000070: a534 46bd b157 933d 6af4 5fbd 0be0 773d
00000080: eb50 853c d2de 78bc 9a3e 073e 927c cf3e
00000090: 65f8 86bd 741c b03d 2518 793d 475c f73d
0.1427405 -0.11421401 0.07597806 -0.040013257 -0.07645346 0.22666533 0.0782218 0.0076050074
0.13006388 0.03728063 -0.09509977 -0.03095281 0.19199021 0.42626768 -0.20193665 0.13537498
-0.25544947 0.10369557 -0.8450736 -0.016628392 0.14846198 -0.1608495 -0.07283566 0.12912625
-0.03647253 0.011351261 -0.038378224 -0.15355642 -0.04839005 0.0719446 -0.05467645 0.0605164
0.016273936 -0.015189843 0.13207474 0.40524727 -0.06590346 0.08599177 0.06081404 0.120781474

middle_layers.1.weight f4 [40, 40]
00000000: 45a9 d83d db9b f6bd 010f c1be 7264 793e
00000010: 19d6 333e e37f 303e 41ae 63be a7a4 8dbe
00000020: 2721 8e3e c6a8 e6bd fe2c 95be fd96 3dbe
00000030: d995 15bd f869 623e 5afa 5ebd aa1e 6dbe
00000040: f7ca 73be b6dc 0a3f 0f85 1cbe 6edc 493e
00000050: b40f 2a3f 6756 d03d c832 4ebe b02e eb3e
00000060: 5d9a a2bf dca7 a43e dcec c0be 860f 96be
00000070: 76b6 f5be 979c a73d a8a8 1bbc a511 923f
00000080: 6083 d7bd fab0 bdbe ca9f 883e 41f7 d83e
00000090: 9cb3 74be a269 ddbe 5647 1bbe 255d 293e
000000a0: 6c20 95bd ca55 adbe cd43 1d3e abaa 053e
000000b0: 5f8c a0bd fcda 44be bdc3 a83d 5058 eb3d
000000c0: b09b e1bd 2ea2 b2bd 6559 44be cdb2 0cbe
000000d0: 28c5 983b 9178 983a cb91 89be f9f3 d7bd
000000e0: 6f7f b73e bde9 28be 56be 13be c2f8 8fbe
000000f0: 6e44 2dbe f6a4 4dbe 8535 d53d f9dd f8be
00000100: 9b67 6b3f f6c5 d2bd f423 e13d 3565 eabd
00000110: 32c4 953f 33b9 a23d 1b6e ac3e b46d 70bc
00000120: 964a 90bd 46ed 1f3e fd8a ad3d 30eb b9be
00000130: 3547 c63e 42e9 093d fe74 af3d 3da4 b6be
00000140: 5472 0c3e 6ee1 92bd eaaa 293d b5cd 8c3e
00000150: 97cc 7b3e dde2 3d3c b84a c9bd b6d9 47bd
00000160: 4728 54be c57d c73c 1575 a03d efc0 d8bd
00000170: 672e 02be 1695 07be 1e19 30bd b48d 85bd
00000180: 60df acbf 231a 21be 6355 c6bd 8a30 8f3e
00000190: f6e0 133e cf52 3bbd 7fe1 c8bc 5c08 8abe
000001a0: dc0b 57bd b071 97be cf01 e63e 7d4f abbe
000001b0: 262f 50be fe5f 81bd f7f6 acbe f3a4 243e
000001c0: e415 903d c5a9 a7bd 7e5d cc3e 2f14 ccbe
000001d0: 57a7 ebbc 9ff9 e93d 728e d23d ddd0 a43e
000001e0: 735d 723e 8860 8e3d 946c 17bf caea 0c3e
000001f0: a48d d1be 8320 68bd 5fce 803e e7d7 17be
00000200: 16ed 2ebe 388e c1be 5804 933e 7305 ff3c
00000210: 0010 d63d f853 25bf 15cb 6bbe 1b0a 0a3f
00000220: 6406 0abf 4a58 33be 91fc 6a3e 88a8 3d3e
00000230: 5c76 1cbe b2b8 f7be 28d2 94be 473d 32be
00000240: c4c1 b9be a01b cabd a522 3cbe da25 503e
00000250: 9f43 a63e b5d6 083f 4485 02bc 3583 ba3e
00000260: 6940 e0be 681a 513e c82f f03d d0e4 25be
00000270: 85ea ebbd 11ae 0abd f505 64be ecc5 3dbd
00000280: c01b 9b3e 5482 66bd 834b 65be 45bb 4f3e
00000290: c9a0 c53d 106d a4bd f6bf cbbd 7409 b8be
000002a0: b0e0 ddbe c590 853e ae98 b13d 1ae4 13be
000002b0: f5ed 8dbe 7120 ae3c 353f 6fbe 8c6b 45be
000002c0: 098a bb3c 3bac 30be 0195 7d3c ad6d 9d3e
000002d0: f35d 483e f187 3b3d 616e d1bd 389e 12be
000002e0: dc17 363e 1465 39be 0e60 f5bd e100 24bd
000002f0: 7b78 063e 151c 8a3c b5ed 9dbe 222a 06be
00000300: 452c 6bbe ed5d 0b3e 8f76 41be ca1e b0be
00000310: d5e8 cfbe 1d45 fa3d 1896 d7bd 0c32 a43d
00000320: c897 213e dfbe 403d 4a2d 173d ddc4 2e3e
00000330: efac 44be 5c86 ca3d 271c ea3d a2c4 7a3e
00000340: bce4 ec3d 0ac8 0dbe a21b 0fbe e025 2c3c
00000350: 28ea 0c3d d3d3 a63e 2059 593b 742c 6cbe
00000360: 7cae 773f 3382 973e 7370 f0bc 6a9a 2abe
00000370: b139 1abe 19c0 94be e69b 093e 2d53 dd3e
00000380: f31b 6c3e dc34 593e c92a 73be aa03 043f
00000390: b183 5dbd 0ec2 723d a387 26be 541c 10be
000003a0: a3e2 99bd 4c48 5b3e f140 a9be e926 9fbd
000003b0: da9c 633e a5f2 4cbd 524c 6abe 2444 d0be
000003c0: beb6 7fbe 8c5e 333e 6694 ddbd fc4d 21bd
000003d0: 15d8 9e3d 271c ffbd 9d41 eabd 8259 37be
000003e0: 5887 ad3d f53c 813e 19f9 e83d 18e4 2cbd
000003f0: bb4a b33d 052b 0abe 7699 f3bd bbde 86bd
0.105791606 -0.12041446 -0.3770676 0.24354723 0.1756214 0.17236285 -0.22234441 -0.27664682
0.27759668 -0.1126266 -0.2913589 -0.18514629 -0.03651986 0.22110736 -0.054437973 -0.23156229
-0.23807894 0.5424303 -0.15285133 0.19712994 0.6643021 0.1017273 -0.20136559 0.45934057
-1.2703358 0.32159317 -0.3768071 -0.29308718 -0.4799077 0.08184164 -0.00950066 1.1411635
-0.10523105 -0.37049085 0.2668441 0.4237614 -0.2389664 -0.43244654 -0.15163931 0.16539438
-0.072815746 -0.33854514 0.15357895 0.13053386 -0.07839274 -0.19224161 0.08240459 0.11491454
-0.11016023 -0.087223396 -0.19174726 -0.13740082 0.0046621747 0.0011632611 -0.26869044 -0.10544581
0.35839412 -0.16495414 -0.14428076 -0.28119475 -0.16920635 -0.20082459 0.10410599 -0.48606852
0.91954964 -0.10291664 0.10993186 -0.11445085 1.1700499 0.0794548 0.33677754 -0.014674593
-0.07045476 0.15617856 0.084737755 -0.36312246 0.38726202 0.033669718 0.08567236 -0.3567218
0.13715488 -0.071719036 0.041422762 0.27500692 0.24589764 0.011589733 -0.098287046 -0.04879161
-0.2071849 0.024351964 0.078348316 -0.10583674 -0.12713014 -0.13240466 -0.042992704 -0.06521168
-1.3505669 -0.15732627 -0.09684255 0.2796672 0.14441285 -0.04573327 -0.024521587 -0.26959503
-0.052501544 -0.29578924 0.44923255 -0.33459082 -0.20330486 -0.06317137 -0.3378217 0.16078548
0.07035425 -0.08186678 0.3991508 -0.3985915 -0.028766317 0.114245646 0.102810755 0.321906
0.2366846 0.069520056 -0.5915005 0.1376144 -0.40928376 -0.05667163 0.2515745 -0.14828454
-0.17082629 -0.37803817 0.28714252 0.031130528 0.104522705 -0.6458125 -0.23026688 0.5392167
-0.53916 -0.17514148 0.22947909 0.18521321 -0.15279526 -0.483831 -0.29066586 -0.17406188
-0.36280644 -0.0986855 -0.18372591 0.20326939 0.32473466 0.53452617 -0.007966343 0.36428228
-0.4379914 0.2042023 0.117278636 -0.16200566 -0.115193404 -0.03385741 -0.22267897 -0.04633133
0.3029461 -0.056276634 -0.22392087 0.20286281 0.09649808 -0.080286145 -0.09948723 -0.35944712
-0.43335485 0.26087013 0.086716995 -0.14442483 -0.2772061 0.021255704 -0.23363955 -0.19279307
0.022892969 -0.172532 0.01547742 0.30747738 0.19567089 0.04578394 -0.10226131 -0.14318168
0.17782539 -0.18104964 -0.119812116 -0.0400399 0.13131897 0.016859094 -0.3084542 -0.1310201
-0.22966106 0.13610049 -0.18892883 -0.3439849 -0.40607324 0.122202136 -0.10526675 0.08017358
0.15780556 0.04705703 0.036908425 0.17067285 -0.19206594 0.09888908 0.11431151 0.24489072
0.11567065 -0.1384584 -0.13975385 0.010507077 0.034402996 0.32583484 0.0033164695 -0.23063833
0.9675062 0.29591522 -0.029350495 -0.16660467 -0.1506107 -0.2905281 0.13438377 0.4322752
0.23057537 0.2121157 -0.2374679 0.5156809 -0.05408067 0.059267096 -0.16262679 -0.14073306
-0.07513931 0.21414298 -0.3305736 -0.077710934 0.22227803 -0.05003609 -0.22880676 -0.40676987
-0.24972054 0.17516536 -0.108193204 -0.039381012 0.07756058 -0.124565415 -0.11438296 -0.17905238
0.084730804 0.2524182 0.113756366 -0.042209715 0.08754488 -0.13492973 -0.11894505 -0.06585451

middle_layers.1.bias f4 [40]
00000000: fe1e 68bd 9ee9 52bd f4ef 99bc 5c82 f7bd
00000010: 5272 c1bd 7d31 a6bb e205 b13d 8ad7 a63c
00000020: fcd9 7cbe c915 b5bd ad80 f13d 64c6 f83d
00000030: 24c7 853e f01d 363e 6902 f1bd 5359 213e
00000040: 0b65 753e 7542 12be 5a34 16be bd9b c13c
00000050: bf5a 6e3d 48c1 4dbd 9b43 8e3d e9ef a43d
00000060: 1a16 ca3c 3e54 de3d ba59 7b3c 56e5 32be
00000070: 7e25 a93d a6c0 333e 8f36 38be 323d 72bd
00000080: 487e b93d 2031 dc3d df3b dc3d d4d4 20bd
00000090: 48a8 dfbd 4160 33be 282e 13be a7fe ce3d
-0.05667018 -0.051492326 -0.018791176 -0.12085411 -0.09445633 -0.0050718174 0.086437 0.020366449
-0.2469253 -0.08842046 0.11792121 0.12147215 0.26128495 0.17784858 -0.11768038 0.1575673
0.23964326 -0.14283164 -0.14668408 0.023633832 0.05819201 -0.050233155 0.069464885 0.08053572
0.024668742 0.10855912 0.015341217 -0.17470297 0.08259104 0.17553958 -0.17989562 -0.05914039
0.09057289 0.10751557 0.10753607 -0.03926547 -0.10920769 -0.17517187 -0.14373076 0.10107165

layer_out.weight f4 [2, 40]
00000000: 6b29 73bd ef99 ca3d 17d9 a43c b8bd ca3d
00000010: c7b6 09be 4600 963d 8852 293d 3025 fcba
00000020: 47cd 9abd 9c57 7bbd 4cc0 713d 3050 e43c
00000030: 6aba 7abe d188 63bc 7bbd a8bd b937 a8bc
00000040: 5930 d13d 2ced c83d 292f ccbd b8a0 3b3d
00000050: f971 28be 345d a7bd 6510 d7bd c8f2 cabd
00000060: cfb1 89bd c5ea 253d 88f1 983d 6d0d 0abe
00000070: 93d3 a63d e789 46bd b946 103e 6583 733c
00000080: 9d60 0b3e 72fd 70bc 060a bfbc 1de4 383d
00000090: db18 5d3d e399 5c3d 5790 6a3d f73c 543c
000000a0: 7dc3 06be bb6d 863d 8ebd 2fbd f2df a43d
000000b0: aefc fa3d 053b 643d aeab 87bd 9408 21bd
000000c0: f752 e23c 9cdf 653d 2914 5dbd 1d4d ba3b
000000d0: e65d e2bd bda1 dd3b c180 4c3d 5cb1 e73d
000000e0: bf23 2fbd 0d7e a0bd 53ed cc3c 6358 d7bd
000000f0: 90b2 fbbd 5be1 2cbd 616d 16be c991 48bc
00000100: 2cba 993c 0086 3ebc 962e dc3d 4a9a 183e
00000110: 7f8c c8bd f607 4dbd 4969 dbbc 7831 16be
00000120: 3cfc a73d 1b4f 95bd 3dfb d9bd 1d35 a73d
00000130: df85 d8bd 3ce5 c0bd 689a 96bd 492a 203d
-0.05936567 0.09892642 0.020123048 0.09899467 -0.1344863 0.07324271 0.041338474 -0.0019237157
-0.07558685 -0.061362848 0.05902128 0.027870268 -0.24485174 -0.0138876 -0.082392655 -0.020534383
0.102143 0.09810862 -0.099699326 0.04580757 -0.16449727 -0.08172074 -0.10501174 -0.09909588
-0.067233674 0.040507097 0.074679434 -0.13481684 0.08145823 -0.048471358 0.14089479 0.01486287
0.13611074 -0.014708864 -0.02332021 0.04513942 0.053978782 0.053857695 0.05726656 0.012953988
-0.1316051 0.06563898 -0.042905383 0.08050527 0.12255226 0.055720348 -0.06624542 -0.03931482
0.027627451 0.056121454 -0.053974304 0.005685462 -0.11053066 0.0067636655 0.049927477 0.113131255
-0.0427587 -0.07836542 0.025015509 -0.10514905 -0.122899175 -0.042207103 -0.14690162 -0.012241789
0.018765531 -0.011628628 0.10751073 0.14902607 -0.097924225 -0.05005642 -0.026783602 -0.14667308
0.08202407 -0.07290479 -0.10643623 0.081644274 -0.10572409 -0.09418723 -0.073536694 0.039102826

layer_out.bias f4 [2]
00000000: 86ab fb3c d8e6 833e
0.030721437 0.25762057
