model/0.002_500_40_14:24.pth (torch, 17412 bytes, 8 tensors)

layer_in.weight f4 [40, 3]
0.25442314 0.18391898 -0.15540773 0.3720419 -0.1930797 -0.45639977 0.4260923 0.067670934
-0.40146598 0.30965924 0.24822864 0.23811275 -0.20737383 -0.07694241 0.6525684 -0.025896993
-0.24392334 0.574574 -0.5706882 -0.1710738 0.009882902 0.25257233 0.23619127 -0.40786338
-0.5877019 0.2757153 -0.3777407 0.11012719 0.17595764 0.5309045 -0.4415846 0.46791774
-0.2840793 -0.39576548 0.3234496 0.53662074 0.5644591 0.52057034 -0.38428208 0.02231767
-0.4688836 0.08182923 0.36443856 0.55430037 -0.018026324 0.060553357 -0.35891455 0.4024313
-0.3161742 0.5353126 -0.16055632 0.124563284 -0.34837392 0.11046516 0.3414689 0.35335997
0.5367245 0.4866901 -0.36755088 0.050833102 -0.34206372 0.44561607 0.23380725 -0.467521
-0.46027628 0.36052054 0.18620795 -0.012743089 -0.20785645 -0.06107862 -0.19380711 0.33245516
-0.32565677 0.054590207 -0.04791087 -0.3579445 0.21206395 0.3049099 0.011357709 -0.27697557
-0.032432795 0.2110812 -0.16186969 -0.4785023 -0.0146193085 -0.03439419 -0.10310157 -0.14535542
-0.34688494 0.37412187 -0.4672226 -0.47818786 0.02212364 0.17593916 -0.42033714 0.30575234
-0.10435192 0.5316513 -0.3764515 -0.23053427 0.21999547 -0.42826837 0.14705914 0.30302006
0.3139555 0.16190012 0.27950177 -0.5580409 0.2038198 0.073239595 -0.3204763 -0.25841984
-0.5444086 -0.27677688 0.44305846 0.4386558 0.17844296 0.53760856 -0.35277984 -0.027232805
00000000: c043 823e 4255 3c3e 3423 1fbe 477c be3e
00000010: afb6 45be 3bad e9be c528 da3e 0f97 8a3d
00000020: f38c cdbe a88b 9e3e a62f 7e3e d4d3 733e
00000030: ce59 54be fb93 9dbd b90e 273f ee25 d4bc
00000040: 0ac7 79be 4817 133f 9f18 12bf f82d 2fbe
00000050: e5eb 213c 2951 813e 20dc 713e 78d3 d0be
00000060: a273 16bf 8e2a 8d3e 3b67 c1be 5d8a e13d
00000070: 3d2e 343e 5be9 073f 6017 e2be ea92 ef3e
00000080: d872 91be c6a1 cabe 309b a53e fa5f 093f
00000090: 6480 103f 1944 053f 9fc0 c4be 8cd3 b63c
000000a0: 8311 f0be 1596 a73d b197 ba3e a1e6 0d3f
000000b0: f1ab 93bc cc06 783d a6c3 b7be 7a0b ce3e
000000c0: 96e1 a1be 3f0a 093f e068 24be 091b ff3d
000000d0: 115e b2be 8f3b e23d 03d5 ae3e 99eb b43e
000000e0: c766 093f 722f f93e a12f bcbe 5f36 503d
000000f0: fa22 afbe ca27 e43e 2b6b 6f3e ea5e efbe
00000100: 55a9 ebbe 2696 b83e 4cad 3e3e 64c8 50bc
00000110: 52d8 54be 932d 7abd 5f75 46be 9037 aa3e
00000120: 7cbc a6be fb99 5f3d 303e 44bd 8044 b7be
00000130: 4b27 593e 271d 9c3e af15 3a3c becf 8dbe
00000140: 40d8 04bd ac25 583e 2bc1 25be 41fe f4be
00000150: d385 6fbc ece0 0cbd ea26 d3bd 0dd8 14be
00000160: e79a b1be e78c bf3e cd37 efbe 0ad5 f4be
00000170: a33c b53c 6529 343e 6e36 d7be 928b 9c3e
00000180: 76b6 d5bd 4d1a 083f 40be c0be 2d11 6cbe
00000190: 7e46 613e fe45 dbbe ac96 163e 7225 9b3e
000001a0: c6be a03e 25c9 253e db1a 8f3e c5db 0ebf
000001b0: 23b6 503e a4fe 953d 7815 a4be 9b4f 84be
000001c0: 5d5e 0bbf b3b5 8dbe 8fd8 e23e 7e97 e03e
000001d0: c0b9 363e b7a0 093f 8f9f b4be 5517 dfbc

layer_in.bias f4 [40]
-0.3231176 0.2378492 -0.44551283 0.40090203 0.36136293 0.4021324 -0.12266192 -0.07006198
0.3245039 0.08643938 -0.4079343 -0.11882114 -0.4653542 0.16811122 0.32316092 -0.50860095
0.1419944 -0.25326267 0.47490227 -0.2831625 0.109452814 -0.02046373 -0.36467555 0.10925555
0.2998121 -0.5451338 -0.025786383 0.6034879 0.064574316 0.5732746 0.59031576 -0.4904578
0.24515258 -0.49229148 0.24341464 -0.04469408 0.0007645564 -0.08948741 -0.108165056 -0.57797134
00000000: ac6f a5be be8e 733e 421a e4be 0843 cd3e
00000010: 9004 b93e 4ce4 cd3e 2c36 fbbd a87c 8fbd
00000020: 6025 a63e 2107 b13d c4dc d0be 7f58 f3bd
00000030: e842 eebe 5925 2c3e 5975 a53e ac33 02bf
00000040: fb66 113e a5ab 81be 6426 f33e adfa 90be
00000050: cc28 e03d 8da3 a7bc c1b6 babe 60c1 df3d
00000060: f980 993e e48d 0bbf f73d d3bc 2f7e 1a3f
00000070: 8a3f 843d 20c2 123f ef1e 173f 491d fbbe
00000080: 4709 7b3e a10d fcbe b041 793e 2411 37bd
00000090: 836c 483a 2d45 b7bd a485 ddbd eef5 13bf

middle_layers.0.weight f4 [40, 40]
0.6050539 -1.1805418 -0.39045283 -0.65054184 0.4419963 -0.2149427 -2.0095255 0.17458476
1.7627486 -0.042799544 -0.1868371 -2.0142436 2.005735 -0.14794049 -2.1787512 -0.9500902
0.094584234 0.31121957 0.38716656 0.051475216 2.2966535 -0.23367552 -2.63784 -0.41787457
-0.11148994 0.77403444 0.43522787 2.6248393 -0.113173164 0.15219302 -0.3979574 -2.2980537
0.44355467 -0.22414307 0.32036906 -1.9259038 -0.11509404 -0.043614723 0.13463874 -1.6082842
-0.09558419 -0.33644754 0.007748449 0.35999113 -0.035218127 0.302278 0.20334245 -0.008197277
-0.014064529 0.015551107 0.17939365 0.4238761 -0.28161076 0.13923572 0.28610533 -0.17439243
-0.1568788 -0.028214788 -0.32491046 -0.08630808 -0.8154999 0.08927075 0.18219481 0.43298075
0.13175336 -0.18342526 0.24418646 0.4049095 -0.081632055 -0.082278304 0.12851197 0.28661665
-0.23540114 0.009943683 -0.26653478 0.14437816 -0.078138694 0.012847145 0.16720712 0.01540652
-0.036515016 2.2290554 -0.44722006 0.03514172 0.07964095 -0.74953467 -0.43961 0.70444274
-0.110129215 0.19863084 0.50756484 -0.3395063 -0.43556407 0.31674248 0.1391638 0.35076046
-0.38635978 -0.20283303 -0.05519003 -0.5728693 1.4329467 -0.70350266 0.20262325 -0.3759316
-1.6424246 -0.5694514 -1.6818125 -0.48425657 0.3332221 -0.16023567 0.19871603 0.052515883
0.29913843 0.039422043 0.3066345 0.08709124 1.1578523 -0.30561212 0.09055235 0.048793063
-0.052175213 0.19177581 -0.05270632 -0.0086392015 -0.12468743 -0.60711265 0.6898626 0.12797362
0.16518065 0.42135933 -0.09643265 0.3038256 0.08345638 0.11462342 0.27586532 0.07557038
0.0062778834 -0.4113335 0.124110095 0.0023742262 -0.565367 0.16308185 0.77829605 0.015254317
0.14331114 -0.25424156 -0.0240139 0.10432576 -0.17551512 0.117034525 -0.15778838 0.3663407
0.06917367 0.3589207 -0.22183363 0.36872584 -0.29158568 0.046506938 0.12785448 -0.075908884
-0.4648961 0.53576344 0.056130093 0.6350071 -0.37084424 0.01996385 1.7875644 0.2906055
-0.75620496 0.20474902 -0.09379538 1.8932654 -1.8130637 0.094675094 1.7234815 0.6438425
0.34170005 0.023939515 -0.33022133 0.34385085 -3.6820889 0.3683204 1.9880769 0.7489695
-0.42404118 -0.4636738 -0.1753771 -0.8298566 -0.24867646 -0.037076622 -0.12207137 1.9554218
-0.24356332 0.2090123 -0.1082341 1.6633064 0.15831453 0.54953456 -0.057580117 0.88382053
0.08631668 0.056006063 -0.08550216 -0.1423544 0.2404318 -0.48906568 -0.14146143 -0.23537563
0.3550126 -0.03508715 0.22181603 -0.8379634 1.1428206 0.14768557 -0.43564543 0.06905063
-0.3614697 0.2429062 0.24671997 -0.17938553 0.9850502 -0.32109836 -0.63059115 -0.09260202
-0.35231724 -0.233338 -0.053209826 0.4372484 0.003309901 0.18165568 0.0048764506 -1.0512956
0.2704361 -0.043819416 0.16043344 -0.09378124 -0.16803423 -0.37375855 -0.38219798 -0.23350216
-0.048253555 -0.013601545 -0.22379251 -0.36174947 0.34757265 -0.37830442 -0.3391301 0.1923763
0.712738 -0.11932533 -0.21367942 -0.7310317 0.68044454 -0.030775847 -0.33014724 -0.43040273
00000000: d0e4 1a3f fe1b 97bf 6fe9 c7be e989 26bf
00000010: 574d e23e f019 5cbe 119c 00c0 59c6 323e
00000020: bfa1 e13f 934e 2fbd 3a52 3fbe 5ee9 00c0
00000030: f65d 0040 b67d 17be a970 0bc0 1d39 73bf
00000040: 61b5 c13d 2c58 9f3e b23a c63e add7 523d
00000050: 5ffc 1240 a348 6fbe 5fd2 28c0 a8f3 d5be
00000060: d654 e4bd 1f27 463f 30d6 de3e 5efd 2740
00000070: 55c7 e7bd 7dd8 1b3e 13c1 cbbe 5013 13c0
00000080: 9919 e33e c385 65be 6a07 a43e 0484 f6bf
00000090: 6db6 ebbd 5aa5 32bd bdde 093e 42dc cdbf
000000a0: a5c1 c3bd da42 acbe b4e6 fd3b c250 b83e
000000b0: e240 10bd 2fc4 9a3e 0139 503e df4d 06bc
000000c0: e96e 66bc 12ca 7e3c f8b2 373e 4a06 d93e
000000d0: 492f 90be cf93 0e3e 667c 923e ee93 32be
000000e0: d6a4 20be b322 e7bc aa5a a6be 4ac2 b0bd
000000f0: 9ac4 50bf 95d3 b63d 4791 3a3e a7af dd3e
00000100: 5aea 063e d5d3 3bbe 040c 7a3e 4c50 cf3e
00000110: b52e a7bd 8781 a8bd a498 033e 6bbf 923e
00000120: ff0c 71be d4ea 223c 3f77 88be ded7 133e
00000130: 2e07 a0bd d57c 523c 5838 2b3e a16b 7c3c
00000140: c590 15bd d8a8 0e40 07fa e4be c4f0 0f3d
00000150: cb1a a33d 81e1 3fbf 9014 e1be 5c56 343f
00000160: 6d8b e1bd e265 4b3e c5ef 013f c5d3 adbe
00000170: 4102 dfbe 122c a23e f580 0e3e e096 b33e
00000180: f3d0 c5be 76b3 4fbe f10e 62bd 90a7 12bf
00000190: cc6a b73f c018 34bf 787c 4f3e 1b7a c0be
000001a0: f83a d2bf 91c7 11bf a245 d7bf 7af0 f7be
000001b0: 169c aa3e d214 24be 377c 4b3e e51a 573d
000001c0: ac28 993e 0279 213d 32ff 9c3e e45c b23d
000001d0: 8134 943f 3179 9cbe 8373 b93d 3cdb 473d
000001e0: adb5 55bd e160 443e 95e2 57bd 708b 0dbc
000001f0: 205c ffbd bc6b 1bbf d69a 303f 840b 033e
00000200: 1e25 293e 69bc d73e 7b7e c5bd 078f 9b3e
00000210: 2eeb aa3d afbf ea3d 383e 8d3e a5c4 9a3d
00000220: b4b6 cd3b 4e9a d2be 6f2d fe3d e898 1b3b
00000230: e4bb 10bf eefe 263e 693e 473f 3eed 793c
00000240: 28c0 123e f32b 82be ccb8 c4bc bea8 d53d
00000250: 3cba 33be ccaf ef3d 4793 21be 0291 bb3e
00000260: edaa 8d3d 74c4 b73e 5b28 63be a2c9 bc3e
00000270: b84a 95be 0f7e 3e3d 49ec 023e 1e76 9bbd
00000280: dd06 eebe cb27 093f abe8 653d d38f 223f
00000290: 4cdf bdbe 3a8b a33c e9ce e43f 3eca 943e
000002a0: a696 41bf baa9 513e cb17 c0bd 8556 f23f
000002b0: 7912 e8bf 04e5 c13d 0b9b dc3f ddd2 243f
000002c0: 4ff3 ae3e cd1c c43c c512 a9be 380d b03e
000002d0: 58a7 6bc0 7e94 bc3e 4e79 fe3f 77bc 3f3f
000002e0: ed1b d9be a766 edbe 0e96 33be 7b71 54bf
000002f0: 0ba5 7ebe a8dd 17bd 8e00 fabd 434b fa3f
00000300: aa68 79be 5207 563e d7a9 ddbd 39e7 d43f
00000310: 341d 223e 4cae 0c3f 21d9 6bbd 1042 623f
00000320: cdc6 b03d 9d66 653d c21b afbd 5ac5 11be
00000330: c133 763e d166 fabe 44db 10be 4f06 71be
00000340: 36c4 b53e 8bb7 0fbd be23 633e c584 56bf
00000350: f247 923f e33a 173e eb0c dfbe 6b6a 8d3d
00000360: 8e12 b9be 67bc 783e 29a4 7c3e d7b0 37be
00000370: 402c 7c3f 0167 a4be 6c6e 21bf 21a6 bdbd
00000380: ed62 b4be 28f0 6ebe 8cf2 59bd 06df df3e
00000390: edea 583b f203 3a3e a2ca 9f3b db90 86bf
000003a0: 9a76 8a3e fd7b 33bd aa48 243e 6110 c0bd
000003b0: 2a11 2cbe 485d bfbe 74af c3be 311b 6fbe
000003c0: 85a5 45bd 04d9 5ebc dd29 65be 3a37 b9be
000003d0: 0bf5 b13e 1eb1 c1be 76a2 adbe 4bfe 443e
000003e0: ff75 363f d760 f4bd c7ce 5abe e524 3bbf
000003f0: 9d31 2e3f a11d fcbc 0f09 a9be bf5d dcbe

middle_layers.0.bias f4 [40]
0.1755159 -0.097507425 0.08851382 0.024747293 -0.12586223 0.17338273 0.13391754 0.0041336548
0.08499431 0.023672316 -0.00830374 0.007344988 0.2308341 0.48750982 -0.17271192 0.0903663
-0.2645939 0.10133298 -0.852935 0.07650255 0.10475552 -0.1724978 -0.124016955 0.14068505
-0.05262168 -0.021238951 -0.029108824 -0.1844787 -0.09109468 0.12346942 -0.060831577 0.08739007
-0.0011349261 -0.07614396 0.13161431 0.39171705 -0.08567861 0.08299116 0.011948798 0.124505945
00000000: 71ba 333e f9b1 c7bd bc46 b53d d6ba ca3c
00000010: 07e2 00be 3e8b 313e ae21 093e 9c73 873b
00000020: 7f11 ae3d 72ec c13c 690c 08bc 3aae f03b
00000030: c65f 6c3e e39a f93e 65db 30be f711 b93d
00000040: da78 87be aa87 cf3d f359 5abf 5ead 9c3d
00000050: 108a d63d 43a3 30be 9afc fdbd be0f 103e
00000060: d589 57bd 4ffd adbc a175 eebc fce7 3cbe
00000070: d98f babd 89dd fc3d 882a 79bd 91f9 b23d
00000080: cdc1 94ba 5df1 9bbd e7c5 063e 238f c83e
00000090: 4478 afbd 45f7 a93d e4c4 433c f9fc fe3d

middle_layers.1.weight f4 [40, 40]
0.07260433 -0.11246846 -0.355448 0.25331682 0.20869413 0.14375876 -0.24208236 -0.25861225
0.31662273 -0.079868026 -0.3236776 -0.19274078 -0.069628626 0.18788938 -0.06355221 -0.26462677
-0.20372044 0.5734808 -0.11963365 0.16257906 0.63058543 0.13305573 -0.20006245 0.40701124
-1.2202173 0.30778295 -0.41313505 -0.28974962 -0.46235558 0.050675403 0.036325764 1.0948384
-0.09296112 -0.36547297 0.2107768 0.38189468 -0.19729358 -0.4473486 -0.11419878 0.15012324
-0.07976338 -0.33279988 0.15640683 0.12367034 -0.07094844 -0.196146 0.07633486 0.16103226
-0.107684635 -0.08064996 -0.19860229 -0.10627526 -0.002548415 -0.005764208 -0.27000737 -0.11247582
0.3623679 -0.15847386 -0.13735218 -0.28784516 -0.15305668 -0.1973198 0.07289929 -0.45694
0.88415414 -0.088574104 0.10313712 -0.120788656 1.1671349 0.07271007 0.34595275 -0.026578456
-0.06341239 0.19099504 0.09045975 -0.36266065 0.39504325 0.048117682 0.0902368 -0.33566234
0.12907584 -0.02819059 0.05207472 0.26179573 0.25243428 -0.02929736 -0.110683784 -0.067602836
-0.19019519 0.034267824 0.07949781 -0.15053932 -0.13473116 -0.14056814 -0.041502163 -0.070240915
-1.353897 -0.1439404 -0.08866793 0.27768663 0.18134539 -0.009058569 0.007028467 -0.21567501
-0.06473626 -0.27838174 0.44828194 -0.339549 -0.22102411 -0.07054223 -0.34922865 0.18799049
0.084997706 -0.15396255 0.45428044 -0.35476208 -0.033977535 0.1403294 0.10414518 0.37923813
0.2685306 0.048079845 -0.5543164 0.12363959 -0.43698198 -0.061566386 0.27192113 -0.1702047
-0.16954097 -0.40384325 0.24103038 -0.0045719417 0.13413797 -0.6215645 -0.15876155 0.53869873
-0.58000654 -0.19876848 0.20507316 0.26884967 -0.11484876 -0.46305096 -0.285498 -0.13150409
-0.40171486 -0.1142966 -0.22800526 0.16467585 0.28618097 0.55820465 0.018394243 0.40606388
-0.4601382 0.14689286 0.1550211 -0.124767005 -0.18537423 0.013610847 -0.27240193 -0.008310536
0.29079628 -0.010186842 -0.22874297 0.22592439 0.093394086 -0.06699666 -0.03233593 -0.37835488
-0.43720448 0.2786686 0.11135788 -0.1281358 -0.27519292 0.07112342 -0.20053017 -0.19037676
-0.0032797873 -0.16526258 0.03083914 0.2847452 0.16689858 0.056719545 -0.115323305 -0.16581108
0.20112817 -0.26806894 -0.164046 -0.061639525 0.13922253 0.031762257 -0.29321492 -0.15371199
-0.24277876 0.13545233 -0.20898572 -0.35721093 -0.39605218 0.102439515 -0.09367595 0.062439013
0.14132433 0.038840804 0.06163296 0.113199346 -0.1555531 0.08626416 0.108375005 0.21777199
0.12635079 -0.124202475 -0.18293841 0.15765387 0.012521098 0.31271133 -0.013523085 -0.3394957
0.9757279 0.30319235 -0.016725924 -0.17680156 -0.15487133 -0.28672287 0.16256045 0.44007355
0.2889994 0.2055948 -0.20434552 0.5081963 -0.03798214 0.047111202 -0.12193499 -0.19765903
-0.07543803 0.19561805 -0.30611408 -0.043333936 0.25370052 -0.008132039 -0.23777235 -0.37894797
-0.24473394 0.17521824 -0.06607201 0.014213821 0.082752444 -0.13833287 -0.10934389 -0.2004525
0.10294007 0.254358 0.12407454 -0.0067214714 0.08203444 -0.1363794 -0.14513521 -0.0653249
00000000: 94b1 943d dd55 e6bd 48fd b5be beb2 813e
00000010: eab3 553e 7f35 133e 70e4 77be d368 84be
00000020: 601c a23e d991 a3bd 12b9 a5be d75d 45be
00000030: 7499 8ebd 1366 403e a927 82bd 297d 87be
00000040: 179c 50be a3cf 123f 7d02 f5bd 207b 263e
00000050: 0c6e 213f c33f 083e 2cdd 4cbe c763 d03e
00000060: 1530 9cbf ba95 9d3e 7086 d3be 105a 94be
00000070: dfb9 ecbe 0391 4f3d 53ca 143d aa23 8c3f
00000080: 6662 bebd 461f bbbe e0d5 573e b387 c33e
00000090: 5407 4abe e00a e5be 0de1 e9bd e8b9 193e
000000a0: fc5a a3bd bf64 aabe 1d29 203e e046 fd3d
000000b0: 6a4d 91bd 7fda 48be 7355 9c3d a4e5 243e
000000c0: c389 dcbd ce2b a5bd 665e 4bbe d8a6 d9bd
000000d0: 4f03 27bb aee1 bcbb 683e 8abe b959 e6bd
000000e0: 4988 b93e f946 22be 0da6 0cbe 7160 93be
000000f0: e4ba 1cbe 340e 4abe 394c 953d 0af4 e9be
00000100: ed57 623f 5766 b5bd 8e39 d33d 0b60 f7bd
00000110: ad64 953f 04e9 943d b820 b13e 10bb d9bc
00000120: 5bde 81bd 3494 433e f642 b93d a8ae b9be
00000130: 1c43 ca3e 0c17 453d 12ce b83d efdb abbe
00000140: 752c 043e f4ef e6bc 4d4c 553d 170a 863e
00000150: 113f 813e 0401 f0bc 2eae e2bd 5b73 8abd
00000160: 87c2 42be 6b5c 0c3d bfcf a23d fb26 1abe
00000170: f7f6 09be 18f1 0fbe 2cfe 29bd 78da 8fbd
00000180: 7f4c adbf 1d65 13be 8897 b5bd f12c 8e3e
00000190: 9bb2 393e 646a 14bc 0e4f e63b e9d9 5cbe
000001a0: 7294 84bd 0d88 8ebe 3685 e53e 5ed9 adbe
000001b0: 2554 62be 7278 90bd 19ce b2be 9480 403e
000001c0: 4713 ae3d 5ca8 1dbe 7297 e83e 60a3 b5be
000001d0: 072c 0bbd 83b2 0f3e 114a d53d 802b c23e
000001e0: d87c 893e 5fef 443d aee7 0dbf c136 fd3d
000001f0: 1abc dfbe 092d 7cbd 3f39 8b3e 244a 2ebe
00000200: 269c 2dbe 8bc4 cebe abd0 763e 3ad0 95bb
00000210: 775b 093e da1e 1fbf 6392 22be 29e8 093f
00000220: 4f7b 14bf f789 4bbe b3fe 513e aaa6 893e
00000230: d435 ebbd 0415 edbe cb2c 92be 02a9 06be
00000240: 92ad cdbe 5614 eabd 367a 69be c9a0 283e
00000250: 5086 923e 80e6 0e3f 86af 963c 9be7 cf3e
00000260: 3c97 ebbe 156b 163e dabd 1e3e d885 ffbd
00000270: bed2 3dbe 0800 5f3c 4478 8bbe ea28 08bc
00000280: 40e3 943e b6e6 26bc 993b 6abe b958 673e
00000290: 6645 bf3d 8b35 89bd ae72 04bd bbb7 c1be
000002a0: 44d9 dfbe a7ad 8e3e 9a0f e43d 0836 03be
000002b0: 16e6 8cbe 28a9 913d c857 4dbe 20f2 42be
000002c0: b3f1 56bb 983a 29be 5da2 fc3c 1fca 913e
000002d0: 76e7 2a3e c152 683d a02e ecbd 61ca 29be
000002e0: 8bf4 4d3e 5540 89be adfb 27be ba79 7cbd
000002f0: 5a90 0e3e 2419 023d 4420 96be ad66 1dbe
00000300: ff9a 78be 04b4 0a3e 5a00 56be 5ae4 b6be
00000310: 5ac7 cabe cfcb d13d 2dd9 bfbd 0dc0 7f3d
00000320: 53b7 103e 8917 1f3d d872 7c3d 0fd5 e73d
00000330: 5049 1fbe 44ab b03d b7f3 dd3d 9fff 5e3e
00000340: 1a62 013e de5d febd 3554 3bbe 0470 213e
00000350: 4b25 4d3c b31b a03e ee8f 5dbc 61d2 adbe
00000360: 4ec9 793f 073c 9b3e ce04 89bc 780b 35be
00000370: 9796 1ebe 57cd 92be 3f76 263e 5251 e13e
00000380: bbf7 933e 7187 523e f43f 51be 2719 023f
00000390: 2993 1bbd adf7 403d 0db9 f9bd 2167 4abe
000003a0: 417f 9abd 1950 483e fcba 9cbe ed7e 31bd
000003b0: 09e5 813e 3e3c 05bc 987a 73be 7805 c2be
000003c0: 899b 7abe 696c 333e c350 87bd 16e1 683c
000003d0: 1d7a a93d 22a7 0dbe b0ef dfbd 6c43 4dbe
000003e0: 3ed2 d23d 363b 823e cb1a fe3d ca3f dcbb
000003f0: ac01 a83d 0ba7 0bbe 539e 14be 10c9 85bd

middle_layers.1.bias f4 [40]
-0.06073582 -0.082112476 0.029453376 -0.083806075 -0.09033841 0.019756936 0.026900344 0.009826483
-0.21809244 -0.08999987 0.064023346 0.08912702 0.28880444 0.13004519 -0.11290682 0.12756562
0.20823725 -0.14001305 -0.116977796 0.007572889 0.124283835 -0.04623453 0.06572149 0.09912885
-0.0062081986 0.06841033 -0.042569228 -0.19500738 0.062545955 0.13863613 -0.14853753 0.055236816
0.05797865 0.10072898 0.13186605 -0.038244747 -0.13114038 -0.14058399 -0.10464386 0.053466048
00000000: 20c6 78bd 962a a8bd 3548 f13c 85a2 abbd
00000010: 5803 b9bd 4cd9 a13c 1c5e dc3c 42ff 203c
00000020: a053 5fbe da51 b8bd ac1e 833d 3a88 b63d
00000030: 2dde 933e 912a 053e b13b e7bd 90a0 023e
00000040: 253c 553e 955f 0fbe 0e92 efbd ff25 f83b
00000050: 8688 fe3d 6b60 3dbd fd98 863d 1104 cb3d
00000060: 256e cbbb b71a 8c3d 125d 2ebd 04b0 47be
00000070: 1818 803d a1f6 0d3e 391a 18be 0040 623d
00000080: 057b 6d3d ff4a ce3d e507 073e 86a6 1cbd
00000090: aa49 06be 40f5 0fbe 854f d6bd 37ff 5a3d

layer_out.weight f4 [2, 40]
-0.047981717 -0.11741223 0.053096004 -0.11236971 -0.020387966 -0.077584155 0.028206721 -0.077186905
0.0818439 -0.09962039 0.08327798 -0.09023632 -0.07007102 0.1258833 0.009221658 0.13735306
-0.07584158 -0.010600624 0.10031565 -0.10476164 0.1352365 0.07033584 -0.059770115 0.1509011
-0.14980656 -0.07481664 0.17906682 -0.04018637 0.11503516 0.09378297 0.0075337705 -0.17177847
0.093088605 0.029250966 -0.044347372 0.026592137 -0.13234203 0.058909338 -0.018052006 -0.113639146
-0.108275056 0.055617828 -0.108638324 -0.08752614 -0.104546525 -0.116924636 -0.077671826 -0.09376303
-0.022394072 0.14356919 0.03683935 -0.032544635 -0.032730788 0.10768403 -0.058323335 0.09595645
-0.07140079 -0.05581855 -0.008532583 0.14627632 0.061520502 0.024839645 -0.051022388 0.024982905
-0.10255732 0.10777294 -0.08929623 -0.027754575 0.13035884 0.011779607 0.044292834 -0.08226223
-0.049359582 0.059911586 0.14596954 0.054377712 0.11116039 -0.023145458 -0.07482115 -0.034739427
00000000: 7a88 44bd d375 f0bd 327b 593d 1722 e6bd
00000010: aa04 a7bc 71e4 9ebd c811 e73c 2b14 9ebd
00000020: c69d a73d c605 ccbd a58d aa3d d2cd b8bd
00000030: 6581 8fbd 8de7 003e 7016 173c 48a6 0c3e
00000040: d552 9bbd 3dae 2dbc 4b72 cd3d 458d d6bd
00000050: 707b 0a3e 3d0c 903d 82d1 74bd d185 1a3e
00000060: e466 19be 7739 99bd 4b5d 373e 779a 24bd
00000070: 8e97 eb3d 4911 c03d d9dd f63b b2e6 2fbe
00000080: 3da5 be3d b99f ef3c 97a5 35bd c1d7 d93c
00000090: ab84 07be eb4a 713d cde1 93bc a4bb e8bd
000000a0: 50bf ddbd 85cf 633d c57d debd e840 b3bd
000000b0: 7d1c d6bd 2f76 efbd 6812 9fbd d506 c0bd
000000c0: c673 b7bc cd03 133e dce4 163d 864d 05bd
000000d0: b810 06bd 7289 dc3d 73e4 6ebd d184 c43d
000000e0: 943a 92bd fea1 64bd 3fcc 0bbc 76c9 153e
000000f0: ecfc 7b3d 837c cb3c dafc 50bd f3a8 cc3c
00000100: 9209 d2bd 0fb8 dc3d f1e0 b6bd 905d e3bc
00000110: ca7c 053e 41ff 403c 676c 353d 1a79 a8bd
00000120: 462d 4abd da65 753d 0a79 153e 2abb 5e3d
00000130: 0fa8 e33d 8b9b bdbc d53b 99bd ee4a 0ebd

layer_out.bias f4 [2]
0.064926215 0.1931667
00000000: 09f8 843d 7ecd 453e
