model/0.002_500_40_14:41.pth (torch, 17412 bytes, 8 tensors)

layer_in.weight f4 [40, 3]
0	0x3eb9c9bb	0.3628672
1	0xbeaaecc7	-0.33383772
2	0xbd10dc4f	-0.035366353
3	0xbd4f8920	-0.050667882
4	0xbef2da5d	-0.47432223
5	0xbf0f6a6b	-0.56021756
6	0x3bd3b1f7	0.006460424
7	0xbe48b6c2	-0.19600967
8	0x3f0ee010	0.5581064
9	0x3d38953a	0.04506419
10	0xbe435a73	-0.19077472
11	0xbacd70ef	-0.0015673916
12	0x3ed72729	0.42022064
13	0xbebd5487	-0.36978552
14	0x3e87dbaa	0.26534778
15	0x3ef60224	0.48048508
16	0x3eac0cc1	0.3360348
17	0xbe219cc2	-0.15782455
18	0xbe36636e	-0.17811367
19	0x3d75b452	0.05998642
20	0xbd17bd0a	-0.037045516
21	0xbe24dfc3	-0.16100983
22	0x3e8d45ea	0.27592403
23	0x3ee5e1ba	0.44898778
24	0x3ea708ba	0.32623845
25	0x3eda1564	0.42594445
26	0x3f08cad5	0.534345
27	0x3ee19404	0.4405824
28	0x3afa8b3a	0.0019114979
29	0xbe8a1a74	-0.26973307
30	0x3f07b7e0	0.53014946
31	0x3e4e88ee	0.20169422
32	0x3e4a24d3	0.1974061
33	0xbefa4d8b	-0.48887286
34	0x3e04708b	0.12933557
35	0xbef47e29	-0.47752503
36	0x3d21397f	0.039361473
37	0xbe48682f	-0.19570993
38	0x3f1543ee	0.5830678
39	0xbecccde1	-0.40000823
40	0x3eca19e8	0.3947289
41	0x3da13315	0.07871071
42	0xbecd01c1	-0.400404
43	0x3f0b2944	0.5435984
44	0xbcb9079b	-0.022586634
45	0x3ed5cb28	0.41756558
46	0xbf04668a	-0.5171896
47	0xbd43ce76	-0.04780432
48	0x3f046cb7	0.51728386
49	0xbe88a1ea	-0.2668603
50	0x3e8c08e8	0.27350545
51	0xbebcbd16	-0.3686301
52	0x3c7a69ec	0.015284043
53	0x3e0bccc9	0.13652338
54	0x3e7d97a5	0.24764879
55	0xbe8a518b	-0.27015337
56	0xbf0416ab	-0.5159709
57	0x3f0124bf	0.50446695
58	0x3dfde690	0.12397492
59	0x3ef758f0	0.4831004
60	0xbed4b3bd	-0.4154338
61	0xbe5b87cb	-0.2143852
62	0x3ebb2158	0.36548877
63	0x3eb5028d	0.3535351
64	0xbef7dc18	-0.48410106
65	0xbe9d3490	-0.30704165
66	0xbecd3ccb	-0.40085444
67	0xbe300ef4	-0.17193204
68	0xbedd6a60	-0.4324522
69	0x3d7b0528	0.061284214
70	0x3d283bce	0.04107266
71	0xbea7ea8d	-0.32796136
72	0xbec36cd5	-0.3816897
73	0xbdf2307e	-0.118256554
74	0xbe4a0512	-0.19728497
75	0x3ec6e4fb	0.38846573
76	0xbe7aad29	-0.24480118
77	0x3ebc7d52	0.36814362
78	0xbd12c20e	-0.035829596
79	0x3ec653ba	0.38735753
80	0xbede1673	-0.43376502
81	0x3d5cd70e	0.05391603
82	0xbd0e71bb	-0.03477643
83	0xbdfb246f	-0.122628085
84	0xbe9c86c1	-0.3057156
85	0x3f05d3e7	0.5227646
86	0xbe67e6a3	-0.22646575
87	0x3f08f7b2	0.53502953
88	0x3f08cf94	0.5344174
89	0x3ed6a3ff	0.41921994
90	0x3eea8927	0.45807764
91	0xbe832676	-0.2561528
92	0xbf138e2c	-0.5763881
93	0x3d9c8575	0.076426424
94	0xbe44b356	-0.19209036
95	0xbe9e1d3b	-0.30881676
96	0xbedc6ba9	-0.43050888
97	0xbef3340d	-0.4750065
98	0x3f07c4ea	0.5303484
99	0xbe939b3d	-0.28829375
100	0x3eb5b083	0.3548623
101	0x3e30cd6e	0.17265865
102	0xbc867aa6	-0.016415905
103	0xbea6c7f6	-0.32574433
104	0x3e6f40b5	0.23364528
105	0x3db83b84	0.08995727
106	0xbe8e8805	-0.2783815
107	0xbe4c5a9f	-0.19956444
108	0x3e9602ef	0.29299113
109	0x3dc0f491	0.09421647
110	0xbec1ca4b	-0.3784965
111	0xbebdefb9	-0.37096956
112	0x3ea2af8b	0.31774554
113	0x3e2f5ad0	0.17124486
114	0xbc670fde	-0.014102904
115	0x3ea7dcab	0.32785544
116	0x3f12f932	0.5741149
117	0x3c158ff3	0.009128558
118	0xbe924fdc	-0.28576553
119	0xbece4347	-0.40285704

layer_in.bias f4 [40]
0	0x3e9801c9	0.29688862
1	0x3e2a5445	0.16633709
2	0x3d8a079d	0.06739733
3	0x3ef6852a	0.4814847
4	0x3e716e7a	0.235773
5	0xbc2ccd76	-0.010547033
6	0x3f06c917	0.5265059
7	0xbeb88acf	-0.36043403
8	0x3f01b74c	0.50670314
9	0x3f071585	0.5276721
10	0x3db34eae	0.08755241
11	0xbee84797	-0.4536712
12	0xbe9c6718	-0.30547404
13	0xbdd9e5e7	-0.106395535
14	0xbefbf05b	-0.49206814
15	0xbdf47522	-0.11936404
16	0x3ef5acc1	0.47983363
17	0xbf04a6dc	-0.5181711
18	0x3e49755d	0.19673677
19	0x3e414829	0.18875183
20	0xbeeb9104	-0.46009076
21	0x3ed5aa47	0.41731474
22	0xbec42f6d	-0.38317433
23	0x3ef22169	0.47291115
24	0xbed6c6f0	-0.41948652
25	0xbed56215	-0.41676393
26	0x3e8b8e02	0.2725678
27	0xbec637f9	-0.3871458
28	0xbf1606d3	-0.5860416
29	0xbf01d9f0	-0.5072317
30	0xbe64f8aa	-0.22360483
31	0xbe3b7fbb	-0.18310444
32	0x3ed569dd	0.4168233
33	0xbc16e891	-0.009210722
34	0xbe8917a6	-0.26775855
35	0x3ed2bb28	0.41158414
36	0xbedc94b0	-0.4308219
37	0x3e2ffed9	0.1718706
38	0xbedea60e	-0.43486065
39	0x3f0acaac	0.542155

middle_layers.0.weight f4 [40, 40]
0	0x3f1cd7db	0.6126687
1	0xbf9e93e8	-1.2388887
2	0xbeba593f	-0.36396214
3	0xbf279ad1	-0.65470606
4	0x3ece8cfe	0.40341944
5	0xbe6ccfc3	-0.2312613
6	0xbffc24ed	-1.9698769
7	0x3e3e73f9	0.18598928
8	0x3fe7a7aa	1.8098042
9	0xbce37d5b	-0.027769735
10	0xbe1336f1	-0.14376427
11	0xc003bda2	-2.0584493
12	0x3ffdbbb4	1.9822907
13	0xbe0edae0	-0.13950682
14	0xc00cb161	-2.1983263
15	0xbf73b28f	-0.95194334
16	0x3e063212	0.13105038
17	0x3e9cd74c	0.30633008
18	0x3eb1bb14	0.34713042
19	0x3dacc11f	0.084352724
20	0x400f6f91	2.2411845
21	0xbe1987c0	-0.14993191
22	0xc02988ae	-2.6489673
23	0xbed334e1	-0.4125128
24	0xbdf7fd16	-0.12108819
25	0x3f45a690	0.7720728
26	0x3effd5f4	0.4996792
27	0x40257afa	2.585631
28	0xbdd4300f	-0.10360729
29	0x3e025f76	0.12731728
30	0xbedd461c	-0.43217552
31	0xc012a3e7	-2.2912538
32	0x3eef329e	0.46718305
33	0xbe31a16a	-0.17346731
34	0x3e8376bf	0.25676534
35	0xbff25071	-1.8930799
36	0xbdea319a	-0.11435242
37	0xba968f26	-0.0011486753
38	0x3dd9a08f	0.10626327
39	0xbfc9483f	-1.5725173
40	0xbe08174e	-0.1329014
41	0xbed404cb	-0.41409907
42	0x3c29b0f4	0.01035713
43	0x3ea09b85	0.31368652
44	0xbd8a365e	-0.06748651
45	0x3e90b903	0.28266153
46	0x3e6559d5	0.2239755
47	0xbce11b11	-0.027478727
48	0x3c431c29	0.011908569
49	0xbce02121	-0.027359547
50	0x3e5a8381	0.21339227
51	0x3ed3b750	0.41350794
52	0xbea487f6	-0.3213498
53	0x3e278321	0.16358615
54	0x3e88a403	0.2668763
55	0xbe09b2df	-0.1344714
56	0xbe4a8e9e	-0.19780967
57	0x3c97eb8b	0.018544933
58	0xbeafd9be	-0.34345812
59	0xbd8695ec	-0.06571564
60	0xbf551eed	-0.83250314
61	0x3de0b480	0.10971928
62	0x3e636ef4	0.22210294
63	0x3ed22024	0.41040146
64	0x3e3dd762	0.18539193
65	0xbe0adf4d	-0.13561745
66	0x3e9695bd	0.29411116
67	0x3ec4f404	0.3846742
68	0xbd16e77a	-0.036841847
69	0xbdc343ac	-0.09534392
70	0x3e36e6ff	0.17861556
71	0x3ea964fc	0.33084857
72	0xbe9300b9	-0.2871149
73	0x3d20fdf9	0.039304707
74	0xbe95804d	-0.29199448
75	0x3db92459	0.09040136
76	0xbdccbac9	-0.09996564
77	0x3d061fe5	0.03274526
78	0x3e1bbef2	0.15209559
79	0x3cf1c17c	0.029511206
80	0xbd1cd7f9	-0.038291905
81	0x400c19f6	2.1890845
82	0xbee35590	-0.44401217
83	0xbd002d20	-0.031293035
84	0xbb9a2989	-0.0047046584
85	0xbf50e747	-0.816029
86	0xbee0d4a0	-0.4391222
87	0x3f4aee43	0.7926981
88	0xbe088fa9	-0.13336052
89	0x3e05ea77	0.13077722
90	0x3efef65f	0.4979734
91	0xbeb475f2	-0.35246235
92	0xbec02b51	-0.37533048
93	0x3eaa1a86	0.3322336
94	0x3e17fcad	0.14842482
95	0x3eb846ac	0.35991418
96	0xbef3df19	-0.47631148
97	0xbe065b9c	-0.13120884
98	0xbdfe0f2e	-0.12405239
99	0xbf0ea9c1	-0.55727774
100	0x3fb4b050	1.4116306
101	0xbf4034c8	-0.7508054
102	0x3e8e8f68	0.27843785
103	0xbee11af7	-0.43965885
104	0xbfd47a81	-1.6599885
105	0xbf073d49	-0.5282789
106	0xbfd4bb52	-1.6619666
107	0xbef883fc	-0.48538196
108	0x3ecdb669	0.4017823
109	0xbe305dcd	-0.17223282
110	0x3e2179e8	0.1576916
111	0x3df0b1d3	0.11752667
112	0x3e63baec	0.22239274
113	0x3de7ec4e	0.113243684
114	0x3e960653	0.293017
115	0x3dbc0104	0.09179881
116	0x3f9f3120	1.2436867
117	0xbe86ff55	-0.26366678
118	0x3dc1a2fc	0.09454915
119	0x3d7a1792	0.061057635
120	0xbd8a5173	-0.067538165
121	0x3e57d288	0.21076405
122	0xbd528c6b	-0.051403444
123	0xbd1bc77b	-0.038032036
124	0xbdd2362a	-0.10264237
125	0xbf167f90	-0.58788395
126	0x3f36610d	0.7124184
127	0x3d831a50	0.06401503
128	0x3e44d078	0.1922015
129	0x3eda24d0	0.4260621
130	0xbc9da3ab	-0.019243082
131	0x3e60a5c6	0.21938238
132	0x3c189b55	0.009314378
133	0x3de8c018	0.11364764
134	0x3e369988	0.17832005
135	0x3dff21cf	0.1245762
136	0x3d3e1f03	0.046416294
137	0xbedd3614	-0.4320532
138	0x3de890ff	0.11355781
139	0x3d26e24c	0.040743157
140	0xbf21f180	-0.63259125
141	0x3e7d7df1	0.24755074
142	0x3f494178	0.7861552
143	0x3d12490c	0.035714194
144	0x3dec329c	0.115330905
145	0xbe3e2539	-0.18568887
146	0x3cd45b01	0.0259223
147	0x3dee038d	0.11621771
148	0xbe52a637	-0.20571218
149	0x3e2d4966	0.1692253
150	0xbd942fed	-0.072357036
151	0x3ecb2629	0.3967755
152	0x3ca4ff19	0.020141171
153	0x3eb73921	0.35785773
154	0xbe8d3f27	-0.27587244
155	0x3ed49d90	0.4152646
156	0xbe9048be	-0.28180498
157	0x3d7257c5	0.059165735
158	0x3d67493e	0.056466334
159	0xbd062dbe	-0.032758467
160	0xbee7d072	-0.4527622
161	0x3f0959db	0.53652734
162	0x3dd61736	0.10453646
163	0x3f30e519	0.69099575
164	0xbe9b1db5	-0.30296102
165	0x3da27674	0.079327494
166	0x3fe344a3	1.7755321
167	0x3e6984f3	0.22804622
168	0xbf41d7b7	-0.7571978
169	0x3e86dbf4	0.26339686
170	0xbdb2b7bf	-0.08726453
171	0x3ff18194	1.8867669
172	0xbfecbf14	-1.8495812
173	0x3d9f18c6	0.07768397
174	0x3fdb11e1	1.7114831
175	0x3f27916e	0.65456283
176	0x3eb07c39	0.34469774
177	0xbcfc43fd	-0.030794138
178	0xbe88e453	-0.26736698
179	0x3ecfedb1	0.40611032
180	0xc06f0851	-3.7348826
181	0x3edd4ee0	0.4322424
182	0x3ff70801	1.9299318
183	0x3f4cfe10	0.8007517
184	0xbedc7803	-0.43060312
185	0xbed94185	-0.424328
186	0xbe0a52af	-0.13508104
187	0xbf53d1f8	-0.8274226
188	0xbe9f917e	-0.3116569
189	0x3ce09545	0.027414927
190	0xbdaea3ba	-0.08527322
191	0x3ff43a0e	1.9080217
192	0xbe9c90ef	-0.30579326
193	0x3e1865c2	0.14882568
194	0xbdcfe1fe	-0.101505265
195	0x3fd52590	1.6652088
196	0x3e127a46	0.14304456
197	0x3ef63a22	0.48091227
198	0x3ba14a44	0.004922183
199	0x3f616522	0.8804494
200	0x3d5b4db6	0.053540908
201	0x3d1feba1	0.039043073
202	0xbd9defb5	-0.07711736
203	0xbdb55422	-0.08853938
204	0x3e6966ac	0.22793072
205	0xbf000c13	-0.50018424
206	0xbdfbbec0	-0.12292242
207	0xbdff17af	-0.12455689
208	0x3eb26e25	0.3484966
209	0xbd0c017c	-0.034181103
210	0x3e3fc8b1	0.18728901
211	0xbf4b9cf8	-0.7953639
212	0x3f94c22e	1.1621759
213	0x3e085a5f	0.13315724
214	0xbec4e824	-0.3845836
215	0xbb8e4472	-0.0043416554
216	0xbeac18d2	-0.33612686
217	0x3e684879	0.22683896
218	0x3e7115f7	0.23543535
219	0xbe7e9a9d	-0.24863668
220	0x3f843700	1.0329285
221	0xbec3ea7e	-0.3826484
222	0xbf22a3ad	-0.63531
223	0xbd9b92e2	-0.07596375
224	0xbea318e0	-0.31854916
225	0xbe8dfc0a	-0.27731353
226	0xbdc68511	-0.09693349
227	0x3ed12974	0.4085194
228	0xbc24f973	-0.010069239
229	0x3e2a79b4	0.16647989
230	0xbd8e2baf	-0.06941926
231	0xbf92530f	-1.1431597
232	0x3eb00a71	0.34382966
233	0xbc791a45	-0.015204017
234	0x3e3d8a35	0.18509753
235	0xbd977b0a	-0.07396515
236	0xbde0ebff	-0.10982513
237	0xbeb97d97	-0.3622863
238	0xbec33458	-0.38125873
239	0xbe729349	-0.23688997
240	0xbccae56f	-0.024767606
241	0xbc1f38fc	-0.009718176
242	0xbe3361cc	-0.17517775
243	0xbebdcf91	-0.37072423
244	0x3e8a9f50	0.2707467
245	0xbedc31ab	-0.43006644
246	0xbeb1aec9	-0.34703663
247	0x3e7e26ef	0.2481954
248	0x3f32ab19	0.69792324
249	0xbe0514ca	-0.12996212
250	0xbe63e208	-0.22254193
251	0xbf32b6ef	-0.69810385
252	0x3f3044f0	0.6885519
253	0xbd663192	-0.056199618
254	0xbe91704c	-0.28405988
255	0xbedf7212	-0.43641716

middle_layers.0.bias f4 [40]
0	0x3e33ec46	0.175706
1	0xbe109280	-0.14118385
2	0x3cbb8435	0.02289019
3	0xbc4671ae	-0.012112064
4	0xbd95e932	-0.07319869
5	0x3e72ccb4	0.237109
6	0x3dc3b4a6	0.0955594
7	0xbc3e3c78	-0.011611097
8	0x3e173581	0.14766504
9	0xbb872e99	-0.004125428
10	0xbdb4aaa9	-0.08821613
11	0x3caa722a	0.02080639
12	0x3e05b93a	0.1305894
13	0x3ee5a674	0.44853556
14	0xbe589591	-0.21150805
15	0x3ddbfec0	0.10741949
16	0xbe972d8b	-0.29526934
17	0x3dce41fa	0.10071178
18	0xbf59a74f	-0.8502092
19	0x3d9d5121	0.0768149
20	0x3e1a1b13	0.1504939
21	0xbe0dad0d	-0.13835545
22	0xbdfd6833	-0.1237339
23	0x3dc7b81a	0.097519115
24	0xbd0f0165	-0.03491344
25	0x3b728939	0.003700806
26	0xbca815b0	-0.020518154
27	0xbe71e05a	-0.2362074
28	0xbd665940	-0.05623746
29	0x3e038de9	0.12847103
30	0xbdc8eb69	-0.09810526
31	0x3dad25e5	0.084544934
32	0x3cc36096	0.023849767
33	0xbd4e0d2c	-0.05030553
34	0x3da44b9d	0.080222346
35	0x3ec2a3b5	0.38015524
36	0xbddecefb	-0.10879322
37	0x3d78652e	0.060643367
38	0x3cf9390e	0.030422714
39	0x3d56c1b9	0.052430842

middle_layers.1.weight f4 [40, 40]
0	0x3ddc268d	0.107495405
1	0xbe35b041	-0.17743017
2	0xbed35b34	-0.4128052
3	0x3e6ecad4	0.2331956
4	0x3e3b62cf	0.18299411
5	0x3e3b3903	0.18283467
6	0xbe805f5d	-0.25072756
7	0xbe5b57ea	-0.21420255
8	0x3e9bf9db	0.30464062
9	0xbdecf936	-0.11570971
10	0xbe8a6ae8	-0.27034688
11	0xbe329d00	-0.17442703
12	0xbd63bab1	-0.055597965
13	0x3e5694d7	0.20955215
14	0xbd818ee3	-0.063260816
15	0xbe65ed4e	-0.22453806
16	0xbe8046cc	-0.25054014
17	0x3f0cc3d1	0.5498629
18	0xbe1dc867	-0.15408479
19	0x3e492299	0.19642104
20	0x3f2451fb	0.6418759
21	0x3e0a04fa	0.13478461
22	0xbe43a4a8	-0.1910578
23	0x3ece97e5	0.4035026
24	0xbf9e37ef	-1.236082
25	0x3e92f001	0.28698733
26	0xbebe60a4	-0.37183106
27	0xbe8e9fb5	-0.27856222
28	0xbef47119	-0.47742537
29	0x3d04ddde	0.03243815
30	0xbc62f8de	-0.01385328
31	0x3f894ce5	1.0726591
32	0xbdde55f1	-0.10856236
33	0xbecca8ad	-0.3997244
34	0x3e6c6f5a	0.23089352
35	0x3eb88413	0.36038265
36	0xbe71892a	-0.2358748
37	0xbecab699	-0.39592436
38	0xbdcd4be5	-0.10024241
39	0x3e21a47a	0.15785399
40	0xbd6ebc8b	-0.058285277
41	0xbea8cb96	-0.32967824
42	0x3e213bd6	0.15745482
43	0x3df09854	0.11747804
44	0xbd9ea70a	-0.07746704
45	0xbe21c7b1	-0.15798832
46	0x3da00595	0.07813565
47	0x3df49e62	0.119442716
48	0xbddadb38	-0.10686344
49	0xbdb3b504	-0.0877476
50	0xbe46f218	-0.19428289
51	0xbddc13c6	-0.10745959
52	0x3b108530	0.0022052042
53	0xbb0acf92	-0.002118085
54	0xbe981ac3	-0.29707918
55	0xbde013a4	-0.10941246
56	0x3eab4733	0.33452758
57	0xbe32c971	-0.17459656
58	0xbe2e097b	-0.16995804
59	0xbe80bcb7	-0.25143978
60	0xbe54e00f	-0.20788597
61	0xbe4e0cc0	-0.20122051
62	0x3d9e444f	0.077278726
63	0xbeec118d	-0.4610714
64	0x3f62f27a	0.8865124
65	0xbdf83cd1	-0.12120975
66	0x3e103d69	0.14085926
67	0xbdd6f1ac	-0.10495314
68	0x3f998d8b	1.199632
69	0x3da32f8f	0.079680555
70	0x3e9e13e3	0.30874547
71	0x3bd022a7	0.006351787
72	0xbd88aaf2	-0.0667323
73	0x3e1f54f2	0.15559748
74	0x3dee28bd	0.11628864
75	0xbeac2a66	-0.33626097
76	0x3eb7f844	0.359316
77	0x3de12a46	0.10994391
78	0x3db554ca	0.08854063
79	0xbea88563	-0.32914266
80	0x3db15c98	0.08660239
81	0xbd3359cf	-0.04378682
82	0x3c05f598	0.00817623
83	0x3e98494e	0.29743427
84	0x3e6968c9	0.22793879
85	0xbd82c633	-0.0638546
86	0xbe0ece11	-0.13945796
87	0xbd6aa405	-0.057285327
88	0xbe194e22	-0.14971212
89	0x3d50d02a	0.05097977
90	0x3d0b83eb	0.034061354
91	0xbe0a493f	-0.13504504
92	0xbe0d1741	-0.13778402
93	0xbe3722e6	-0.17884406
94	0xbced2dc9	-0.028952496
95	0xbdf039f0	-0.11729801
96	0xbfad17fb	-1.3522943
97	0xbe09a299	-0.13440932
98	0xbd7426ec	-0.05960743
99	0x3e918b7c	0.2842673
100	0x3e449334	0.19196779
101	0x3d204671	0.03912968
102	0xbd0d7667	-0.034536745
103	0xbe6d871d	-0.23196073
104	0xbddb9d2c	-0.107233375
105	0xbe76c1b4	-0.2409733
106	0x3edb899e	0.4287843
107	0xbebfce0a	-0.37461883
108	0xbe511ade	-0.20420405
109	0xbdbcad26	-0.09212713
110	0xbeb19a0b	-0.34687838
111	0x3e314f17	0.17315327
112	0x3e00cd51	0.12578322
113	0xbe22c2fe	-0.15894696
114	0x3ed020d1	0.40650037
115	0xbebd74f9	-0.37003306
116	0xbc9a28a8	-0.018818215
117	0x3dd72daa	0.105067566
118	0x3dd46f6b	0.10372814
119	0x3eafda4e	0.3434624
120	0x3e4ecaa0	0.20194483
121	0x3d9f0b6f	0.07765853
122	0xbf13f9af	-0.5780286
123	0x3e0ddace	0.13852999
124	0xbed7958d	-0.42106286
125	0xbe0c21a0	-0.13684702
126	0x3e81ca85	0.25349823
127	0xbe3394b5	-0.17537196
128	0xbe3becfc	-0.18352121
129	0xbecf2fd7	-0.40466186
130	0x3e9ba672	0.30400425
131	0x3d2bc01c	0.041931257
132	0x3de662c9	0.112493105
133	0xbf207497	-0.626779
134	0xbe301760	-0.17196417
135	0x3f0a4d75	0.5402444
136	0xbf08a1d4	-0.5337193
137	0xbe4b7e18	-0.1987232
138	0x3e806ddd	0.2508382
139	0x3e6c3ce4	0.23070103
140	0xbe1f1ec4	-0.1553908
141	0xbee47df7	-0.44627354
142	0xbe9c29cd	-0.3050064
143	0xbe7306c6	-0.23733053
144	0xbeb4684d	-0.35235825
145	0xbddb9aff	-0.107229225
146	0xbe408ddd	-0.18804117
147	0x3e7198bc	0.2359342
148	0x3e9f1783	0.31072626
149	0x3f0c38d1	0.54774195
150	0xbbe60b1d	-0.007020368
151	0x3ecb4139	0.39698198
152	0xbee523c2	-0.44753844
153	0x3e46dee9	0.19420971
154	0x3db4e11d	0.088319995
155	0xbe2d4353	-0.16920213
156	0xbe3a3606	-0.18184671
157	0xbd27f2d1	-0.041003052
158	0xbe7bcb45	-0.2458926
159	0xbd29bf61	-0.04144228
160	0x3e8e29bc	0.27766216
161	0xbd81ada5	-0.06331948
162	0xbe897c7d	-0.2685279
163	0x3e6ef65a	0.23336163
164	0x3dfa3321	0.12216783
165	0xbdca20d4	-0.09869543
166	0xbdf9e390	-0.12201607
167	0xbe9c0c2c	-0.30478036
168	0xbecf825c	-0.40529144
169	0x3e963c70	0.29342985
170	0x3d495c24	0.049160138
171	0xbe31f70e	-0.173794
172	0xbe9603d9	-0.2929981
173	0xba8475bd	-0.001010589
174	0xbe6348f7	-0.22195803
175	0xbe5ba329	-0.2144896
176	0xbd1449dd	-0.036203254
177	0xbe0f02de	-0.13965937
178	0x3d2d4cab	0.042309444
179	0x3e7fad8c	0.24968547
180	0x3e40e214	0.18836242
181	0x3dabdf04	0.08392146
182	0xbdcee78e	-0.10102759
183	0xbe19615b	-0.14978544
184	0x3e40f128	0.18841994
185	0xbe4b3e90	-0.19848084
186	0xbe202202	-0.15637973
187	0xbd83edff	-0.064418785
188	0x3dd9170f	0.10600101
189	0xbc72c12f	-0.014816566
190	0xbe9138a3	-0.28363523
191	0xbe3d21e9	-0.18469967
192	0xbe554118	-0.20825613
193	0x3dd024b7	0.10163253
194	0xbe44a1f4	-0.19202405
195	0xbeadc109	-0.33936337
196	0xbecd1274	-0.4005314
197	0x3db404bd	0.08789966
198	0xbd433d99	-0.047666166
199	0x3da090d4	0.07840124
200	0x3db2e901	0.08735848
201	0x3cf9ea18	0.030507132
202	0x3d969386	0.073523566
203	0x3ddaf4ab	0.10691198
204	0xbe38c39f	-0.18043374
205	0x3d6f96f5	0.058493573
206	0x3dd515f7	0.1040458
207	0x3e921cd5	0.28537622
208	0x3da42a5c	0.08015892
209	0xbd8fd977	-0.070239
210	0xbe172c30	-0.1476295
211	0xbd62d8f0	-0.05538267
212	0x3d293229	0.041307602
213	0x3e9ea365	0.30984035
214	0x3b974d9f	0.0046174075
215	0xbe834e1f	-0.2564554
216	0x3f7003f3	0.93756026
217	0x3ec5b654	0.38615668
218	0x3d0b822c	0.03405969
219	0xbe79436d	-0.24342127
220	0xbd9cdc90	-0.076592565
221	0xbe9cecb3	-0.30649337
222	0x3e449770	0.19198394
223	0x3ee9c64a	0.45659095
224	0x3e92d3db	0.28677258
225	0x3e4f64f9	0.20253362
226	0xbe9f261d	-0.31083766
227	0x3f0021e6	0.50051725
228	0xbdf4355a	-0.119242385
229	0xbce00458	-0.027345821
230	0xbdc4a8f5	-0.096025385
231	0xbe4bf268	-0.1991669
232	0xbdca7a49	-0.09886605
233	0x3e78676c	0.24258202
234	0xbe83023d	-0.25587645
235	0xbd700eca	-0.058607854
236	0x3e8f2519	0.2795799
237	0xbd5676d9	-0.052359436
238	0xbe5a5379	-0.21320905
239	0xbeaad1fb	-0.33363327
240	0xbe7082a7	-0.2348734
241	0x3e098121	0.13428165
242	0xbd9ba73d	-0.076002575
243	0xbcbf5d73	-0.02335999
244	0x3d26ef0e	0.040755324
245	0xbd9638a1	-0.0733502
246	0xbd9e43e7	-0.07727795
247	0xbe4a7500	-0.19771194
248	0x3d2dd7e2	0.04244221
249	0x3e770c04	0.24125677
250	0x3dfa196a	0.122118786
251	0xbcb25a25	-0.0217715
252	0x3df6fa8c	0.12059507
253	0xbe0225ad	-0.12709685
254	0xbe3a7726	-0.18209514
255	0xbd76d16a	-0.060258307

middle_layers.1.bias f4 [40]
0	0xbcce40f0	-0.025177449
1	0xbd401020	-0.046890378
2	0x3cfa6310	0.030564815
3	0xbe063705	-0.13106926
4	0xbd84f1a4	-0.06491402
5	0xbce6c2c0	-0.028169036
6	0x3d214328	0.039370686
7	0xbcd9b692	-0.026576314
8	0xbe857ce2	-0.2607184
9	0xbde18303	-0.110113166
10	0x3e07052d	0.13185568
11	0x3e264ad4	0.16239482
12	0x3e726bf3	0.23673992
13	0x3e10e1b6	0.14148602
14	0xbe1f12b5	-0.1553448
15	0x3e193945	0.14963253
16	0x3e583d9d	0.21117254
17	0xbe1112f9	-0.14167394
18	0xbd8a599e	-0.06755374
19	0x3c0d1147	0.008610076
20	0x3e193fa0	0.14965677
21	0xbd3f7b55	-0.046748478
22	0x3d9b8131	0.07593001
23	0x3d9c9693	0.07645907
24	0xbb8fbdf2	-0.004386657
25	0x3d0b94a0	0.034077287
26	0xbdbc8add	-0.092061736
27	0xbe549f70	-0.20763946
28	0x3deece63	0.11660459
29	0x3e2a5458	0.16633737
30	0xbe0f176f	-0.13973783
31	0x3db143a5	0.0865548
32	0x3e08e09e	0.13366935
33	0x3dcd7dcb	0.10033759
34	0x3e0e0a19	0.1387104
35	0xbdb58b84	-0.08864501
36	0xbdfba835	-0.12287942
37	0xbe086af3	-0.13322048
38	0xbdbbf274	-0.09177104
39	0x3d2a9469	0.04164544

layer_out.weight f4 [2, 40]
0	0x3c316936	0.010828307
1	0x3dc4aaf4	0.09602919
2	0x3d265a86	0.040613674
3	0xbd0e4532	-0.03473396
4	0xbdf53cbc	-0.11974475
5	0xbdc43ce5	-0.09581927
6	0x3db9e9a5	0.09077767
7	0x3da7d363	0.08194616
8	0x3d87cd82	0.066309944
9	0xbc67b3dc	-0.014142003
10	0xbdaf1e56	-0.08550708
11	0x3d59e70a	0.05319885
12	0xbcb22088	-0.021744028
13	0xbdea63d5	-0.11444823
14	0x3d830dee	0.06399141
15	0xbe02290b	-0.12710969
16	0x3dadab19	0.084799
17	0x3deaf756	0.11472957
18	0x3d99e926	0.07515173
19	0xbdc474a2	-0.095925584
20	0xbcc09ae3	-0.023511356
21	0xbe0a33ba	-0.13496295
22	0x3dc4e97f	0.09614848
23	0xbb861473	-0.004091793
24	0xbdc31ff5	-0.0952758
25	0xbd7bb879	-0.061455224
26	0x3d80c06d	0.06286702
27	0x3d3fd73a	0.046836115
28	0x3c9d1c8e	0.019178655
29	0xbcb099e3	-0.021557754
30	0x3d954d65	0.072901525
31	0xbd20ad6a	-0.03922788
32	0xbd9f2741	-0.07771159
33	0x3d1013d0	0.035175145
34	0x3d2d7f49	0.042357717
35	0xbb834109	-0.0040055555
36	0x3dd43cb3	0.1036314
37	0xbe0da091	-0.13830782
38	0xbda8f48e	-0.0824977
39	0x3e0239cc	0.1271736
40	0x3de7b58f	0.113139264
41	0x3dcc6f60	0.099821806
42	0xbd50c1a7	-0.05096593
43	0xbe17a9ae	-0.14810821
44	0xbd431e94	-0.047636583
45	0x3df286ef	0.11842143
46	0x3d5a0ada	0.053233005
47	0xbe020054	-0.12695438
48	0x3b823214	0.003973255
49	0x3d7a6e09	0.061140094
50	0xbd7e325d	-0.06205975
51	0x3d3804a4	0.0449263
52	0xbba0d6b5	-0.0049084076
53	0xbc7a3b10	-0.015272871
54	0x3ddef5da	0.10886736
55	0x3d5b127e	0.053484432
56	0x3d03f938	0.032220095
57	0x3d5c374f	0.053763684
58	0x3ce188c9	0.027531045
59	0xbd3889c9	-0.045053277
60	0xbd35d074	-0.04438825
61	0xbc8415f5	-0.016123751
62	0xbde8abaf	-0.11360871
63	0xbbc58c68	-0.0060287006
64	0x3dde7396	0.1086189
65	0xbd2eafb4	-0.042648032
66	0xbd8d0cb5	-0.06887189
67	0x3ce63e30	0.028105825
68	0xbd6c843a	-0.05774329
69	0xbd91c6cb	-0.07117995
70	0xbd21adbf	-0.039472338
71	0x3d084576	0.033269368
72	0xbe043366	-0.12910232
73	0x3e0d53ae	0.13801453
74	0x3d6430a5	0.055710454
75	0x3c8b2e6e	0.016989913
76	0x3d5ff53b	0.05467723
77	0x3db63e75	0.088986315
78	0x3d7f7605	0.06236841
79	0xbd8dd766	-0.069258496

layer_out.bias f4 [2]
0	0x3e755411	0.2395785
1	0x3dcf1faa	0.10113461
