model/0.02_12000_40_16:45.pth (torch, 10304 bytes, 6 tensors)

layer_in.weight f4 [40, 3]
0	0xbe50f35e	-0.20405337
1	0x3e8bf36c	0.27334154
2	0xbf7364dd	-0.9507578
3	0xbefab19a	-0.48963624
4	0x3e38700a	0.1801149
5	0xbed6ab0e	-0.4192738
6	0xbe1812bc	-0.14850897
7	0x3edbc4ba	0.42923528
8	0x3f24050e	0.6407021
9	0xbe96ac07	-0.2942812
10	0x3e934108	0.28760552
11	0x3ef54249	0.47902134
12	0x3e2aac2a	0.16667238
13	0x3ea83430	0.32852316
14	0x3e50c367	0.2038704
15	0x3c8daedc	0.017295294
16	0x3d69b994	0.057061747
17	0x3d2292fe	0.039690964
18	0x3ee9577b	0.45574555
19	0x3e8d50a6	0.27600592
20	0x3f37258c	0.71541667
21	0xbe8e2f4b	-0.27770457
22	0x3e8a5075	0.2701451
23	0xbea34f6d	-0.31896535
24	0xbee153e5	-0.4400932
25	0xbefed881	-0.49774554
26	0xbeb45eaa	-0.35228473
27	0xbea42a24	-0.320634
28	0x3de86848	0.11348015
29	0xbf243892	-0.6414882
30	0x3eeba60b	0.46025118
31	0x3ec22d14	0.37925017
32	0x3d2377e1	0.039909247
33	0xbef97bfb	-0.48727402
34	0x3e8ece15	0.27891603
35	0xbe9fdbb2	-0.31222302
36	0x3e851613	0.25993404
37	0x3e6f0361	0.23341133
38	0xbdd41848	-0.10356194
39	0xbe4e9afe	-0.20176312
40	0xbf074a6d	-0.5284794
41	0xbf0e3243	-0.55545443
42	0xbdc6423a	-0.096806005
43	0xbd11db8f	-0.035609778
44	0x3e80e899	0.25177458
45	0xbe863858	-0.26214862
46	0xbac87b9a	-0.0015295625
47	0x3f33439e	0.7002505
48	0xbf09cc79	-0.53827626
49	0x3ebfb19c	0.37440193
50	0xbe838f7a	-0.256954
51	0xbe8d2dec	-0.27574098
52	0x3c8a5612	0.016886745
53	0xbd89f6b1	-0.06736506
54	0xbeb0f21d	-0.34559718
55	0xbef28395	-0.47366014
56	0x3dba1d97	0.09087675
57	0x3c166399	0.009179019
58	0xbd4b818a	-0.049684085
59	0xbe367b81	-0.1782055
60	0xbde6b7c7	-0.112655215
61	0x3e6c3104	0.23065573
62	0xbf19a527	-0.6001763
63	0xbeeaa394	-0.45827925
64	0xbe55adb8	-0.2086705
65	0xbd85322a	-0.06503709
66	0xbe49193b	-0.19638531
67	0xbebf8e20	-0.3741312
68	0xbf1c30d0	-0.6101198
69	0xbd99b3d1	-0.075050004
70	0xbea514c1	-0.32242396
71	0x3e8949db	0.2681416
72	0xbdcac77f	-0.09901332
73	0xbec94197	-0.39307854
74	0xbea72b5e	-0.32650274
75	0xbe36ec77	-0.17863642
76	0xbd806d89	-0.06270892
77	0xbe38738c	-0.18012828
78	0xbee41316	-0.4454581
79	0xbdcd148e	-0.10013686
80	0xbe1838dc	-0.1486544
81	0x3df2ec57	0.118614845
82	0x3cd09b70	0.025464743
83	0xbf0d3d1d	-0.55171376
84	0x3e997462	0.29971606
85	0x3e5b0b2f	0.21390985
86	0x3f08ac87	0.53388256
87	0xbf11d8bd	-0.5697134
88	0xbe3dd3b2	-0.18537787
89	0xbec29512	-0.38004357
90	0x3ec96892	0.39337593
91	0xbeaf3bf5	-0.3422543
92	0xbf27fecc	-0.65623164
93	0x3f18cff9	0.5969234
94	0x3d8c2907	0.06843763
95	0x3f33b063	0.7019102
96	0xbebf1232	-0.3731857
97	0x3ed25c47	0.41086027
98	0x3ef4ef82	0.4783898
99	0x3e8e85b8	0.27836394
100	0xbde7178f	-0.1128379
101	0xbe8eef53	-0.27916965
102	0xbed2bcac	-0.4115957
103	0xbd6a5c03	-0.057216655
104	0xbd4f500f	-0.05061346
105	0xbe8c6532	-0.27420956
106	0x3e9625da	0.29325753
107	0xbf3d2bd4	-0.73895
108	0xbec037ae	-0.3754248
109	0xbe8c2385	-0.2737085
110	0x3e4318a7	0.19052373
111	0x3d83ba33	0.06431999
112	0x3dce3f7f	0.10070705
113	0x3e47d508	0.19514859
114	0xbd9a9007	-0.07547002
115	0x3ee9a65d	0.45634738
116	0xbf001d9e	-0.5004519
117	0x3e141927	0.1446272
118	0xbe8412ca	-0.25795585
119	0xbebcbbcf	-0.36862037

layer_in.bias f4 [40]
0	0xbef37583	-0.47550592
1	0x3e412994	0.18863517
2	0x3e996871	0.29962495
3	0x3eab01fe	0.33399957
4	0x3e98292d	0.29718915
5	0xbf348cf2	-0.70527565
6	0xbdd4faed	-0.10399423
7	0x3e947664	0.28996575
8	0xbe938874	-0.28815043
9	0xbd96337d	-0.07334039
10	0xbd337c38	-0.043819636
11	0xbed0ea97	-0.40803978
12	0x3f3fa131	0.74855334
13	0xbe8b88a4	-0.27252686
14	0x3ed4d1d6	0.41566342
15	0x3f0f05d2	0.55868256
16	0xbf062392	-0.52398026
17	0xbe3ebb87	-0.18626224
18	0x3ea9e3e1	0.3318167
19	0xbf1232fb	-0.5710904
20	0xbde75601	-0.11295701
21	0xbf1368c2	-0.5758172
22	0xbeb207dc	-0.3477162
23	0xbeb66891	-0.35626653
24	0xbe83f83c	-0.25775325
25	0xbf15f91c	-0.58583236
26	0x3f0d686b	0.55237454
27	0xbecbb551	-0.3978677
28	0xbecc5913	-0.39911708
29	0x3db9b6b2	0.090680495
30	0xbef6d118	-0.482064
31	0x3f3b32e3	0.7312452
32	0x3e6c47fb	0.23074333
33	0x3e982c1f	0.29721162
34	0xbf0addf0	-0.542449
35	0xbddb3fc7	-0.10705524
36	0x3e582e81	0.2111149
37	0x3f28fe10	0.6601267
38	0xbe706a31	-0.23478009
39	0xbeb76812	-0.35821587

middle_layers.0.weight f4 [40, 40]
0	0xbccad243	-0.024758464
1	0x3dcc5133	0.09976425
2	0x3f1a5dab	0.60299176
3	0x3e01dab5	0.12681086
4	0x3e29c534	0.16579133
5	0xbe28040f	-0.16407798
6	0x3e49c558	0.19704187
7	0x3f2f0111	0.68361
8	0xbf85c822	-1.0451701
9	0x3dcba0f7	0.09942811
10	0x3e2ab306	0.16669855
11	0xbec10d70	-0.37705564
12	0xbe97501a	-0.295533
13	0xbe4e2895	-0.20132668
14	0xbc0c0726	-0.008546626
15	0x3ef3ad51	0.47593167
16	0xbf8d920e	-1.1060197
17	0x3e40db1e	0.18833587
18	0xbd6a3cf3	-0.057187032
19	0xbf6df8e0	-0.9295788
20	0x3eb669c6	0.35627574
21	0xbec2589e	-0.37958235
22	0x3d84d303	0.0648556
23	0x3e94ae44	0.29039204
24	0x3e223690	0.15841126
25	0xbe719629	-0.23592438
26	0x3c77f158	0.015133224
27	0xbdc2f705	-0.095197715
28	0xbd528970	-0.051400602
29	0xbed65787	-0.41863653
30	0xbe01a2ac	-0.1265971
31	0xbf98922d	-1.1919609
32	0xbe7cd7ef	-0.24691747
33	0x3ec76414	0.3894354
34	0x3cdd0f63	0.026984876
35	0x3d7bee5e	0.06150662
36	0x3f18cbbf	0.5968589
37	0xbc55df58	-0.013053738
38	0xbec44abb	-0.38338265
39	0xbe3be3e2	-0.18348649
40	0xbdeaacdd	-0.11458752
41	0x3c4ecfac	0.012622755
42	0x3ebb6fa9	0.36608627
43	0x3e413171	0.18866517
44	0xbe0ed078	-0.13946712
45	0xbecbff44	-0.3984319
46	0xbe267db4	-0.1625889
47	0x3e5e01f5	0.21680434
48	0xbea89860	-0.32928753
49	0xbe5fa62d	-0.21840735
50	0x3e4b9388	0.19880497
51	0xbde9fcfa	-0.114252046
52	0x3cc45e22	0.023970667
53	0xbeaa9ad0	-0.33321238
54	0x3d343b5c	0.044001922
55	0x3e9a1092	0.30090767
56	0xbec3b6ce	-0.38225406
57	0xbd363ac8	-0.044489652
58	0xbe77402d	-0.24145575
59	0xbe962d35	-0.29331365
60	0xbe7ee088	-0.2489034
61	0xbdb04296	-0.0860645
62	0x3d068d40	0.03284955
63	0xbe39b991	-0.18137194
64	0xbcb3e05f	-0.021957574
65	0xbe7e6fb7	-0.24847303
66	0xbe2dc4fd	-0.16969676
67	0xbcee9f7c	-0.029128782
68	0xbe756f11	-0.2396815
69	0x3d453b2e	0.04815214
70	0xbe34c662	-0.17653802
71	0xbdd411d6	-0.103549644
72	0x3dac0b6a	0.084006146
73	0x3e1125a4	0.14174515
74	0x3d9b6556	0.07587688
75	0xbe8825c4	-0.26591313
76	0x3e5c625c	0.21521896
77	0x3e7f9f23	0.2496305
78	0xbe07bbfa	-0.13255301
79	0xbd9919fa	-0.07475658
80	0x3c9b0fcd	0.018928433
81	0xbd8f7f39	-0.07006688
82	0xbed1e922	-0.4099818
83	0xbcecd500	-0.02891016
84	0xbd46fdef	-0.048582014
85	0x3de37b12	0.11107458
86	0xbe76f6d9	-0.24117602
87	0xbd39c210	-0.045351088
88	0x3ebdd98c	0.37080038
89	0xbc9e5306	-0.019326698
90	0xbe65359d	-0.22383733
91	0x3e91048a	0.28323776
92	0xbe944545	-0.28959098
93	0x3ee6de90	0.45091677
94	0x3e0f8131	0.14014126
95	0xbe725437	-0.23664938
96	0x392c27b7	0.00016417993
97	0xbd9629c6	-0.073321864
98	0xbe8bac32	-0.27279812
99	0x3e3dfa52	0.18552521
100	0x3daad610	0.083416104
101	0x3eea6588	0.45780587
102	0x3e91c8fb	0.28473648
103	0x3d8aa070	0.06768882
104	0x3e968224	0.29396164
105	0x3e809e22	0.25120646
106	0xbe55f2b5	-0.20893367
107	0x3e187ff0	0.14892554
108	0x3df4c503	0.119516395
109	0x3e91b8bd	0.28461257
110	0x3e7d82f5	0.24756987
111	0xbdb3a2bc	-0.087712735
112	0xbe404f4b	-0.18780248
113	0x3e2e5837	0.17025839
114	0x3e933ed7	0.2875888
115	0x3e119a0f	0.14218925
116	0xbdb96de3	-0.09054162
117	0xbeb8dfb7	-0.3610818
118	0x3de3e74a	0.11128099
119	0xbd448ab0	-0.047983825
120	0xbcd8647d	-0.026415104
121	0xbdb3b1cb	-0.08774146
122	0xbe03a3b0	-0.1285541
123	0xbd47b12c	-0.04875295
124	0x3e09eee3	0.13470034
125	0x3e859593	0.2609068
126	0xbe3d0ce8	-0.18461955
127	0xbe5ae04f	-0.2137463
128	0x3e412048	0.1885997
129	0x3d01fed5	0.031737167
130	0x3cec061b	0.028811505
131	0x3e9f369c	0.3109635
132	0xbe67f781	-0.22653009
133	0x3d9a54ba	0.075356916
134	0xbe489844	-0.19589335
135	0xbef5e102	-0.4802323
136	0x3e58cbb3	0.21171455
137	0x3d491d93	0.04910047
138	0x3d7fe5a7	0.062474873
139	0x3ec3b61d	0.3822488
140	0xbe864043	-0.26220903
141	0x3e5ea379	0.21742047
142	0xbdcb0823	-0.09913661
143	0x3e54d024	0.20782524
144	0x3cd1e184	0.02562023
145	0x3caff036	0.021476846
146	0xbe215de6	-0.15758476
147	0xbc96ea2d	-0.01842221
148	0x3dbf0373	0.0932683
149	0xbda189db	-0.07887622
150	0x3c4037fb	0.011732097
151	0xbe89fc00	-0.26950073
152	0xbe5f0d45	-0.21782406
153	0xbd962fe7	-0.073333554
154	0xbb39ed08	-0.0028370041
155	0x3e0fccb5	0.14042933
156	0xbf165527	-0.5872368
157	0x3e694bbc	0.22782797
158	0x382b94fc	4.090833e-05
159	0x3e2630ff	0.16229628
160	0x3e5de972	0.21671084
161	0x3ced3ac3	0.028958684
162	0x3dd43730	0.10362089
163	0xbd22e15b	-0.039765697
164	0xbe86e7e6	-0.263488
165	0xbc2092c1	-0.009800614
166	0x3e392241	0.18079473
167	0xbe2855cf	-0.16438983
168	0xbd289197	-0.04115447
169	0x3e4db1fa	0.20087424
170	0xbdd57eed	-0.104246
171	0xbe41d6f9	-0.18929662
172	0xbeb5fb4b	-0.35543284
173	0x3ea379dc	0.3192891
174	0x3e2ffd4b	0.17186467
175	0xbd58c6f2	-0.052924104
176	0x3e9a2a89	0.30110577
177	0x3ef3913b	0.4757174
178	0x3dcdbefd	0.10046194
179	0x3de00f8a	0.10940464
180	0x3e9087c3	0.28228578
181	0x3e6b08c4	0.22952563
182	0x3dee5773	0.11637773
183	0xbbc333d6	-0.005957107
184	0xbe16621c	-0.14685863
185	0x3eecf57f	0.4628105
186	0xbe1abb2e	-0.15110466
187	0xbe2f46f2	-0.17116907
188	0xbd46804f	-0.04846221
189	0xbdc27ceb	-0.094964825
190	0x3dbb68b6	0.091508314
191	0x3ddd3e74	0.108029276
192	0xbe469edc	-0.19396538
193	0x3e19e932	0.15030363
194	0x3e67d37d	0.2263927
195	0xbe7d1c38	-0.24717796
196	0xbce2f2df	-0.0277037
197	0xbef367bd	-0.47540084
198	0x3e274074	0.1633318
199	0xbe232282	-0.15931132
200	0xbdd0ad9f	-0.101893656
201	0xbe04e7d5	-0.12979062
202	0xbdb5a47a	-0.08869262
203	0xbe2b209f	-0.16711663
204	0xbddc9866	-0.10771255
205	0x3dc3b9bc	0.095569104
206	0xbdfd775c	-0.123762816
207	0x3e25ca85	0.16190536
208	0xbdbf60c7	-0.09344631
209	0x3e4b6ef4	0.19866544
210	0xbe8982b2	-0.26857525
211	0xbcd47e3d	-0.025939101
212	0xbcf90c0b	-0.03040125
213	0xbe3e54fc	-0.18587106
214	0xbbf3c4a3	-0.0074392124
215	0x3d828d78	0.06374639
216	0x3da73ff5	0.08166496
217	0x3d82bdea	0.063838795
218	0x3ce16af4	0.02751682
219	0x3e9aeab4	0.3025719
220	0x3c5a94d6	0.013341149
221	0x3e996725	0.29961506
222	0x3d05cc27	0.032665398
223	0xbe449f8d	-0.19201489
224	0x3c2d842e	0.010590596
225	0x3ed43a68	0.4145081
226	0x3d5cafb3	0.053878497
227	0x3e4423ee	0.19154331
228	0x3e88ffce	0.26757663
229	0xbdcfb21b	-0.10141393
230	0x3e39e11a	0.18152276
231	0xbebb073d	-0.3652896
232	0x3e4405b3	0.19142799
233	0x3e527535	0.20552523
234	0x3e7b14db	0.24519674
235	0x3e3b14e5	0.1826969
236	0xbe68f555	-0.22749837
237	0xbedd1c5e	-0.43185705
238	0xbe1ff329	-0.15620102
239	0x3dff41c8	0.12463719
240	0x3e446ac6	0.19181356
241	0xbd976748	-0.07392746
242	0xbd93957b	-0.072062455
243	0xbe037c9d	-0.12840505
244	0xbda77a6f	-0.08177649
245	0x3e6efe4f	0.23339199
246	0x3e0c4e22	0.1370168
247	0xbe8914ac	-0.26773584
248	0x3eac7680	0.33684158
249	0x3d87ae91	0.06625093
250	0xbd730301	-0.059329037
251	0x3e0988c9	0.13431086
252	0xbe380b0f	-0.17972969
253	0x3e25d039	0.16192712
254	0xbe9361e8	-0.28785634
255	0xbb1dbf6d	-0.0024070397

middle_layers.0.bias f4 [40]
0	0x3e951cec	0.29123628
1	0x3e23ba20	0.1598897
2	0xbea7b346	-0.32753962
3	0xbd6bd72c	-0.05757825
4	0xbeabbd57	-0.33542892
5	0xbe9cce98	-0.3062637
6	0xbe8c808c	-0.27441823
7	0xbdad703f	-0.08468675
8	0xbf23283c	-0.6373327
9	0x3e6dbcb1	0.23216511
10	0x3da9e7a5	0.08296136
11	0x3e7a816a	0.2446343
12	0x3d5ce968	0.05393353
13	0x3e7ce037	0.24694906
14	0xbddff682	-0.109356895
15	0xbe7999a6	-0.24375018
16	0xbe1790c0	-0.14801311
17	0xbdfcbd21	-0.12340761
18	0x3e8b63a7	0.27224466
19	0xbe1df904	-0.15427023
20	0x3eb102fe	0.34572595
21	0x3e4f89c6	0.202674
22	0x3eb34806	0.35015887
23	0xbe975e37	-0.29564068
24	0xbdf512e7	-0.11966496
25	0xbe90d08c	-0.2828411
26	0xbe54da48	-0.20786393
27	0x3e6f767e	0.23385045
28	0x3d03df7c	0.032195553
29	0x3cb53d13	0.022123849
30	0x3e376530	0.17909694
31	0x3e9c377b	0.30511078
32	0xbe8049d2	-0.2505632
33	0xbc9717f7	-0.018444045
34	0xbc8e63ab	-0.01738151
35	0xbf016b54	-0.50554395
36	0x3e723730	0.23653865
37	0xbecab3ce	-0.39590305
38	0x3d5ba9ec	0.053628847
39	0x3df543fe	0.11975859

layer_out.weight f4 [2, 40]
0	0xbd4cd407	-0.050006893
1	0x3d4fbe8a	0.05071882
2	0xbd49ab7b	-0.049235802
3	0xbcba0ef7	-0.022712214
4	0xbd9ff2e1	-0.07809997
5	0x3c8a6e69	0.01689835
6	0xbc0a9fe5	-0.008460973
7	0xbdb9d74a	-0.09074266
8	0x3e235cec	0.15953416
9	0x3d5ac1e7	0.053407576
10	0x3a500119	0.0007934734
11	0xbc1d388c	-0.009596001
12	0xbdcbf3f6	-0.09958641
13	0xbd343672	-0.043997236
14	0x3cc103f5	0.023561457
15	0x3cb889f6	0.022526722
16	0x3c3e1bfb	0.011603351
17	0xbc977304	-0.01848746
18	0xbbc9ae83	-0.0061548366
19	0x3ca08f8b	0.019599697
20	0xbcb72b4a	-0.022359509
21	0xbc9224d3	-0.017839825
22	0xbd9e00db	-0.07715007
23	0x3b4a6d8f	0.0030888056
24	0x3cea895b	0.02862995
25	0xbd01f218	-0.03172502
26	0xbc00df0f	-0.007865681
27	0x3c278ca4	0.010226402
28	0x3d0276ea	0.031851687
29	0x3dbc8a0c	0.09206018
30	0xbcfcfe7b	-0.030883064
31	0xbda8d679	-0.082440324
32	0xbe042767	-0.12905656
33	0xbc3a0bdd	-0.0113553675
34	0xb9b02562	-0.00033597188
35	0x3d0217d8	0.03176102
36	0x3b453adf	0.0030094904
37	0xbd3a8f65	-0.045546908
38	0xbce501e7	-0.027955009
39	0x3b7e9e75	0.0038851772
40	0x3c9d9f89	0.019241111
41	0xbd13a41f	-0.03604519
42	0x398a76c1	0.0002640989
43	0x3c6e6c0d	0.0145521285
44	0x3c87569f	0.016520796
45	0x3c62c95a	0.013841951
46	0x3d8f7e68	0.07006532
47	0xbd7222f6	-0.059115373
48	0xbc265d78	-0.010154121
49	0x3d83760f	0.06419002
50	0x3bd489cd	0.0064861537
51	0xbbc54581	-0.0060202484
52	0x3cd32aca	0.02577724
53	0xbcb03e8d	-0.021514202
54	0x3c665460	0.0140582025
55	0xbda17898	-0.078843296
56	0x3d40305d	0.046921123
57	0xbc5b1071	-0.013370619
58	0xbbb4fd03	-0.0055233254
59	0xbc5f934e	-0.01364596
60	0xbd64b574	-0.05583711
61	0x3beb38fe	0.007178425
62	0xbd1b45af	-0.037908252
63	0x3cf5ba57	0.02999608
64	0xbc060ce1	-0.0081817815
65	0x3cb6c620	0.02231127
66	0x3bfe4ad0	0.007760383
67	0x3c4a032e	0.01232986
68	0x3d81a2f6	0.063299105
69	0xbd56076c	-0.05225317
70	0x3d5d8c70	0.05408901
71	0xbd047e65	-0.0323471
72	0x3d952881	0.07283116
73	0xbb89cba8	-0.004205186
74	0x3caa5548	0.020792618
75	0xbcf6a9da	-0.030110288
76	0x3d8bd1b5	0.06827108
77	0xbc5aa827	-0.013345755
78	0x3d1e6950	0.038674653
79	0xbba7a486	-0.0051160483

layer_out.bias f4 [2]
0	0x3e7d2b1e	0.24723479
1	0xbdb03b5d	-0.08605073
