model/0.02_12000_35_15:53.pth (torch, 8640 bytes, 6 tensors)

layer_in.weight f4 [35, 3]
000000 26 57 d3 be 59 a1 30 be 9e 44 a8 be 83 a7 24 3e
       -0.41277426 -0.17249049 -0.3286485 0.16079526
000010 85 14 cf bd 94 eb a2 be bc 4e 0b 3f 1f 89 10 bd
       -0.10111336 -0.31820357 0.54417014 -0.03528702
000020 10 ed 40 3f a2 e8 80 3c 3d 57 95 3e 2f 07 20 3e
       0.7536173 0.015735928 0.2916812 0.1562774
000030 02 49 fa be 83 6c 8a be 19 5a 5e be ef a8 da 3e
       -0.48883826 -0.27035913 -0.21714057 0.4270701
000040 b3 21 60 3e 91 f9 10 3e 18 ed 64 be 34 2b 0a be
       0.21887855 0.14157702 -0.22356069 -0.13493043
000050 76 65 92 be b4 50 59 3e 14 55 bf 3d 5d 3c 1d bf
       -0.28593034 0.21222192 0.09342399 -0.6142023
000060 6a e2 ba 3e 8b ee 93 3e f2 fa fd be 5b 36 a6 be
       0.36500865 0.2889293 -0.4960552 -0.32463345
000070 86 69 2c 3c 1c c7 2d 3f 34 bc c2 bd 20 bf 34 3d
       0.010523206 0.6788194 -0.09508553 0.044127584
000080 5a b7 a4 be d4 ce b3 3e c5 05 26 be 45 73 0f be
       -0.32171136 0.35118735 -0.16213138 -0.14008816
000090 38 79 02 3c ff 7b e0 bd 4f d1 57 bd 86 82 1e 3f
       0.007963471 -0.109611504 -0.052689847 0.6191791
0000a0 5c e2 90 bd 15 4d 73 3e 37 0c f0 3e ae ea f7 be
       -0.070744246 0.23759873 0.4688432 -0.48421234
0000b0 a5 86 1b be e8 67 a7 3e ea ee aa bd 6a ec 64 be
       -0.15188082 0.32696462 -0.083463505 -0.2235581
0000c0 a7 e5 8f 3e 79 5f 89 be 9f 33 7d bc b9 42 7b 3e
       0.28104898 -0.26830652 -0.015454202 0.24537171
0000d0 0d 34 a0 3d a5 47 53 be 27 18 09 bf 63 5b 85 be
       0.07822428 -0.20632799 -0.5355248 -0.26046285
0000e0 3d d1 d0 be 15 ac 19 3f 08 d8 41 3e 4e 2a d1 3e
       -0.40784636 0.600282 0.18930066 0.40852588
0000f0 e2 04 37 3e 1b ac 3d 3d be 7d eb 3e 73 47 2d 3e
       0.17872956 0.04630671 0.4599437 0.16921787
000100 58 41 35 3e 71 1a 92 be 6e d7 5e 3d 96 44 20 3d
       0.17700708 -0.28535798 0.05440467 0.03912791
000110 7c 3c a1 be 76 bf 84 be 75 cc 03 bd bf c4 a2 bd
       -0.31491458 -0.25927323 -0.032177407 -0.079476826
000120 46 b1 de 3e 32 a8 b3 be df 42 fd 3e 39 16 0f 3f
       0.43494624 -0.3508926 0.4946508 0.55893284
000130 01 eb fb 3c 3c b7 16 3f 71 c3 ac 3e fc 20 26 be
       0.030751707 0.58873343 0.3374286 -0.1622352
000140 5d 27 b7 3e ec bd b8 3e b4 c5 20 be b3 5b a9 bd
       0.3577222 0.360824 -0.15700418 -0.08269443
000150 7c 3f 81 bd 67 58 22 bf f8 08 b6 be 80 4a c7 3e
       -0.06310937 -0.6341614 -0.35553718 0.38924026
000160 dc 09 fe 3e de 9b 26 3f 03 a2 16 be a2 4d aa bd
       0.49616897 0.65081584 -0.1471024 -0.083155885
000170 08 f1 dd be 94 55 a4 3e 4a 69 d0 3e e4 83 f9 3e
       -0.43347955 0.3209654 0.4070533 0.48733437
000180 ca db 1b be cb 55 aa 3e 15 61 c4 3e 3c 37 1a bf
       -0.15220562 0.3326858 0.38355318 -0.6024053
000190 71 66 db 3d 9e 51 51 be c1 b9 af 3e 06 47 ef bd
       0.107128985 -0.2044129 0.34321406 -0.116834685
0001a0 a2 b1 f7 3e
       0.4837771

layer_in.bias f4 [35]
000000 1c 40 b1 be e5 09 cd b8 e1 e3 1b 3f 7e b9 21 3e
       -0.34619224 -9.777005e-05 0.6089459 0.15793416
000010 af 88 96 3e e9 ad ab 3d e0 92 bc 3e 0f 83 0d 3e
       0.29401156 0.0838278 0.36830807 0.13819526
000020 74 5f f3 3e e5 98 88 3d 68 89 2d bf 07 fc f2 3e
       0.47533762 0.06669787 -0.6778779 0.47457907
000030 08 20 27 3e a3 db bf be 76 f4 d0 3e 3e 55 38 3f
       0.16320813 -0.37472257 0.4081151 0.7200507
000040 b5 d0 b0 be db 0c 5c 3e e0 d6 98 3e 86 59 06 3e
       -0.3453423 0.21489279 0.29851437 0.13120088
000050 ad f2 37 3d 17 94 a4 3e 18 67 8e 3e aa aa 2b 3d
       0.044909168 0.32144234 0.2781303 0.041910805
000060 e0 45 0b 3f 5a b9 26 3f 50 1d 13 be 98 e3 01 3e
       0.54403496 0.65126574 -0.1436665 0.12684476
000070 1e b9 20 3d 2f 19 47 3f 52 9d 81 be 9d 1f b0 3d
       0.03923904 0.777728 -0.25315338 0.0859978
000080 2a 5c 50 bd a4 2b 24 3f e5 9b 32 3e
       -0.050869144 0.6412909 0.17442282

middle_layers.0.weight f4 [35, 35]
000000 b9 d3 37 bd ed 36 ab 3e 36 cd 75 be f0 36 85 3f
       -0.04487965 0.33440343 -0.24004063 1.040739
000010 47 83 a6 bd 94 e7 17 c1 d7 40 0d c1 ea bb 8a bf
       -0.08130508 -9.494038 -8.82833 -1.0838597
000020 d2 67 14 41 6d 1d 86 bd 62 b3 6b be a5 62 e6 40
       9.275347 -0.06548581 -0.23017648 7.1995416
000030 df 69 49 3f 34 b0 86 bf 2b fa 6c bf 18 89 a7 3e
       0.7867717 -1.0522523 -0.92569226 0.32721782
000040 42 87 b7 bf a4 47 8c c0 27 a0 39 3f 2a a7 54 bf
       -1.4338152 -4.383745 0.7251 -0.8306757
000050 69 3e 21 c0 98 32 90 c0 8c 15 01 c0 a3 e3 0e bf
       -2.5194342 -4.506176 -2.01694 -0.55816096
000060 37 84 ab 3e 3b 78 6d be f1 c9 78 3f 68 6a 42 3f
       0.3349931 -0.23190396 0.9718314 0.75943613
000070 3c 13 ce be 10 6c 2a 40 77 cf 04 bf d0 cd 38 3e
       -0.4024905 2.6628456 -0.51879066 0.18047261
000080 e2 9e 66 3f 02 3a 1f 3f e2 21 0e 40 d8 15 a2 3e
       0.90086186 0.6219789 2.220818 0.3165729
000090 b5 11 e3 be 57 a2 15 bf a5 a1 97 be d8 f0 d9 bc
       -0.44349447 -0.58450836 -0.29615512 -0.026604101
0000a0 46 e7 dd 3f 57 61 b5 3f bb bd b2 bd 10 61 5c c0
       1.7336204 1.4170331 -0.087275945 -3.4434242
0000b0 54 35 4b be 7a 71 f8 3d e6 73 0d c0 3f 39 0a be
       -0.19844562 0.12131019 -2.2101989 -0.134984
0000c0 b5 94 ea 3c 0f 4a a1 3e 43 34 f5 bd 06 86 20 3f
       0.028635362 0.31501815 -0.11972859 0.62704504
0000d0 ab a7 44 40 1e e4 bf bd 26 5a 12 be e6 60 b7 3d
       3.0727336 -0.09369682 -0.14292201 0.08954029
0000e0 da 76 06 3f c3 37 03 3f ae b8 09 be 33 07 55 3d
       0.52525103 0.5125696 -0.13449356 0.05200882
0000f0 e6 55 25 be 0b 3f 3b bd e1 88 26 be 74 a2 8f 3e
       -0.16146049 -0.04571442 -0.16263153 0.2805363
000100 3a 3b 18 bf 57 57 0e 3f 11 77 19 bf d7 98 3a be
       -0.5946537 0.5560202 -0.59947306 -0.18222366
000110 27 77 0c bf 17 29 44 bf 53 e3 4e 3f 4a 7a 59 bf
       -0.5486931 -0.766252 0.8081562 -0.84952223
000120 86 b8 f7 3d b5 d0 ac bf c5 b9 2b be 53 00 9d 40
       0.12095742 -1.3501192 -0.16770084 4.9062896
000130 2d 1e 80 40 40 fc 59 3f c7 f1 8d c0 7a db cf be
       4.0036836 0.8515053 -4.435764 -0.40597135
000140 5c 71 61 3e 5d 77 80 c0 5a de 09 be 3c 3c 99 3f
       0.220159 -4.0145707 -0.13463727 1.1971507
000150 6a 99 26 3f 44 19 1b bf db af f7 3f b7 88 c5 3f
       0.6507784 -0.6058543 1.9350542 1.5432347
000160 6d a3 83 bf f1 4d 2b 3f 3f 31 75 3f 58 af 83 40
       -1.0284249 0.66915804 0.9577827 4.1151543
000170 b7 14 5d 40 ce c7 3a 3f 01 c8 9f be 64 04 ba 3d
       3.4543893 0.7296113 -0.31207278 0.09082869
000180 79 f1 a0 bf f4 6b 73 bf 79 db 8e 3e 3c b4 98 c0
       -1.2573692 -0.950866 0.2790182 -4.7720013
000190 54 63 58 3f 78 91 58 c0 f4 8f 72 bf eb 55 5d bf
       0.8452656 -3.3838787 -0.94750905 -0.86459225
0001a0 08 76 1b c0 30 54 39 3f fd 5b c5 be 86 4a 0c bf
       -2.429079 0.72394085 -0.38546744 -0.54801214
0001b0 72 54 2f bf 03 3e 6e 3f 15 71 da 40 25 57 09 41
       -0.6848823 0.9306337 6.826304 8.5837755
0001c0 85 9f 5a 3f b9 6c 05 c0 34 83 82 bf c8 05 1c 3f
       0.8539966 -2.084761 -1.019629 0.6094632
0001d0 56 0a 15 c0 5d cf 7c 3e d4 d7 60 3f 3b 05 7e 3f
       -2.3287559 0.24688478 0.8782933 0.9922673
0001e0 8e 7a d1 be 5c 2f 33 40 ae e7 b4 3f b0 a5 5b bf
       -0.40913814 2.7997656 1.4133203 -0.85799694
0001f0 4d de 33 3f 34 15 55 3f 72 b8 48 40 a0 99 f1 40
       0.7026108 0.8323548 3.1362576 7.550003
000200 70 42 4d 3f 15 d5 ba be e0 6f 83 be 05 eb 92 bf
       0.801795 -0.36490694 -0.2567129 -1.1477972
000210 33 72 89 bf 8a 0f 22 3f 1a c7 27 c1 74 70 7e 3f
       -1.0737976 0.6330496 -10.486109 0.9939034
000220 f5 16 0b 3f df 39 81 bf 5b d9 af be 42 79 13 bd
       0.54331905 -1.0095786 -0.34345517 -0.036004312
000230 ec 5a 08 c0 db ad c1 bf 9c 4b 9f 3f 7b 24 d7 be
       -2.1305494 -1.5131181 1.2444949 -0.4202002
000240 fd a3 91 bf 79 1f e3 bf fe 07 24 c0 c4 02 25 3f
       -1.137817 -1.774398 -2.5629878 0.64457345
000250 bc 82 87 3f be e1 f6 3f 6b c1 a2 bf d2 7d 94 40
       1.0586772 1.9287641 -1.2715276 4.640359
000260 fe 31 a6 bf 11 6a 10 3f 3f fe 47 3f 80 ed 40 3f
       -1.2984006 0.56411844 0.78122324 0.75362396
000270 69 d8 cc 3d 4d e1 21 bf d5 bc 75 bf 57 af 07 3f
       0.100022145 -0.63234407 -0.9599126 0.5300192
000280 ca 12 97 3f 40 dd 12 40 18 01 3b 3f 42 b1 62 3f
       1.1802609 2.294754 0.73048544 0.88551724
000290 52 23 aa 3f 21 c2 5e 3f 54 44 d9 be 3f c2 30 bf
       1.3292029 0.8701497 -0.42434943 -0.69046396
0002a0 8b f1 b6 be 49 50 88 3e 7f 66 69 c0 f8 76 12 c0
       -0.35731158 0.26623753 -3.6468809 -2.2885113
0002b0 20 0a cc be 1f 46 8d be fa 50 ab bf 89 d0 22 40
       -0.39851475 -0.2759256 -1.3384087 2.543978
0002c0 09 6e bf bf d8 a2 0f c0 fc 96 16 bf 5d b9 19 40
       -1.4955455 -2.2443142 -0.58824134 2.4019387
0002d0 b6 75 97 3f 79 88 86 3f 71 32 24 3f 70 62 28 bf
       1.1832798 1.0510398 0.6413947 -0.65775204
0002e0 26 b9 c4 c0 10 72 08 40 ce d7 43 bf 74 c0 08 40
       -6.147601 2.1319618 -0.76501167 2.1367464
0002f0 db b1 23 3f e7 71 5f 3f a8 62 9d bf eb d4 38 3f
       0.6394326 0.87283176 -1.2295732 0.7219989
000300 46 ee b2 bf 8a da 0f 3c a0 16 44 3e c4 b6 f2 bf
       -1.3978965 0.008780131 0.19149256 -1.8962026
000310 ed fe bf c0 fd 60 8d 3f c1 fb ba 3e 39 88 26 c0
       -5.999869 1.1045223 0.36520198 -2.6020644
000320 6b 36 16 c0 86 b2 15 bf 3e 91 05 bf 32 90 7e 40
       -2.3470714 -0.5847553 -0.52174747 3.977551
000330 36 9e 38 bf b9 3a 10 41 40 72 e1 40 b5 5b 9d bf
       -0.7211641 9.014337 7.0451965 -1.2293612
000340 cd 8f e6 be bf 78 d0 40 e7 d1 90 3e 62 c4 e2 3f
       -0.45031586 6.5147395 0.28285143 1.7716181
000350 60 fd 90 bf 8f c5 be 3e 35 d1 34 3e d3 a6 c8 c0
       -1.1327324 0.372601 0.17657931 -6.2703643
000360 6e f3 ea c0 d7 40 33 bf 3d 63 17 41 cb 7e bf be
       -7.3422155 -0.7002081 9.461728 -0.37401423
000370 da 49 85 3f c5 98 b9 40 db bc 18 3f 8f 24 2a bf
       1.0413163 5.7998986 0.5966317 -0.66462034
000380 ef 5f 4b bf 4b 6f 4a bf 56 88 48 bf 36 5c e0 c0
       -0.7944326 -0.7907607 -0.7833303 -7.011256
000390 db aa 2c 3f cf ba 00 bf 48 0c 4e c0 cc 21 2c c0
       0.67448205 -0.5028505 -3.2194996 -2.6895628
0003a0 36 95 2b bf 7b 05 ca be e0 1b 5a bf 4f 85 0b bf
       -0.6702455 -0.39457306 -0.85198784 -0.5450029
0003b0 14 e5 04 3f 65 7f 7b 3f b5 64 2b 3e ba fe 52 3f
       0.51912045 0.98241264 0.16737635 0.8241993
0003c0 64 ec 59 3e 96 7c 5c 3f 03 51 ba be 10 57 0c 3f
       0.21281582 0.86127603 -0.36389932 0.54820347
0003d0 74 68 cf 3f 80 43 91 bf d5 a2 84 3f b0 b4 81 3f
       1.6203752 -1.1348724 1.0362192 1.0133266
0003e0 07 f6 99 3f 72 8a 27 bf f0 c1 ac c0 ed 39 c6 c0
       1.2028207 -0.65445626 -5.398674 -6.194571
0003f0 b7 50 89 bf eb f2 06 40 fa 88 86 3f df 70 8c bf
       -1.0727757 2.1085765 1.0510552 -1.0971946

middle_layers.0.bias f4 [35]
000000 18 0e e8 be 05 7b 65 be d8 37 72 3e 7e ee fe 3e
       -0.45323253 -0.2241021 0.23654115 0.4979133
000010 7e 18 1f 3f 9e e6 0b 3f f7 fb 03 bf 2c 11 06 bf
       0.6214675 0.5464877 -0.5155634 -0.5236995
000020 37 4a cb 3d 39 06 d2 3d 61 af 84 bd d0 5e fa be
       0.09926265 0.10255093 -0.06478763 -0.4890046
000030 aa 64 7b 3f a7 fe 8b bd aa 65 06 3f 71 30 5a bd
       0.98200476 -0.068356805 0.5249888 -0.053268854
000040 e8 e9 9c 3f ce d5 00 3f 60 75 8e 3f b8 1e 03 3e
       1.2258883 0.5032624 1.112957 0.12804687
000050 d9 98 43 3e d6 03 09 3e ee d4 33 3f ef 75 e7 3d
       0.19101276 0.1338037 0.7024678 0.11301791
000060 5d 97 26 3e d9 f9 b9 be f6 6a 8c bf 47 33 05 3f
       0.16268678 -0.3632343 -1.0970142 0.5203137
000070 a0 32 38 bf 6d 0c a3 be 0e bb f8 3e 90 d0 c2 bf
       -0.7195225 -0.31845418 0.4858021 -1.5219898
000080 65 3a c1 be e7 c3 6b bf 23 33 19 bf
       -0.37739864 -0.920958 -0.59843653

layer_out.weight f4 [2, 35]
000000 31 8d 50 3b 59 fe 0e be 15 e2 6b bd 7a bd d7 ba
       0.0031822438 -0.13964213 -0.057588656 -0.0016459667
000010 88 67 e1 3b b7 d7 6f be a6 24 27 ba 9f 44 26 3e
       0.006878797 -0.23422132 -0.00063760055 0.16237114
000020 2a c4 08 3e a6 c3 ca bd 64 a7 14 3e af 76 33 3e
       0.1335608 -0.09900598 0.1451698 0.17525743
000030 e4 bd 81 3d 1b 5f 9c bd 74 1c 06 bd a9 f0 a3 3d
       0.06335047 -0.076353274 -0.03274198 0.08004887
000040 bc 1b 96 3c 12 e5 5f bc 9d 7b e3 3d 20 1f 1a bd
       0.018323772 -0.013665454 0.11107562 -0.03762734
000050 47 8e 4e 39 40 20 da bc 96 52 82 bc f1 25 93 3d
       0.00019698693 -0.026626706 -0.01590852 0.07184971
000060 82 d9 e7 3d b2 29 85 bd 16 9d 27 b9 2d 67 86 bd
       0.11320783 -0.065020934 -0.0001598488 -0.06562648
000070 4f f1 e3 3a 79 f4 f7 bd 61 7b 3c 39 dd 65 e8 3d
       0.0017390641 -0.12107176 0.0001797504 0.11347554
000080 5d c1 7a bd 9e f5 e5 3d b1 59 d1 bc 0a 83 0c 3d
       -0.06121956 0.112284884 -0.025555464 0.034304656
000090 23 55 b9 bb b8 3c 0c be 7b 14 9e bc 37 0e b5 bc
       -0.005655901 -0.13695037 -0.019296875 -0.022101505
0000a0 45 9a c5 3c 9f 01 30 3a 71 bf 64 bd ba 9c 09 bd
       0.024121413 0.0006714109 -0.055846635 -0.03359673
0000b0 49 e4 a6 bd dd cf cd bd 73 ca 9d bd ff fc d7 3d
       -0.08149011 -0.100494124 -0.0770463 0.10546302
0000c0 76 8c 9e 3c 0d 4b 77 bd 8d 73 fe bd 7e 9c c1 3d
       0.019354086 -0.06037431 -0.12424383 0.09453677
0000d0 bd 07 61 bd 53 66 01 be 02 dd c4 bd c1 94 c1 38
       -0.05493902 -0.1263669 -0.096124664 9.230665e-05
0000e0 aa 55 cc 3c 62 5c be 3d 9b 18 92 bd 53 96 55 bd
       0.024943192 0.092949644 -0.07133599 -0.052145313
0000f0 82 30 11 bd 81 84 c5 b8 2f 13 2d 3e 88 96 06 bb
       -0.03544665 -9.418373e-05 0.16901849 -0.00205365
000100 8d 21 9a 3c eb 20 84 39 64 44 05 3e 6a 1d 0a bc
       0.018814826 0.00025201528 0.1301437 -0.008429864
000110 3b 8d c5 bd 99 3b 0b be
       -0.09646078 -0.13596953

layer_out.bias f4 [2]
000000 fa 02 a4 bf 66 dd 94 3f
       -1.2813408 1.1630065
