model/0.02_12000_35_14:55.pth (torch, 8640 bytes, 6 tensors)

layer_in.weight f4 [35, 3]
0	0xbea2c7bb	-0.31793007
1	0x3df4eaf8	0.11958879
2	0x3f0a577c	0.5403974
3	0xbe922f7a	-0.28551847
4	0xbe0dba76	-0.1384066
5	0x3d31e9ef	0.043435987
6	0x3e52eb19	0.20597495
7	0xbd2074de	-0.039173953
8	0x3ea846af	0.32866427
9	0x3e70ab19	0.23502769
10	0xbea12548	-0.31473756
11	0xbd32ada0	-0.043622613
12	0xbe205e01	-0.1566086
13	0xbd607465	-0.054798502
14	0xbf49143a	-0.7854649
15	0xbdece563	-0.115671895
16	0xbd7eb0c6	-0.062180303
17	0xbf43b505	-0.7644809
18	0xbe949e2e	-0.29026932
19	0x3e902aff	0.28157803
20	0xbe6a4de4	-0.22881275
21	0xbe0ca1c5	-0.13733585
22	0x3c8a846a	0.016908843
23	0x3e6a42fc	0.22877115
24	0x3ee3aefb	0.44469437
25	0x3eba2aa3	0.36360654
26	0x3eb0b127	0.34510157
27	0x3e5e1012	0.21685818
28	0x3e6ffbc2	0.23435882
29	0x3f108be4	0.56463456
30	0x3cd5bdde	0.026091512
31	0x3e88eb6a	0.26742107
32	0xbf1737d7	-0.5906958
33	0xbed43cd7	-0.41452667
34	0x3eb04f6e	0.344356
35	0xbe6fd983	-0.23422818
36	0xbeb9f39a	-0.36318666
37	0x3d0f72bc	0.03502153
38	0x3f1aabcd	0.604184
39	0xbeed79c6	-0.46381968
40	0xbedf043c	-0.43557918
41	0xbf3e32af	-0.7429609
42	0xbe906f13	-0.28209743
43	0x3e6d3b66	0.2316719
44	0xbf2fd082	-0.6867753
45	0xbeba91ba	-0.36439306
46	0xbeae78ad	-0.34076443
47	0xbcfdd15d	-0.030983621
48	0x3d993600	0.07481003
49	0x3e1615fb	0.14656822
50	0x3f60e003	0.87841815
51	0x3e2be179	0.1678523
52	0xbe3e95f1	-0.18611886
53	0xbecd5b0f	-0.40108535
54	0xbdc664fc	-0.0968723
55	0x3eaf7502	0.34268957
56	0x3e63f6e2	0.22262147
57	0xbea2d1af	-0.318006
58	0x3e503771	0.20333649
59	0x3f53ca8c	0.82730937
60	0xbbdf02fe	-0.0068057766
61	0xbead1805	-0.33807388
62	0xbe1c073f	-0.15237139
63	0xbc41c283	-0.01182616
64	0xbcc6ce7b	-0.02426838
65	0xbf4210c3	-0.75806826
66	0x3d6c876c	0.057746336
67	0x3e20dce1	0.15709259
68	0x3ed01496	0.40640706
69	0xbe706bab	-0.23478572
70	0x3ec5e579	0.38651636
71	0x3e42a3cc	0.19007796
72	0x3ebc34e5	0.36759105
73	0x3a9214f1	0.0011145157
74	0x3e82ab81	0.25521472
75	0xbe6a81d7	-0.22901092
76	0x3ddd89ff	0.10817336
77	0xbf150a0e	-0.5821847
78	0x3e6e7c80	0.2328968
79	0xbd867f85	-0.06567291
80	0x3ea58a37	0.32332012
81	0x3ce86244	0.02836717
82	0xbdc59cc9	-0.09649045
83	0xbeecd200	-0.46253967
84	0xbdcbcfd3	-0.09951749
85	0xbe34fe03	-0.17675023
86	0xbefd7a1b	-0.49507222
87	0x3e3f4152	0.18677261
88	0xbea55a41	-0.3229542
89	0xbe1629c5	-0.14664371
90	0x3e74ee9c	0.23919147
91	0xbce52822	-0.027973238
92	0x3f3af822	0.7303487
93	0x3c330283	0.010925892
94	0xbea244d5	-0.3169314
95	0x3ea2f5dd	0.31828204
96	0xbe9ff0bb	-0.3123835
97	0x3ecb666f	0.39726588
98	0x3f295263	0.6614134
99	0x3e067059	0.13128795
100	0x3ec739f9	0.38911417
101	0xbe58dab5	-0.2117718
102	0x3ebbc308	0.36672235
103	0xbda7fcde	-0.082025275
104	0x3e28b21e	0.16474196

layer_in.bias f4 [35]
0	0x3cc7af52	0.024375591
1	0xbf099273	-0.5373909
2	0xbf260ecc	-0.6486633
3	0x3e6cfe34	0.23143846
4	0xbe1b2766	-0.15151748
5	0xbf615f6b	-0.8803622
6	0xbf355c49	-0.7084394
7	0xbf26a811	-0.651002
8	0x3f0c3c7f	0.5477981
9	0xbe1c7bc2	-0.15281585
10	0xbf20e109	-0.62843376
11	0xbf299bbe	-0.6625327
12	0x3f36f182	0.7146226
13	0x3e00e29a	0.12586442
14	0xbf06c8eb	-0.52650326
15	0xbef1fb46	-0.4726202
16	0x3f18b586	0.5965198
17	0x3e74f265	0.23920591
18	0x3e39f292	0.1815894
19	0x3ed4931d	0.4151849
20	0xbd5979c7	-0.05309465
21	0xbf13ade9	-0.5768724
22	0x3d9b7b61	0.07591892
23	0x3e664531	0.22487332
24	0x3eb89c8e	0.36056942
25	0xbf2793ee	-0.654601
26	0x3e5a58c3	0.21322922
27	0xbf0e8a50	-0.556798
28	0xbf4eeb50	-0.8082781
29	0x3d1f02ea	0.03882114
30	0x3ed20e74	0.41026652
31	0x3f16c7bd	0.58898526
32	0xbe85f567	-0.2616379
33	0x3e505b25	0.20347269
34	0xbdfd04f3	-0.123544596

middle_layers.0.weight f4 [35, 35]
0	0xbf2290bd	-0.63502103
1	0x3e495bb6	0.19663891
2	0x3e232948	0.15933716
3	0x3dad0e2c	0.08449969
4	0xbdd77501	-0.105203636
5	0x3f059bfe	0.5219115
6	0xbd2d2005	-0.042266864
7	0x3e0fca11	0.14041926
8	0xbee975e5	-0.4559776
9	0x3dae909c	0.08523676
10	0x3d819f82	0.06329252
11	0x3d5f70c7	0.054550912
12	0x3e71ff72	0.23632601
13	0xbde23998	-0.110461414
14	0x3e55489b	0.20828478
15	0x3eb558bd	0.35419264
16	0xbd31ea69	-0.04343644
17	0xbdf6abcf	-0.12044489
18	0x3e437f48	0.19091523
19	0x3dcbe810	0.09956372
20	0x3e094f0f	0.13409065
21	0x3dd06fc0	0.101775646
22	0xbe403d77	-0.18773447
23	0x3de7de80	0.113217354
24	0xbe84917f	-0.25892255
25	0xbd3bda3e	-0.04586243
26	0x3e2b6092	0.16736057
27	0x3e8a5b25	0.27022663
28	0x3e2ea4a1	0.17054988
29	0x3c4e66a6	0.0125977155
30	0xbea384ba	-0.319372
31	0xbe192f53	-0.14959459
32	0xbe28537d	-0.16438098
33	0xbdf0fa5c	-0.11766502
34	0x3e33dd59	0.17564906
35	0x3ea42851	0.3206201
36	0xbe5361e3	-0.2064281
37	0xbe062878	-0.13101375
38	0xbe70c489	-0.23512472
39	0x3a7895e4	0.00094827847
40	0xbebd01a0	-0.36915302
41	0xbe885a9e	-0.26631635
42	0xbdc6cb2d	-0.097067215
43	0xbde3fab5	-0.11131803
44	0x3e8ef426	0.27920645
45	0xbc5bb584	-0.013409976
46	0xbe6d1425	-0.23152216
47	0x3dd36c1c	0.103233546
48	0xbe5725dc	-0.21010536
49	0xbe5f7a75	-0.21824057
50	0xbe0f5776	-0.13998207
51	0x3e0da795	0.13833459
52	0x3cfbd115	0.030739347
53	0xbe652f7a	-0.22381392
54	0x3deb2887	0.11482339
55	0x3eaabb67	0.33346102
56	0xbeade42b	-0.3396314
57	0x3d41a6c6	0.04727819
58	0xbe699bc9	-0.22813334
59	0x3d87c95f	0.06630205
60	0xbed4de0a	-0.41575652
61	0xbdfd1bf7	-0.123588495
62	0xbece791c	-0.40326774
63	0xbbb6dd6c	-0.0055805948
64	0xbe37655d	-0.17909761
65	0x3f188d59	0.5959068
66	0x3ef5db5a	0.48018914
67	0x3ea3b642	0.3197499
68	0x3df1ba83	0.118031524
69	0x3d964925	0.0733817
70	0x3e91ffbe	0.28515428
71	0xbd165c9a	-0.036709405
72	0xbda914d3	-0.08255925
73	0x3e70f7b7	0.23531996
74	0x3e40517d	0.18781085
75	0x3e676b7a	0.22599593
76	0xbe534218	-0.20630682
77	0x3e78f623	0.24312644
78	0x3d442011	0.047882143
79	0xbd17f42d	-0.0370981
80	0x3e989d4e	0.29807514
81	0x3e885822	0.2662974
82	0xbe5f3edf	-0.21801327
83	0x3e31ddc5	0.17369755
84	0x3e8d0aa4	0.2754718
85	0x3ca05dd2	0.019575987
86	0x3d23850a	0.039921798
87	0xbd99ba20	-0.07506204
88	0x3df5ce92	0.12002291
89	0xbdaa90b3	-0.083283804
90	0x3dd42556	0.10358684
91	0x3de88cf4	0.1135501
92	0xbd634ab1	-0.055491153
93	0xbe77e5cc	-0.24208754
94	0xbc886cd9	-0.016653465
95	0xbdc37147	-0.0954309
96	0xbe0bf812	-0.1366885
97	0x3ea1db48	0.3161261
98	0x3e090800	0.13381958
99	0xbe93230d	-0.2873768
100	0xbdc97548	-0.09836823
101	0x3eb98bef	0.36239573
102	0xbe1470d7	-0.1449617
103	0x3e86b9af	0.2631354
104	0x3dfc5ca6	0.12322359
105	0xbe0cc8d5	-0.13748486
106	0xbdf195ff	-0.117961876
107	0x3e4b155a	0.19832364
108	0x3e6a3cc7	0.22874747
109	0x3e60165a	0.21883526
110	0x3e90bb8e	0.28268093
111	0x3e4fe8c6	0.2030364
112	0x3d499ef3	0.04922385
113	0x3e1f77ca	0.1557304
114	0xbdb6f1a7	-0.0893281
115	0x3eda91fc	0.42689502
116	0x3c15eb8f	0.0091504
117	0xbdbef0db	-0.09323283
118	0xbe1f038c	-0.15528697
119	0x3ec577e4	0.38568032
120	0x3dced62a	0.10099442
121	0xbb3f0545	-0.0029147428
122	0xbe2fbd41	-0.17162038
123	0xbd2e6faa	-0.04258696
124	0x3d42e197	0.04757842
125	0xbd875c63	-0.06609418
126	0x3eb93d96	0.361798
127	0x3e0fd1ee	0.14044926
128	0x3d39af5a	0.045333244
129	0xbdbc8ccd	-0.09206543
130	0x3e83dd2f	0.25754687
131	0xbee2df43	-0.4431096
132	0x3d53b971	0.051690523
133	0x3d9e07de	0.07716344
134	0x3db33c52	0.087517396
135	0xbdb37e32	-0.08764304
136	0x3e2d228c	0.1690771
137	0xbe3ac5ae	-0.18239471
138	0xbe6d2f95	-0.23162682
139	0x3d3de599	0.04636154
140	0x3db0dcaf	0.08635842
141	0x3da618ee	0.08110224
142	0x3db8b020	0.09017968
143	0x3d57eba3	0.052714955
144	0xbe852b9b	-0.2600983
145	0xbe9d5917	-0.30732033
146	0x3d0dccea	0.03461925
147	0x3e4731e5	0.19452627
148	0xbe0479ec	-0.12937135
149	0x3e3e7da2	0.18602613
150	0xbe22b6dc	-0.15890068
151	0x3e5b568e	0.21419737
152	0xbd0a2a01	-0.033731464
153	0x3e29fece	0.16601107
154	0xbe8e3437	-0.27774212
155	0x3dc98a5b	0.09840842
156	0x3ec0171e	0.37517637
157	0x3e0dd377	0.13850199
158	0x3e37c0ca	0.17944637
159	0x3d97d579	0.074137636
160	0x3e3f8d76	0.18706307
161	0xbe1dbe0b	-0.15404527
162	0xbd39b38d	-0.04533725
163	0x3e9182b4	0.2842003
164	0x3e82b01a	0.2552498
165	0x3deec9a3	0.11659553
166	0xbe3e932d	-0.1861083
167	0xbe8e33c9	-0.27773884
168	0xbeaf0fbe	-0.34191698
169	0x3d9674e2	0.073465124
170	0x3be69e95	0.0070379474
171	0x3d43a7b5	0.04776736
172	0xbea2ae91	-0.3177381
173	0x3df15448	0.117836535
174	0x3dd056f5	0.10172836
175	0xbe87050c	-0.26371038
176	0x3b3a3a1d	0.0028415986
177	0xbe192016	-0.14953646
178	0x3e6deb82	0.2323437
179	0xbe8d5161	-0.2760115
180	0x3e9e2fe2	0.30895907
181	0x3dcd3e19	0.1002161
182	0x3ec269e4	0.37971413
183	0xbdca7041	-0.09884692
184	0x3df539c2	0.11973907
185	0xbe1a96b9	-0.15096559
186	0x3e6626b2	0.22475699
187	0xbe20a170	-0.15686584
188	0xbe17b5f5	-0.14815505
189	0x3e0d22c9	0.137828
190	0x3ede50f5	0.4342114
191	0xbd4d5227	-0.050127175
192	0x3df575ef	0.11985385
193	0xbeedf883	-0.46478662
194	0xbe923bb0	-0.28561163
195	0xbe604ad9	-0.21903552
196	0x3e2bdbbd	0.16783042
197	0xbe2f594d	-0.1712391
198	0xbe73e722	-0.23818639
199	0xbdb07a0d	-0.08617029
200	0x3ec45f97	0.3835418
201	0x3d688b5c	0.05677353
202	0xbd69ca56	-0.05707773
203	0x3e29b179	0.16571607
204	0x3ddbab2a	0.10726006
205	0xbde6747f	-0.112526886
206	0xbfca13c1	-1.5787278
207	0xbe046f90	-0.12933183
208	0x3e1b78a5	0.15182741
209	0x3db20228	0.086918175
210	0xbecf1afe	-0.4045028
211	0xc05fd555	-3.4973958
212	0xbf1b729a	-0.60721743
213	0xbe904edf	-0.28185174
214	0x3efa0d3e	0.48838228
215	0xbf8baafe	-1.0911558
216	0xbdfd3979	-0.12364478
217	0xbef2247b	-0.47293457
218	0x3f9d211a	1.2275727
219	0x3ebaaf95	0.36462083
220	0xc0831b58	-4.097088
221	0x3eca2c08	0.39486718
222	0x3f381cd6	0.71919
223	0xbf69ced9	-0.9133125
224	0xbf5f80d7	-0.8730597
225	0xbcb475a6	-0.022028755
226	0x3fabba9b	1.3416322
227	0xbfb983a4	-1.4493299
228	0x3db2a2e9	0.08722479
229	0x4045c906	3.0903945
230	0x40840807	4.12598
231	0x3e7163bd	0.23573203
232	0xbe03491e	-0.1282086
233	0xbe621a0b	-0.22080247
234	0xbff27219	-1.894107
235	0xbecb0655	-0.39653268
236	0x40658542	3.5862584
237	0xbe52e62f	-0.2059562
238	0xbfbf456d	-1.4943062
239	0x3f0c9723	0.54918116
240	0x405e198b	3.470309
241	0x3e5dfc44	0.21678263
242	0x3ecea570	0.40360594
243	0x3ee74b61	0.45174697
244	0xbe1a4809	-0.15066542
245	0xbf5595f5	-0.8343194
246	0xbd3c27c0	-0.045936346
247	0x3e5d7f6b	0.21630637
248	0xbd1c05db	-0.03809152
249	0x3e0da93a	0.13834086
250	0xbdc8d84d	-0.09806881
251	0x3e61be78	0.22045314
252	0x3e3ac718	0.1824001
253	0xbe29812a	-0.16553178
254	0xbd7da4c7	-0.061924722
255	0xbc9d6ca5	-0.019216845

middle_layers.0.bias f4 [35]
0	0xbefd38c7	-0.4945738
1	0x3dc3ff12	0.09570135
2	0xbeabcdcb	-0.33555445
3	0xbdfd0f72	-0.123564616
4	0x3ed9833c	0.42482936
5	0xbe83442b	-0.25637946
6	0xbe0b2e9c	-0.13591999
7	0x3eac421a	0.3364418
8	0x3e447f7b	0.19189255
9	0x3e85a410	0.26101732
10	0xbe440685	-0.19143112
11	0xbeba3d47	-0.36374876
12	0x3ea71c4b	0.32638773
13	0xbe6287bd	-0.22122093
14	0xbd8dfa7a	-0.0693254
15	0xbeb65807	-0.35614035
16	0x3e4ec4f8	0.20192325
17	0x3f3864c6	0.7202877
18	0xbe84bc15	-0.25924745
19	0x3ec5bcd0	0.38620615
20	0x3e50bc6e	0.2038438
21	0xbe8aa244	-0.27076924
22	0xbe0fd3f1	-0.14045693
23	0xbe6db09f	-0.23211907
24	0x3ecb900f	0.39758345
25	0x3e09cfb3	0.13458137
26	0x3dffda20	0.12492776
27	0xbe5aa40c	-0.21351641
28	0xbde7415d	-0.11291764
29	0xbe4400e3	-0.19140963
30	0x3da91396	0.08255689
31	0xbe8eb348	-0.27871156
32	0xbe65ebb6	-0.22453198
33	0x3e50409f	0.20337151
34	0xbf75b5cd	-0.9598053

layer_out.weight f4 [2, 35]
0	0xbd6c1e01	-0.0576458
1	0x3d6fe491	0.058567587
2	0x3d347b7e	0.044063084
3	0xbd7315dd	-0.059347022
4	0xbd467100	-0.04844761
5	0xbdf4639d	-0.11933062
6	0x3e7b5731	0.2454498
7	0xba50a1ec	-0.00079586986
8	0x3d710bfa	0.058849312
9	0xbcc43099	-0.023948954
10	0xbc91ff65	-0.017821977
11	0xbc163406	-0.009167677
12	0x3d513d5f	0.05108392
13	0xbcff2a73	-0.031148171
14	0xbc53e0b5	-0.012931992
15	0x3c35788d	0.011076105
16	0x3c7eb69f	0.01554647
17	0xbbbbb641	-0.0057285135
18	0xbd2a3f62	-0.041564353
19	0xbd04c1bf	-0.032411333
20	0xbb253e5b	-0.0025214169
21	0xbc0a1ea8	-0.008430161
22	0x3c09f3b8	0.0084199235
23	0x3b7fd2ef	0.0039035638
24	0x3b419a05	0.0029541266
25	0xbe17b773	-0.14816074
26	0x3c66fd48	0.014098473
27	0x3b553a81	0.0032536092
28	0xbdc1f0bb	-0.09469744
29	0xbad4e5f4	-0.0016242848
30	0xbbb0c09d	-0.005394055
31	0x3d459df8	0.048246354
32	0x3d43325e	0.047655456
33	0xbd9b41b2	-0.0758089
34	0x3c5c66ee	0.013452275
35	0xbcf510b3	-0.02991519
36	0x3d399449	0.04530743
37	0xbc2d9d0d	-0.010596526
38	0xbd3d3c4c	-0.04620008
39	0x3c41e382	0.011834027
40	0x3d86c714	0.0658094
41	0xbcbd78ba	-0.023128856
42	0x3b37bf1f	0.00280375
43	0x3dbe4232	0.092899695
44	0xbaecb440	-0.001805909
45	0xbd8d2647	-0.068920664
46	0x3b42e101	0.0029736164
47	0xbdaf8c20	-0.085716486
48	0xbd07796e	-0.03307479
49	0xbc1df515	-0.009640952
50	0x3be3b591	0.0069491346
51	0xbc8e01fb	-0.017334929
52	0x3b0dd1e4	0.0021639997
53	0xbdb31798	-0.087447345
54	0xbc783883	-0.015150192
55	0x3b30da17	0.002698546
56	0xbc47f631	-0.012204693
57	0x3d5adabd	0.05343126
58	0xbd822dab	-0.06356367
59	0xbdb27e14	-0.08715454
60	0x3c19efd9	0.009395563
61	0x3d4bd3d9	0.04976258
62	0x3c886e58	0.016654179
63	0x3d51c7c4	0.051215902
64	0xbbdba32a	-0.0067028003
65	0xbd484695	-0.048895437
66	0x3d163bcc	0.03667812
67	0x3d1e55e2	0.038656123
68	0x3c985965	0.018597314
69	0x3d8b37a4	0.06797722

layer_out.bias f4 [2]
0	0xbe9ac259	-0.302264
1	0xbe8bf18c	-0.27332723
