model/0.02_12000_70_16:18.pth (torch, 24320 bytes, 6 tensors)

layer_in.weight f4 [70, 3]
0	0xbecc4a56	-0.39900464
1	0x3e618c46	0.22026166
2	0xbee8593c	-0.4538058
3	0x3e8c63e9	0.27419975
4	0x3ef7c0ee	0.4838938
5	0x3e8488d7	0.2588565
6	0x3db100c7	0.086427264
7	0xbdcef2c2	-0.10104896
8	0xbea32576	-0.31864518
9	0x3de788ec	0.11305413
10	0x3ea59547	0.32340452
11	0x3f597089	0.8493734
12	0x3e979018	0.29602122
13	0x3d0782c2	0.033083685
14	0x3ea380ee	0.31934303
15	0x3e767756	0.2406896
16	0xbe977ac2	-0.29585844
17	0x3d844e6b	0.064602695
18	0xbd51891a	-0.05115614
19	0x3e975e89	0.29564312
20	0x3e96fb2c	0.29488504
21	0xbeefb1b9	-0.4681528
22	0xbe958124	-0.2920009
23	0x3f195372	0.5989295
24	0xbec8ec01	-0.39242557
25	0x3df70970	0.12062347
26	0x3e296f1d	0.16546293
27	0xbe828998	-0.254956
28	0xbeada589	-0.33915356
29	0x3df749e0	0.120746374
30	0x3e972bff	0.29525754
31	0x3e47e2bb	0.19520085
32	0xbea2f078	-0.31824088
33	0xbf1832f6	-0.5945276
34	0x3e8fb39d	0.28066722
35	0xbec17e35	-0.377916
36	0x3dc6114a	0.096712664
37	0xbd3c5040	-0.04597497
38	0x3ebbf39d	0.367093
39	0x3e9e410b	0.30909
40	0x3ea352d6	0.31899136
41	0x3d6ca8cf	0.057778176
42	0x3e24a599	0.16078795
43	0x3ea534d1	0.32266858
44	0x3f459ecb	0.77195424
45	0xbd1824cf	-0.03714448
46	0xbdf0d967	-0.11760216
47	0x3ee056ac	0.43816125
48	0xbe10993d	-0.14120956
49	0xbe9d646c	-0.30740678
50	0xbedc99db	-0.43086132
51	0xbe877c76	-0.26462144
52	0x3d59fce7	0.053219702
53	0x3e8b83b2	0.27248913
54	0xbdc18bda	-0.09450503
55	0x3d3a786a	0.045524992
56	0x3c5ae608	0.013360508
57	0x3ec38c48	0.38192964
58	0x3e71919b	0.235907
59	0x3eb8f11a	0.36121446
60	0xbcc30d2f	-0.023809997
61	0x3e1963d8	0.14979494
62	0xbeb9c7de	-0.362853
63	0x3e4c10da	0.19928303
64	0x3d6250e9	0.055252943
65	0x3d91f151	0.071261056
66	0xbe2197ac	-0.15780514
67	0x3eee7179	0.46570948
68	0x3f12bc14	0.57318234
69	0x3da89136	0.08230822
70	0x3ed8b328	0.42324185
71	0xbe2716f7	-0.16317354
72	0x3e343c9b	0.17601244
73	0x3ea52c15	0.32260194
74	0x3f0cf75c	0.5506494
75	0xbda91b9d	-0.0825722
76	0xbe3d0933	-0.1846054
77	0xbf482a68	-0.78189707
78	0xbda0fb1b	-0.078603946
79	0x3e63b02b	0.22235171
80	0x3da0142e	0.07816349
81	0x3e8a79ed	0.27046147
82	0x3e9723ef	0.29519603
83	0x3f085bdb	0.5326516
84	0x3ed8a3b8	0.42312407
85	0x3ef5f01d	0.48034754
86	0x3dd42506	0.10358624
87	0xbee292cf	-0.4425263
88	0xbeac6953	-0.33674106
89	0xbf2cd06f	-0.67505544
90	0x3e6ed7d9	0.23324527
91	0xbf14c37b	-0.5811078
92	0xbeda6e84	-0.42662442
93	0xbe824bcb	-0.2544845
94	0x3e0aded3	0.13561563
95	0x3f17a0a4	0.59229493
96	0x3dad19f2	0.08452214
97	0x3e7953b9	0.24348344
98	0x3f39253b	0.72322434
99	0xbe172f47	-0.14764129
100	0x3e35a7a3	0.1773973
101	0x3e54baa5	0.20774324
102	0x3ddea2ce	0.10870896
103	0xbd18ed58	-0.037335724
104	0xbec65513	-0.3873678
105	0x3e9618fb	0.29315934
106	0xbdbe3a57	-0.09288471
107	0xbe0d65c9	-0.13808359
108	0x3dca3bf4	0.098747164
109	0x3d10a3c1	0.035312418
110	0x3e78002d	0.24218817
111	0xbd928b22	-0.07155444
112	0x3b6e92c7	0.0036403404
113	0x3d4730f5	0.048630673
114	0xbef29c86	-0.47385043
115	0xbeb588a7	-0.3545582
116	0xbe3b6a6e	-0.18302318
117	0xbdcff6de	-0.10154508
118	0xbe8ca1b7	-0.2746713
119	0xbe377355	-0.1791509
120	0xbeb8d04a	-0.36096412
121	0xbe8ec2eb	-0.27883086
122	0xbdfac149	-0.122438975
123	0x3eb366cb	0.35039362
124	0x3b77541d	0.0037739344
125	0x3df9cbc9	0.12197072
126	0xbf0cbab2	-0.54972374
127	0xbdb36232	-0.08758964
128	0xbf5e0ea5	-0.86741096
129	0xbea9fe55	-0.33201852
130	0x3d8d64a8	0.06903964
131	0xbf3f575e	-0.74742687
132	0xbc2c0cc4	-0.01050109
133	0xbd7b45fd	-0.061346043
134	0x3f359e3e	0.70944583
135	0x3ed78d98	0.42100215
136	0x3f151281	0.5823136
137	0x3dfee909	0.12446792
138	0xbd21166d	-0.039328028
139	0x3e2df12e	0.16986534
140	0x3f38e943	0.7223093
141	0xbe808c96	-0.2510726
142	0xbe79c42a	-0.24391237
143	0xbd25cbb7	-0.04047748
144	0x3efa63b8	0.48904204
145	0x3e20b90d	0.15695591
146	0x3eed2e6a	0.46324474
147	0xbdaf6b68	-0.08565408
148	0x3e9ee4ae	0.31033844
149	0xbe39e962	-0.18155435
150	0xbe856e06	-0.26060504
151	0x3e8aeedd	0.27135363
152	0x3eef8da3	0.46787748
153	0x3ed7abc8	0.42123246
154	0x3e890d4a	0.2676795
155	0x3e3fc902	0.18729022
156	0x3e267c0d	0.16258259
157	0x3d9d57bf	0.07682752
158	0xbdec0425	-0.11524228
159	0x3ea193f0	0.3155818
160	0xbea5b632	-0.32365566
161	0xbf0dd701	-0.55406195
162	0x3e12cc83	0.14335828
163	0x3dee9daa	0.11651166
164	0xbe596481	-0.21229745
165	0xbe866b55	-0.26253763
166	0xbd1078da	-0.035271503
167	0xbe4afd09	-0.19823088
168	0xbed82e9c	-0.4222306
169	0x3ebb867f	0.3662605
170	0xbd05ff63	-0.03271426
171	0x3ea550a9	0.322881
172	0xbddf95f3	-0.109172724
173	0x3f32b5d9	0.6980873
174	0x3ea00d6c	0.3126024
175	0x3d86dec1	0.06585456
176	0xbe14f659	-0.14547099
177	0x3e2cbb25	0.16868265
178	0x3e5bc46c	0.21461648
179	0xbeee5064	-0.46545708
180	0xbf121c6a	-0.57074606
181	0xbc7d8bf2	-0.01547526
182	0xbeed0c6e	-0.46298546
183	0xbeff7c86	-0.4989969
184	0x3d976a44	0.073933154
185	0xbdc4b082	-0.09603979
186	0x3e1b79fa	0.15183249
187	0xbdbe1cae	-0.09282814
188	0xbda86e7d	-0.08224199
189	0x3e98424c	0.2973808
190	0xbb5da03a	-0.0033817426
191	0x3f245868	0.641974
192	0xbcb9e4b0	-0.022692055
193	0x3ed41f30	0.41430044
194	0x3f1b8dcd	0.60763246
195	0xbe561af1	-0.20908715
196	0x3e88ef24	0.2674495
197	0xbf00f384	-0.50371575
198	0x3ea2c1fd	0.31788626
199	0xbe3ce7c0	-0.1844778
200	0xbe03a230	-0.12854838
201	0xbde2ef0c	-0.11080751
202	0x3ea974f6	0.33097047
203	0x3f07162f	0.52768224
204	0xbe74692a	-0.23868242
205	0x3f252ddb	0.64523095
206	0x3ebb3998	0.36567378
207	0xbda1c757	-0.07899349
208	0x3ea9441f	0.33059785
209	0xbd62690c	-0.05527596

layer_in.bias f4 [70]
0	0xbede822c	-0.43458688
1	0x3ec4a15b	0.38404354
2	0xbd303572	-0.04301972
3	0x3e0ca470	0.13734603
4	0xbd56840a	-0.052372016
5	0x3eefe235	0.4685227
6	0x3f508a20	0.8146076
7	0x3eab3c97	0.33444664
8	0x3eb17ea0	0.3466692
9	0x3e0236c7	0.12716208
10	0x3eaba530	0.33524466
11	0xbceb2182	-0.028702501
12	0x3ebea4ca	0.372351
13	0x3f1a4b02	0.602707
14	0x3e9612c9	0.29311207
15	0x3ea4b992	0.3217283
16	0x3dd559f2	0.10417546
17	0x3e216f39	0.15765084
18	0x3ea24fd8	0.3170154
19	0x3eeb212d	0.4592375
20	0x3ee2487e	0.44195932
21	0x3efd0ab0	0.49422216
22	0xbee9db77	-0.4567525
23	0x3e84d755	0.25945535
24	0x3ece6fbe	0.40319628
25	0x3e385daa	0.1800448
26	0xbeb09b91	-0.34493688
27	0x3e2e189a	0.17001572
28	0x3d932b9a	0.07186051
29	0xbf16f998	-0.589746
30	0xbf1aca46	-0.60464895
31	0xbdae9a62	-0.0852554
32	0x3f54971b	0.8304307
33	0x3d397ef4	0.045287088
34	0xbe815c74	-0.2526585
35	0xbe3dfaba	-0.18552676
36	0x3ed3d06b	0.41369948
37	0x3eb25517	0.34830543
38	0xbce64d66	-0.028113078
39	0xbec86e2e	-0.3914656
40	0x3e8e14b9	0.27750185
41	0x3ddf6d1b	0.10909482
42	0xbee67a58	-0.45015216
43	0xbf343e74	-0.70407796
44	0x3e23d10c	0.15997714
45	0x3f388041	0.720707
46	0x3cade467	0.021227075
47	0x3dca584e	0.09880124
48	0x3f03b49d	0.5144747
49	0x3e2b834d	0.16749306
50	0xbebe824e	-0.3720879
51	0xbe9bdfed	-0.3044428
52	0xbf004acf	-0.5011415
53	0xbebff605	-0.37492386
54	0x3ebf51e7	0.37367174
55	0xbeab5efe	-0.3347091
56	0xbddf370c	-0.10899171
57	0x3e217358	0.15766656
58	0xbea1c7d2	-0.31597763
59	0xbe2e8369	-0.17042316
60	0xbe767db9	-0.24071397
61	0xbe0f8968	-0.1401726
62	0x3f37fb93	0.71868247
63	0x3ed37f54	0.4130808
64	0xbed38af7	-0.4131696
65	0xbeed4d5d	-0.46348086
66	0xbecb7677	-0.3973882
67	0x3ea635e1	0.3246298
68	0x3eeea96a	0.46613628
69	0xbcc691a6	-0.024239372

middle_layers.0.weight f4 [70, 70]
0	0xbe082beb	-0.13298003
1	0xbe31cf12	-0.17364147
2	0x3d9d70b5	0.07687513
3	0xbe43af34	-0.19109803
4	0x3d4a5853	0.04940064
5	0x3e4bc7cd	0.19900437
6	0x3dde56b0	0.10856378
7	0x3d3b6e9b	0.04575978
8	0x3e4d1855	0.20028813
9	0xbdddebed	-0.10836015
10	0x3da03aa2	0.07823683
11	0x3da6d774	0.08146563
12	0xbcc6e517	-0.02427916
13	0x3e38e00d	0.18054219
14	0xbe3c4b12	-0.18388012
15	0x3c04f9e4	0.008116219
16	0x3d9b1c6e	0.07573782
17	0xbe595145	-0.21222408
18	0x3c33bf83	0.010970953
19	0x3ecde8db	0.40216717
20	0xbe31fad1	-0.17380835
21	0xbcd3181d	-0.025768334
22	0xbd88c8f6	-0.06678955
23	0x3e513730	0.20431209
24	0x3e8b7b2b	0.27242407
25	0x3dc22493	0.09479632
26	0x3dcb516d	0.0992764
27	0xbe216abe	-0.15763375
28	0x3cd4001b	0.025878957
29	0xbe3f2055	-0.18664677
30	0xbf1f7ce1	-0.62299925
31	0xbe63fedf	-0.22265194
32	0x3e73117c	0.23737139
33	0x3e5d33f9	0.21601857
34	0x3e3dbe6c	0.18529671
35	0x3d8d817a	0.06909461
36	0x3e394206	0.18091592
37	0xbc4f9f85	-0.01267231
38	0xbd1c852a	-0.038212933
39	0xbb7baf80	-0.0038404167
40	0x3e5de974	0.21671087
41	0xbe1ef64d	-0.15523644
42	0xbe4e00d9	-0.20117511
43	0xbe52f489	-0.20601095
44	0xbdf8ff1f	-0.121580355
45	0x3e0bf5c1	0.13667966
46	0x3bcd71fc	0.0062696915
47	0x3e5512c6	0.20807943
48	0x3eac46fb	0.33647904
49	0xbe79f99d	-0.24411626
50	0xbe5d6919	-0.21622123
51	0xbe73b8ed	-0.23801012
52	0xbd90e17a	-0.07074256
53	0xbdc29ab4	-0.095021635
54	0x3e3bb929	0.18332352
55	0x3de32080	0.11090183
56	0xbe39f25e	-0.18158862
57	0x3e8a5b09	0.2702258
58	0xbe85bb63	-0.26119527
59	0xbcc03381	-0.023462059
60	0xbe30f4fb	-0.17280953
61	0xbe292765	-0.16518934
62	0x3e5ac930	0.2136581
63	0x3e19ce99	0.15020217
64	0x3f594b30	0.8488035
65	0xbe35894d	-0.17728157
66	0xbd0d2a09	-0.034463916
67	0x3e1506cd	0.14553376
68	0xbcc04e3a	-0.023474801
69	0xbe289e88	-0.16466725
70	0x3d55ce92	0.052198954
71	0xbe7933fa	-0.24336234
72	0x3e97c87b	0.29645142
73	0xbd169c94	-0.03677042
74	0xbe15382d	-0.1457221
75	0xbe02bd20	-0.12767458
76	0xbec5f1c1	-0.38661006
77	0xbe4765a9	-0.19472374
78	0xbe47c1c8	-0.19507515
79	0x3ca21fbc	0.019790523
80	0x3c61c475	0.013779749
81	0xbe4e7ec7	-0.20165549
82	0x3df31b26	0.118704125
83	0xbe4ab1f1	-0.19794442
84	0xbcba70ab	-0.022758802
85	0xbe68054b	-0.22658269
86	0x3d2e00a3	0.042481076
87	0xbd066fd4	-0.03282149
88	0x3adca15f	0.001683276
89	0x3de9b2f8	0.11411089
90	0xbd32687a	-0.043556668
91	0x3ad99204	0.0016599302
92	0x3caca3f3	0.02107427
93	0x3d50caf8	0.050974816
94	0xbccd9f6f	-0.025100438
95	0xbdb86ca6	-0.09005098
96	0xbc421a92	-0.011847155
97	0xbd94b7e4	-0.07261637
98	0x3e0665b8	0.1312474
99	0x3e4b30a6	0.19842777
100	0x3eb95d3c	0.36203945
101	0xbd52ae0e	-0.051435523
102	0xbea5d7b4	-0.3239113
103	0x3dc093e6	0.094032094
104	0xbe03c038	-0.12866294
105	0xbde07aa0	-0.10960889
106	0xbed213f3	-0.41030845
107	0xbe5acbc3	-0.21366791
108	0x3c179c89	0.0092536295
109	0xbbde19e8	-0.0067779906
110	0x3d748af7	0.05970284
111	0x3d0f1924	0.034936085
112	0x3c99e7ff	0.018787382
113	0x3c606759	0.013696515
114	0x3d2a3bf8	0.041561097
115	0x3da8656f	0.08222472
116	0x3d62ea93	0.05539949
117	0x3e3983d2	0.18116692
118	0x3d0ac7f6	0.033882104
119	0xbb11563e	-0.0022176648
120	0x3da07f4a	0.078367785
121	0xbe52e88a	-0.20596519
122	0xbe0e0e6b	-0.13872688
123	0x3e08b427	0.13349973
124	0xbe50393b	-0.20334332
125	0xbb16fe47	-0.0023039745
126	0xbe1b1b7d	-0.15147205
127	0xbde10a7f	-0.1098833
128	0xbdb55c15	-0.08855454
129	0x3d8e4174	0.06946078
130	0x3aaa48c9	0.0012991662
131	0x3d7c668c	0.061621234
132	0xbdd09f2d	-0.1018661
133	0x3e2cc369	0.16871418
134	0xbe89d03f	-0.26916692
135	0xbdbcd9b9	-0.09221215
136	0xbd23e269	-0.040010843
137	0x3d8fbed4	0.070188195
138	0x3be44d9f	0.006967261
139	0x3e2b75cd	0.16744156
140	0x3efcf379	0.49404505
141	0x3d99dc31	0.07512701
142	0xbcc7099e	-0.024296578
143	0xbe2e7f33	-0.1704071
144	0xbe126f83	-0.14300351
145	0x3ed1273d	0.4085025
146	0xbeaa38bc	-0.3324641
147	0xbd214532	-0.03937263
148	0xbe40045b	-0.18751661
149	0x3ea1d99e	0.3161134
150	0xbeba5c27	-0.36398432
151	0xbde0f362	-0.109839216
152	0xbe9738f4	-0.2953564
153	0xbe0daaaa	-0.13834634
154	0xbe684ba6	-0.22685108
155	0xbe498871	-0.19680955
156	0x3fed7a61	1.8552972
157	0x3e2eb5ac	0.1706149
158	0xbc5a0562	-0.013306947
159	0xbea7b256	-0.32753247
160	0xbe64f20c	-0.22357959
161	0x3ca43cd9	0.020048546
162	0xbd608e80	-0.0548234
163	0x3da6af54	0.0813891
164	0xbec6e434	-0.3884598
165	0x3e730bd9	0.23734988
166	0x3f467d90	0.77535343
167	0xbec9ecab	-0.39438376
168	0xbd10191a	-0.03518019
169	0x3db7bd8a	0.089716986
170	0x3f8e8b52	1.1136267
171	0xbe546041	-0.20739843
172	0x3c9ec098	0.019378945
173	0xbe5ef456	-0.21772894
174	0x3f8a37cb	1.0798277
175	0x3e031c8e	0.12803861
176	0x3da637b4	0.08116093
177	0xbe3f1d25	-0.18663462
178	0x3e1801e0	0.14844465
179	0x3e8450c7	0.25842878
180	0xbe2822d2	-0.16419533
181	0xbf0c29aa	-0.54751074
182	0xbd1d88f6	-0.038460694
183	0x3e32c12b	0.174565
184	0xbdefa36e	-0.117010936
185	0xbf27eb8c	-0.6559379
186	0xbe3b3796	-0.18282923
187	0x3cc3635c	0.02385109
188	0xbdaebbd7	-0.08531921
189	0xc0018cd1	-2.0242198
190	0x3e065bb3	0.13120918
191	0x3eec7081	0.46179584
192	0xbed5f759	-0.41790274
193	0x3e9953b2	0.29946667
194	0xbd59a22e	-0.053133182
195	0xbe203f7f	-0.15649222
196	0x3eaccd9a	0.33750612
197	0x3d11b4cc	0.035572812
198	0xbd4a6f38	-0.049422473
199	0xbeb846de	-0.35991567
200	0x3e27e9c6	0.16397771
201	0xbf9ace7d	-1.2094265
202	0xbe6d973e	-0.23202226
203	0xbd20eba5	-0.039287228
204	0x4038bed8	2.8866482
205	0xbe47335b	-0.19453184
206	0x3ee62958	0.44953418
207	0xbe550a70	-0.20804763
208	0xbf522fa7	-0.8210396
209	0xbe8b7e07	-0.2724459
210	0x3db5bc81	0.08873845
211	0x3d83407e	0.06408785
212	0x3e28daa6	0.16489658
213	0xbe6d4f05	-0.23174675
214	0xbe297b92	-0.16551045
215	0x3e68fe36	0.22753224
216	0xbd63ede5	-0.055646796
217	0x3e469b81	0.19395258
218	0x3e2bd64e	0.1678097
219	0xbe3cc785	-0.18435486
220	0xbd5d06fa	-0.05396173
221	0x3e0107dd	0.12600656
222	0xbe571895	-0.21005471
223	0xbe9cbc29	-0.30612305
224	0xbdbbcb25	-0.09169606
225	0x3dff78c8	0.12474209
226	0xbce33c2f	-0.027738659
227	0x3dda4e27	0.106594376
228	0xbe3f6b83	-0.18693356
229	0x3ddbe905	0.10737804
230	0xbe38a012	-0.18029812
231	0x3ca2dba2	0.01988012
232	0xbcd90249	-0.026490347
233	0xbe2ee33a	-0.17078868
234	0x3cd41452	0.025888596
235	0x3e5396c8	0.20662987
236	0xbde197d9	-0.11015291
237	0x3e13a7fb	0.14419548
238	0xbe3361a2	-0.17517713
239	0x3e9c3968	0.30512547
240	0x3dfba8b7	0.12288039
241	0x3dd32065	0.10308913
242	0xbea11b51	-0.31466153
243	0xbd7854fb	-0.06062792
244	0xbbfabb68	-0.007651735
245	0x3e524cd2	0.20537117
246	0xbe7b86cd	-0.24563141
247	0xbdf01832	-0.11723365
248	0x3b28a923	0.002573558
249	0x3e4e7a8d	0.20163937
250	0xbc98d91b	-0.018658211
251	0x3d172218	0.03689775
252	0x3ebeba46	0.3725149
253	0xbb821cc3	-0.003970714
254	0x3e325c65	0.17418058
255	0xbe09b5e3	-0.1344829

middle_layers.0.bias f4 [70]
0	0x3e656a76	0.22403893
1	0xbee23093	-0.44177684
2	0xbd931536	-0.0718178
3	0xbe645f4c	-0.22301978
4	0xbd7a6cce	-0.06113892
5	0xbe1c1b79	-0.15244855
6	0xbdc232ce	-0.094823465
7	0x3e520f43	0.20513634
8	0xbd89aa65	-0.06721953
9	0xbca24fe6	-0.01981349
10	0x3ebe1045	0.37121788
11	0x3e81c29a	0.25343782
12	0x3e0ab4d8	0.13545549
13	0x3c8171dc	0.015801363
14	0x3e9aad9a	0.30210572
15	0x3e7d1350	0.24714398
16	0x3e77fbc5	0.24217136
17	0x3e85b06f	0.2611117
18	0x3ed37010	0.41296434
19	0xbeba43ca	-0.36379844
20	0x3e53a3a6	0.20667896
21	0x3debc956	0.11513011
22	0x3e5c2e73	0.21502094
23	0xbe86b865	-0.26312557
24	0xbe8b283d	-0.27179137
25	0x3e0b237f	0.1358776
26	0xbefd3257	-0.4945247
27	0x3c586ff4	0.013210285
28	0xbe1ae372	-0.15125826
29	0xbeed1a19	-0.46308973
30	0xbd6e97fd	-0.058250416
31	0xbe7b56bc	-0.24544805
32	0xbe87a6ce	-0.2649445
33	0x3f08b8de	0.53407085
34	0x3e51e596	0.20497736
35	0x3e8b35ad	0.2718939
36	0x3e5bb683	0.21456341
37	0xbd994d9c	-0.07485506
38	0xbca6fdde	-0.020384725
39	0xbeb63514	-0.3558737
40	0xbeb2e60b	-0.34941134
41	0x3e4df55d	0.2011313
42	0xbe83b351	-0.25722745
43	0xbf210897	-0.6290373
44	0xbe90b133	-0.28260192
45	0xbec84c24	-0.3912059
46	0x3e189f09	0.14904417
47	0x3eb26f1c	0.34850395
48	0x3e6cbcdd	0.2311892
49	0xbe2ee7dd	-0.17080636
50	0xbe50aa23	-0.20377402
51	0xbe619b4e	-0.220319
52	0x3e0f18cd	0.13974304
53	0x3dec4d54	0.11538187
54	0x3da897bc	0.08232066
55	0xbe6e8317	-0.23292194
56	0x3deadfbe	0.11468457
57	0xbe23dad4	-0.16001445
58	0xbe0d7ca5	-0.1381708
59	0x3e2890ae	0.16461441
60	0xbe1f911e	-0.15582702
61	0xbcd442c6	-0.025910746
62	0xbc84c478	-0.016206965
63	0x3c3ffacd	0.01171751
64	0x3e3e8987	0.1860715
65	0x3d8f4a35	0.06996576
66	0x3dcdfbab	0.100577675
67	0x3e2aeecc	0.16692656
68	0xbe3b8069	-0.18310703
69	0xbeb2c6a0	-0.34917164

layer_out.weight f4 [2, 70]
0	0xbd13ab82	-0.036052234
1	0x3b38750d	0.002814594
2	0xbde0e839	-0.10981793
3	0xbd24227a	-0.040071942
4	0xbb334831	-0.0027356262
5	0xbcca18fd	-0.024670118
6	0x3cb006f2	0.021487687
7	0x3c2ec2a3	0.010666522
8	0x3df78f38	0.12087864
9	0x3c91c139	0.017792331
10	0xbd8305d6	-0.063975975
11	0xbd19eaa4	-0.037577286
12	0x3bb45113	0.005502829
13	0xbcf9d93c	-0.030499093
14	0x3c95bab1	0.018277498
15	0x3d440e8e	0.047865443
16	0x3d3413a5	0.043964047
17	0x3c0c3422	0.008557351
18	0x3cc8cc20	0.024511397
19	0xbd3505c1	-0.04419494
20	0x3cba24c6	0.022722613
21	0xbd540733	-0.05176468
22	0xbc0577da	-0.008146251
23	0x3b801cca	0.003909682
24	0xbd939c64	-0.072075635
25	0xbdf89dc0	-0.121394634
26	0x3cd1f136	0.025627714
27	0x3c8fc6f4	0.017550923
28	0xbd970ee6	-0.073758885
29	0x396f3ad1	0.00022814727
30	0xbcf006b0	-0.029300064
31	0xbd3a3d97	-0.045468893
32	0xbdb15b2b	-0.08659967
33	0xbdacb2fb	-0.08432575
34	0xbc467979	-0.012113922
35	0x3d8da68a	0.069165304
36	0xbdd615bb	-0.104533635
37	0xbe1df7a2	-0.15426496
38	0x3d3e5c15	0.046474535
39	0xbba1f9f3	-0.0049431263
40	0x3c5a5e70	0.01332818
41	0x3c15840e	0.009125723
42	0xbcdde852	-0.027088318
43	0x3d7d923c	0.061907038
44	0x3c56469c	0.013078358
45	0x3d89ab2e	0.06722103
46	0x3a649b72	0.0008720673
47	0x3d3dd8c8	0.046349317
48	0xbd2651ab	-0.04060523
49	0xbd0a052f	-0.03369635
50	0x3be491a8	0.0069753714
51	0x3de00a72	0.10939492
52	0x3c4db847	0.012556142
53	0xba63b7b8	-0.0008686739
54	0x3c6f5a4d	0.014608932
55	0x3c890e32	0.016730402
56	0xbc4c033d	-0.012451944
57	0xbd21daca	-0.039515294
58	0x3c5b313e	0.0133784395
59	0x3d6d27a6	0.05789914
60	0x3d4ac5d9	0.04950509
61	0x3d4a1883	0.049339782
62	0x38ceb104	9.855817e-05
63	0x3c6ecc6d	0.014575106
64	0xbd065897	-0.03279933
65	0xbc47a74a	-0.012185881
66	0x3c859e13	0.016310727
67	0xbc2d79a6	-0.010588085
68	0xbd264bf2	-0.04059977
69	0x3c6daa51	0.014505939
70	0xbd4e52f0	-0.050372064
71	0xbc47635a	-0.012169683
72	0xbdb2b723	-0.08726337
73	0xbc2e71e2	-0.010647269
74	0x3ceff364	0.029290862
75	0xbc8c60f3	-0.017136073
76	0x3dcb9d16	0.09942071
77	0xbae226f8	-0.0017254045
78	0x3c98ce0d	0.01865294
79	0x3d60dd43	0.05489851
80	0x3c1841a0	0.00929299
81	0x3cf69673	0.030101037
82	0x3a3cf4af	0.00072080916
83	0xbd361f6a	-0.044463553
84	0x3b59793a	0.003318383
85	0x3bf055d3	0.00733445
86	0x3db6a07e	0.0891733
87	0xbc52bc9d	-0.012862352
88	0x3cfa1ca1	0.03053123
89	0x3cbbc3ed	0.022920573
90	0xbcabde10	-0.020979911
91	0xbd2c0db1	-0.042005245
92	0x3c11d4fb	0.008900876
93	0x3c8066e7	0.015674068
94	0x3c2e2412	0.010628717
95	0xbd26e57c	-0.040746197
96	0xbd517f24	-0.05114664
97	0xbd920a50	-0.07130873
98	0x3d903bb1	0.07042635
99	0x3d435c0c	0.047695205
100	0x3d28005d	0.04101597
101	0xbce62832	-0.028095338
102	0x3d50473a	0.050849177
103	0x3dae9f34	0.08526459
104	0x3dad784d	0.08470211
105	0x3d11db07	0.03560927
106	0x3e179e83	0.14806561
107	0xbc02ef0d	-0.007991564
108	0x3bb0465b	0.005379481
109	0xbcff4db0	-0.031164974
110	0xbd1f0dd4	-0.038831547
111	0xbc1b8a13	-0.009493369
112	0xbb683e6a	-0.0035437592
113	0x3b6ded5d	0.003630481
114	0xbcac9da3	-0.02107126
115	0xbcb2dfd8	-0.021835253
116	0xbbd0f2ff	-0.0063766236
117	0x3d546cdf	0.05186164
118	0xbd28bea2	-0.041197427
119	0x3c154a99	0.009112024
120	0xbab631bd	-0.0013900321
121	0x3d638eb6	0.05555602
122	0x3b65a38c	0.0035040108
123	0xbcb62884	-0.022236116
124	0x3c4d5f4a	0.012534926
125	0xbd5428ba	-0.051796652
126	0xbd091d64	-0.033475295
127	0xbc88aaf0	-0.016683072
128	0xbc7fbdec	-0.015609246
129	0xbc92d8f7	-0.017925723
130	0x3dbd10a2	0.09231688
131	0x3d419d11	0.04726893
132	0x3c157a5f	0.009123414
133	0x3c75a5df	0.01499316
134	0xbd80a542	-0.062815204
135	0xbb4affd0	-0.003097523
136	0x3c475eee	0.012168629
137	0xbd631824	-0.055442944
138	0x3c675ed0	0.014121726
139	0xbd2b2992	-0.04178769

layer_out.bias f4 [2]
0	0xbf140ffe	-0.578369
1	0x3f1247af	0.5714063
