model/0.02_10000_35_10:14.pth (torch, 8640 bytes, 6 tensors)

layer_in.weight f4 [35, 3]
0	0x3e17e1a3	0.14832167
1	0x3d003b91	0.031306807
2	0x3ed12770	0.408504
3	0x3e7e3db2	0.24828222
4	0xbe5b176f	-0.21395658
5	0xbe43da90	-0.19126344
6	0xbe4db894	-0.20089942
7	0x3e2daeda	0.16961232
8	0x3e1867cc	0.14883345
9	0x3dbde0c0	0.09271383
10	0xbb0dfb11	-0.002166454
11	0xbef54db0	-0.47910833
12	0x3bc184ec	0.005905738
13	0xbe963afc	-0.29341877
14	0xbf2da985	-0.6783679
15	0x3d381f8c	0.04495196
16	0x3e640f55	0.22271474
17	0x3db041e5	0.086063184
18	0x3ee155dd	0.4401082
19	0x3dbe3bb2	0.0928873
20	0xb985252d	-0.00025395435
21	0xbe49c751	-0.1970494
22	0x3e8de971	0.27717164
23	0xbf2c7d7a	-0.6737896
24	0x3d148e71	0.036268655
25	0xbbb8d717	-0.005640875
26	0x3f303246	0.6882671
27	0x3e726a95	0.2367347
28	0xbe1457c0	-0.14486599
29	0x3e9ba978	0.30402732
30	0xbeacf241	-0.33778575
31	0xbdc6dcc3	-0.09710076
32	0x3e9bfed8	0.30467868
33	0xbeae3d4f	-0.3403115
34	0x3d1a7d25	0.037717003
35	0xbe8b18a1	-0.27167228
36	0x3e934c47	0.28769132
37	0xbd8539cf	-0.06505167
38	0xbed13d07	-0.40866873
39	0x3d4443cd	0.047916222
40	0x3e1999c3	0.15000062
41	0x3ecb0349	0.39650944
42	0xbe2fc8dc	-0.17166466
43	0xbe10f3d8	-0.14155519
44	0x3e12fa18	0.14353216
45	0xbdbe7c0d	-0.093010046
46	0x3cd12b50	0.025533348
47	0xbf4d31b3	-0.8015396
48	0x3f0ada82	0.54239666
49	0x3e857c50	0.26071405
50	0x3e8655a3	0.2623721
51	0x3e1f2cb6	0.155444
52	0xbd9ed105	-0.07754711
53	0x3dd0b8e9	0.10191519
54	0x3e4201a1	0.18945934
55	0x3eb8d9a9	0.36103562
56	0x3f345669	0.7044435
57	0x3e66f34a	0.22553745
58	0xbd233631	-0.039846603
59	0x3f03f70c	0.5154884
60	0xbd89111f	-0.06692719
61	0x3e9eaac1	0.3098965
62	0x3ec3d506	0.3824846
63	0xbc4817ae	-0.012212677
64	0xbcf28572	-0.029604647
65	0xbf398356	-0.7246603
66	0x3db51863	0.08842542
67	0x3cb4005b	0.021972826
68	0x3f0100c5	0.503918
69	0x3d954c2e	0.07289921
70	0x3e6558ce	0.22397158
71	0xbec37c41	-0.38180736
72	0x3c9abb97	0.018888278
73	0x3dac0a21	0.084003694
74	0xbebbeef8	-0.36705756
75	0x3e35b4e2	0.17744783
76	0xbce89930	-0.028393358
77	0xba817673	-0.000987722
78	0xbe1453f1	-0.14485146
79	0x3ca6c047	0.020355357
80	0xbea49a28	-0.32148862
81	0x3d6b62e7	0.057467368
82	0xbe8d63aa	-0.276151
83	0x3ec137bd	0.37737837
84	0xbcd58d2a	-0.026068289
85	0xbdd45b4a	-0.103689745
86	0xbf24a87d	-0.6431959
87	0xbcc139ec	-0.02358719
88	0xbcd239f0	-0.025662392
89	0xbe9dac51	-0.3079553
90	0xbdb1b00a	-0.08676155
91	0x3ce48a8b	0.027898094
92	0xbf3b3d87	-0.7314076
93	0xbe21e104	-0.15808493
94	0x3e293837	0.1652535
95	0x3cab8ff4	0.020942666
96	0xbeb81fa0	-0.35961628
97	0x3ec71f49	0.38891056
98	0xbf145879	-0.579475
99	0xbf00d0ea	-0.5031878
100	0xbe2423ec	-0.16029328
101	0xbec2ac64	-0.3802215
102	0xbdf048ea	-0.11732657
103	0x3e82cf18	0.25548625
104	0x3e2c5bda	0.16831914

layer_in.bias f4 [35]
0	0x3f3e5d9e	0.743616
1	0x3f48ec41	0.78485495
2	0xbf1c0d96	-0.6095823
3	0xbd06327d	-0.032762993
4	0xbf514cf2	-0.81758034
5	0x3eee68a4	0.4656421
6	0x3e42b07f	0.1901264
7	0xbee84624	-0.45366013
8	0x3f33461f	0.7002887
9	0x3f19b517	0.60041946
10	0xbe3ca2ed	-0.18421526
11	0xbeb5581e	-0.3541879
12	0xbef62ddd	-0.48081866
13	0x3ef06583	0.46952447
14	0xbecd4974	-0.40095103
15	0x3c53781b	0.012907053
16	0x3f302424	0.68805146
17	0x3d65a59d	0.056066144
18	0x3d344d53	0.044019055
19	0x3e883126	0.26599997
20	0x3f4c779c	0.7987001
21	0xbf3f3ede	-0.747053
22	0x3f4e225b	0.8052117
23	0xbf0ad267	-0.542273
24	0x3f1fa5cc	0.6236236
25	0x3ddc93ba	0.10770364
26	0xbe87f76f	-0.26555964
27	0x3f411504	0.7542269
28	0xbf2b3445	-0.6687663
29	0x3f1f94b2	0.62336266
30	0xbf3fba06	-0.74893224
31	0x3dceed7d	0.10103891
32	0xbf1c94ab	-0.6116435
33	0xbe984b93	-0.2974516
34	0x3f0f8d6f	0.56075186

middle_layers.0.weight f4 [35, 35]
0	0x3f04b3fa	0.5183712
1	0x3cde43c4	0.027131923
2	0xbc86280a	-0.016376514
3	0xbdffd036	-0.12490885
4	0xbe841a92	-0.25801522
5	0x3d7674df	0.06017005
6	0x3e1a0e3c	0.15044492
7	0xbcb163a3	-0.021653956
8	0x3e46251a	0.1935009
9	0xbd87a24b	-0.06622752
10	0xbd886662	-0.06660153
11	0x3e41dead	0.189326
12	0x3d34dd7d	0.04415654
13	0x3ed51e1a	0.41624528
14	0x3ccc1232	0.02491102
15	0xbdca2ff5	-0.09872428
16	0xbd0444f6	-0.03229233
17	0x3d51158f	0.05104595
18	0x3e5b6b5d	0.21427675
19	0x3cefb3fc	0.029260628
20	0x3e1085d5	0.14113553
21	0xbe3a85f1	-0.18215157
22	0x3ebedb1f	0.3727655
23	0xbde2e348	-0.11078507
24	0x3d141037	0.036148276
25	0x3dde3cee	0.10851465
26	0x3e339501	0.17537309
27	0x3e425a4d	0.1897976
28	0xbe966a9e	-0.29378217
29	0xbdf77e63	-0.12084653
30	0xbea8d11b	-0.32972035
31	0xbd879227	-0.06619673
32	0xbdd63b9b	-0.104605876
33	0x3c9d5a2d	0.019208038
34	0xbb149877	-0.0022673884
35	0x3ee1a3ac	0.44070184
36	0x3de7220c	0.11285791
37	0x3cce391b	0.025173714
38	0xbcdd5772	-0.027019236
39	0xbdcfe142	-0.101503864
40	0xbda82992	-0.08211054
41	0x3de97062	0.113983884
42	0x3db37779	0.08763022
43	0x3e12049f	0.14259575
44	0x3e2c18c3	0.16806321
45	0xbd581e9d	-0.05276357
46	0x3d7a8a2f	0.06116694
47	0x3d8d3315	0.06894509
48	0x3def266c	0.1167725
49	0xbd7168d6	-0.05893787
50	0xbd7095e6	-0.058736704
51	0xbd7b3207	-0.061327007
52	0x3c8e8b6b	0.017400464
53	0x3de92469	0.11383898
54	0x3cfbcf66	0.030738544
55	0xbd76ab2d	-0.06022184
56	0xbe0e1606	-0.13875589
57	0x3e790b8b	0.2432081
58	0xbde7ce47	-0.11318641
59	0xbd90ca0e	-0.07069789
60	0xbd9a7847	-0.07542472
61	0xbdd415ab	-0.10355695
62	0xbd446279	-0.047945473
63	0x3dc1135b	0.0942752
64	0x3e2e90e6	0.17047462
65	0xbd3da35b	-0.046298366
66	0xbb475462	-0.0030415286
67	0x3dcbf6b1	0.09959162
68	0xbe046d00	-0.12932205
69	0x3d32d42b	0.04365937
70	0xbd478b75	-0.04871698
71	0x3e03f376	0.12885842
72	0x3e10de8e	0.14147398
73	0xbdc7047f	-0.097176544
74	0xbcd5321d	-0.026024872
75	0xbd59655a	-0.053075172
76	0x3cb79d8d	0.022413993
77	0x3e403b9b	0.18772738
78	0x3e578d64	0.2105003
79	0x3e013f65	0.1262184
80	0xbd5dd560	-0.05415857
81	0x3bdf8be2	0.0068220953
82	0x3e0b1019	0.1358036
83	0xbdc5e300	-0.096624374
84	0x3db387e8	0.087661564
85	0x3dc251c5	0.094882526
86	0x3df509df	0.119647734
87	0xbdf9eafe	-0.12203024
88	0x3e277d23	0.1635633
89	0x3ce684a2	0.028139416
90	0x3e078a59	0.13236369
91	0xbd317be2	-0.043331034
92	0x3e3ac041	0.18237402
93	0x3d36044e	0.0444377
94	0xbe1705ab	-0.14748256
95	0x3d30920e	0.04310804
96	0x3d8a802c	0.06762728
97	0x3e0be63f	0.1366205
98	0x3ca7aa1f	0.020466862
99	0xbd97562e	-0.07389484
100	0xbdc4e750	-0.09614432
101	0x3e3a9c24	0.18223625
102	0xbd8193a3	-0.063269876
103	0x3dc49052	0.095978394
104	0x3da8d89b	0.08244439
105	0x3dad211f	0.08453583
106	0xbdcfed3e	-0.10152672
107	0xbddb94f5	-0.10721771
108	0x3d737e41	0.059446577
109	0xbe34966a	-0.17635503
110	0x3e287857	0.16452156
111	0xbd4c049f	-0.049809095
112	0xbd32d21a	-0.0436574
113	0x3e93f219	0.28895643
114	0xbd0dc661	-0.034613017
115	0xbd25e1f5	-0.040498693
116	0xbe039d1c	-0.12852901
117	0xbe452a9b	-0.19254534
118	0xbc6296a3	-0.01382986
119	0xbd42c02f	-0.04754656
120	0xbe2fbb0d	-0.17161198
121	0x3e2734d5	0.16328748
122	0x3e4e487e	0.20144841
123	0x3e438d2a	0.19096819
124	0x3e5b2955	0.21402486
125	0x3e56bca3	0.20970397
126	0x3d991e17	0.07476442
127	0x3dc89039	0.09793133
128	0x3b190243	0.0023347295
129	0x3d8f60a7	0.07000857
130	0xbddc0bd9	-0.10744447
131	0xbd2c8e49	-0.04212788
132	0x3dc54be2	0.09633614
133	0xbc0c2523	-0.008553776
134	0x3d9d6592	0.076853886
135	0xbd9b6515	-0.07587639
136	0x3d5600ea	0.052246965
137	0xbe08e200	-0.13367462
138	0xbdc770d0	-0.09738314
139	0x3ca61e3a	0.020278085
140	0x3e00ad03	0.12565999
141	0xbd2fb047	-0.04289272
142	0x3c6f14af	0.014592334
143	0xbcc13b8a	-0.02358796
144	0xbd7fb626	-0.06242957
145	0x3d3657e1	0.0445174
146	0x3df8289f	0.12117123
147	0x3deeb0d6	0.116548225
148	0x3e92adeb	0.28648314
149	0xbbef5069	-0.007303287
150	0x3dd01497	0.10160177
151	0xbe122427	-0.14271604
152	0x3cf558fb	0.029949656
153	0x3d2dcb27	0.04243007
154	0x3d2b4fda	0.0418242
155	0x3b027b73	0.0019910007
156	0x3db4a4af	0.088204734
157	0xbd9a1841	-0.07524157
158	0x3d6ddca7	0.05807176
159	0x3caa8f5a	0.020820308
160	0xbdbc8c33	-0.092064284
161	0xbd8c8ec4	-0.06863168
162	0x3c91de52	0.017806206
163	0xbc6f53a5	-0.014607345
164	0x3e3d039c	0.18458408
165	0xbe1cb02a	-0.15301576
166	0x3d121ae4	0.035670176
167	0xbd81152d	-0.06302867
168	0xbc708ad9	-0.014681541
169	0xbcc2407e	-0.023712393
170	0xbec0b9cb	-0.3764175
171	0xbe2fe373	-0.17176609
172	0xbe09e912	-0.13467816
173	0xbb981424	-0.004641073
174	0xbe060f03	-0.13091664
175	0xbe38d755	-0.18050893
176	0x3dffe629	0.124950714
177	0x3d29afd6	0.041427456
178	0x3e08db02	0.13364795
179	0x3d87644d	0.06610928
180	0x3de217c6	0.11039691
181	0x3e1c7958	0.15280664
182	0xbd92f745	-0.07176069
183	0xbe7db35d	-0.24775453
184	0x3e0ca204	0.13733679
185	0x3c8bb82d	0.017055595
186	0xbc83a11e	-0.016068038
187	0x3e3695d0	0.17830586
188	0xbcec99af	-0.028881876
189	0xba687e98	-0.00088689616
190	0x3dbf6a32	0.09346427
191	0xbe5af6d8	-0.21383226
192	0xbe2bb6aa	-0.167689
193	0xbdc793fa	-0.09745021
194	0xbe234d2d	-0.15947409
195	0x3d3d4ae5	0.046214003
196	0x3e2d53ae	0.16926453
197	0xbde36d92	-0.11104883
198	0x3e0f552c	0.13997334
199	0xbcb3a134	-0.021927454
200	0xbe240693	-0.16018133
201	0x3d9b0fd3	0.075713776
202	0xbe1ce725	-0.1532255
203	0x3de7d51b	0.113199435
204	0xbd9977e8	-0.074935734
205	0x3d9e83d1	0.07739986
206	0xbe12596a	-0.14291921
207	0x3d552ccf	0.052044686
208	0xbdd30a79	-0.10304732
209	0xbe2a3615	-0.16622193
210	0x3dc0fbb3	0.09423008
211	0xbb7f94f7	-0.0038998702
212	0x3d1e701e	0.038681142
213	0x3d5748f8	0.052559823
214	0xbc257a94	-0.010100026
215	0x3e25f7ef	0.1620786
216	0xbb9e8689	-0.004837815
217	0x3c40c416	0.0117655005
218	0x3dd0fdbb	0.10204645
219	0x3dfb7165	0.12277488
220	0x3e4141c7	0.18872748
221	0xbe01369f	-0.12618493
222	0xbc20108d	-0.009769571
223	0xbdf2076e	-0.11817823
224	0x3d22d4d9	0.03975377
225	0xbe5cb04a	-0.21551624
226	0x3e52c4b2	0.20582846
227	0x3d3ab162	0.04557932
228	0xbc92a06f	-0.017898766
229	0x3e9afbc8	0.3027022
230	0x3d6ce490	0.05783516
231	0xbdc6a5ae	-0.0969957
232	0x3e5741f8	0.21021259
233	0x3d53dcaa	0.051724114
234	0xbe411cf3	-0.188587
235	0xbde63e32	-0.112423316
236	0x3b24353b	0.0025056142
237	0xbe08de82	-0.1336613
238	0xbe435914	-0.1907695
239	0x3dd3d581	0.10343457
240	0xbcf8c2d4	-0.030366339
241	0x3e1f8e67	0.15581666
242	0x3d49036c	0.04907553
243	0xbdda7204	-0.10666278
244	0x3aab69ec	0.0013077832
245	0x3e426ba2	0.18986371
246	0x3dd93cd6	0.10607307
247	0xbd505756	-0.05086454
248	0xbddbeec0	-0.10738897
249	0xbc39b63b	-0.011334951
250	0x3c4fc506	0.012681251
251	0xbe3008eb	-0.17190902
252	0xbe1795e9	-0.1480328
253	0x3e9d6889	0.30743816
254	0x3e30fd8f	0.17284225
255	0xbd86e1c0	-0.06586027

middle_layers.0.bias f4 [35]
0	0x3dbde131	0.092714675
1	0x3e36b636	0.17842945
2	0xbd7435b4	-0.059621528
3	0x3e45eb24	0.1932798
4	0x3db125ac	0.086497635
5	0xbe62554f	-0.22102855
6	0x3ea73a05	0.32661453
7	0x3d870543	0.065928005
8	0xbde0644c	-0.1095663
9	0xbe0d79f6	-0.13816056
10	0xbecf6fb6	-0.40514916
11	0x3e6ed209	0.2332231
12	0x3ed0fca6	0.40817755
13	0xbe8992bb	-0.2686976
14	0x3e23c1e6	0.15991935
15	0xbeba37df	-0.3637075
16	0xbed10bd3	-0.40829334
17	0x3d5fa98c	0.054605052
18	0x3e87f9bb	0.26557717
19	0xbea7e131	-0.32788995
20	0xbe6a65ce	-0.22890398
21	0x3e6a9b39	0.22910775
22	0xbdc2b05d	-0.09506295
23	0xbeef13fc	-0.46694934
24	0x3ec2fbf0	0.38082838
25	0x3d4a65e0	0.04941356
26	0x3ec25457	0.3795497
27	0x3eaadf43	0.3337346
28	0x3e3485e8	0.17629206
29	0xbef95095	-0.48694292
30	0xbe53d481	-0.20686533
31	0xbe271d87	-0.16319858
32	0xbe3ccdfc	-0.18437952
33	0xbe499441	-0.1968546
34	0x3c25928a	0.010105738

layer_out.weight f4 [2, 35]
0	0x3da91b09	0.0825711
1	0x3dcaa192	0.09894098
2	0x3b23efc3	0.0025014735
3	0xbc6f3e45	-0.014602249
4	0x3cfb86f9	0.030704008
5	0x3c05222d	0.008125824
6	0xbd51e1f4	-0.051240876
7	0x3d662182	0.0561843
8	0xbac53eeb	-0.0015048658
9	0x3ca94842	0.020664338
10	0x3e1783d8	0.14796388
11	0x3d63b949	0.055596624
12	0x3d555c58	0.05209002
13	0xbda7113d	-0.08157585
14	0xbd94990a	-0.072557524
15	0xbd739aa6	-0.059473656
16	0x3dbdd85b	0.09269782
17	0x3bfa32e7	0.0076354626
18	0x3a89e4fc	0.0010520513
19	0x3d846c2b	0.06465944
20	0xbd79efe4	-0.061019793
21	0x3c0f8ef5	0.008762111
22	0xbcc73ec7	-0.024321927
23	0xbda5509f	-0.08072018
24	0xbe0695ec	-0.13143128
25	0xbdeb2264	-0.11481169
26	0xbdc1c06a	-0.09460528
27	0xbc89b4a4	-0.016809769
28	0xba250e9a	-0.0006296426
29	0xbdc9328c	-0.09824094
30	0x3a96dca0	0.0011509843
31	0xbb53264c	-0.0032218872
32	0xbdc618e7	-0.096727185
33	0x3d1217f9	0.035667393
34	0x3cc51bc4	0.024061091
35	0xbc12cc33	-0.008959818
36	0x3d267efb	0.04064844
37	0x3bb8e3ef	0.005642406
38	0xbd2754e0	-0.040852427
39	0x3ae10eb3	0.0017170518
40	0xbc93a238	-0.018021688
41	0x3d05f1ec	0.032701418
42	0x3b86d653	0.004114905
43	0x3a2a38c0	0.0006493442
44	0x3d1759f6	0.036951028
45	0xbd625894	-0.055260256
46	0x3c70db45	0.014700715
47	0xbdfa3a74	-0.1221818
48	0x3d52b0f5	0.05143829
49	0xbd64d4b4	-0.055866912
50	0xbcf68f63	-0.030097669
51	0xbd8316f9	-0.06400866
52	0x3bd268f4	0.006421203
53	0xbcc3bf74	-0.023895003
54	0xbd328faa	-0.04359404
55	0xbc868ba8	-0.016424015
56	0xbd87c58d	-0.06629477
57	0x3b4c149b	0.0031140212
58	0x3cbf7d90	0.023375303
59	0x3dbe611b	0.09295865
60	0xbcdbd52f	-0.026835052
61	0xbddf9cd2	-0.10918583
62	0x3d7092d0	0.05873376
63	0xbc8e1aae	-0.017346706
64	0x3cb75cec	0.022383176
65	0xbd255e73	-0.040373277
66	0xbc622dd4	-0.013804872
67	0xbc7b0e77	-0.015323273
68	0x3c5da0ce	0.013527108
69	0xbc2bc8dc	-0.0104849

layer_out.bias f4 [2]
0	0xbd2146a4	-0.03937401
1	0x3d3c3d56	0.045956932
