in_model/2024-04-25 16:50:10.pth (torch, 9984 bytes, 5 tensors)

layer_in.weight f4 [40, 2]
000000 6f 47 da 40 d6 e3 c5 be 7d 40 3f c0 09 57 be bd
       6.82122 -0.38650388 -2.988311 -0.092939444
000010 91 70 9e bd 27 00 f7 bc 65 ab 4e 3f 8d 83 bf be
       -0.07736314 -0.03015144 0.8073028 -0.37405053
000020 54 66 f1 3f 0d d4 66 3f 45 2e a4 bf 82 1c f5 3f
       1.8859353 0.90167314 -1.282662 1.9149325
000030 de 15 2a bf b3 43 67 be f3 4e db 3f e5 65 31 3e
       -0.66439617 -0.22584419 1.7133468 0.17324026
000040 35 e2 8f 3f 68 28 4d 3d 0f 0d a3 be 2d b5 23 bf
       1.1240908 0.050087363 -0.318459 -0.6394833
000050 53 3c 98 3e 4e 2c d4 3e ef f0 ae 3d 70 e0 86 3e
       0.29733524 0.41440052 0.08542048 0.26343107
000060 96 c3 0a 41 04 da ff bd 21 4f 66 40 2b c6 01 3f
       8.67275 -0.12492755 3.5985796 0.50693005
000070 98 a8 15 3f 0f 9a 45 3e 50 cb 6c be f9 fe 64 bd
       0.5846038 0.1929705 -0.23124433 -0.055907223
000080 7f 63 02 3e c9 7b 9d 3e fd e2 b1 40 47 af 87 be
       0.12733267 0.30758503 5.5589585 -0.26500914
000090 7f 60 8c bf 59 c6 16 3f e5 42 c0 40 1b 2d 2f 3d
       -1.0966948 0.58896405 6.008166 0.042767625
0000a0 32 1e ad be db 91 2b 3e 76 09 3d 3f 45 70 37 bd
       -0.338121 0.16754858 0.7384256 -0.044784803
0000b0 96 27 bf bf bb b8 fd bf 39 13 78 3e 3a 1f 93 be
       -1.4933956 -1.9822 0.24226083 -0.2873476
0000c0 43 97 09 bf 93 bb 00 bf 09 c7 59 be 1a 44 b2 3d
       -0.5374643 -0.50286216 -0.21267332 0.087043956
0000d0 2f e3 55 bf 14 e4 0e be 7c a4 54 40 bf 59 08 c0
       -0.8354978 -0.13954192 3.3225393 -2.1304777
0000e0 b5 2b c0 3f 39 26 d9 3d 75 e1 2b c0 53 53 c7 be
       1.5013338 0.106029935 -2.6856358 -0.3893076
0000f0 b0 fc 6e 40 a7 07 ad 3e 23 ac 97 bf d6 ed 89 3e
       3.7341728 0.337949 -1.1849407 0.26939267
000100 81 41 de be bd a3 9e be 23 9e 0a bf aa 60 d5 be
       -0.4340935 -0.30984297 -0.5414755 -0.4167531
000110 53 e2 83 3e 18 fe 50 be b7 2e 8b bd 9a 4e 4d 3e
       0.2575861 -0.20409429 -0.067960195 0.20049515
000120 cc 17 ef 3f ad 2b 34 3f dc 97 86 bf 35 a7 9f 3e
       1.8679137 0.70379144 -1.0515094 0.31182256
000130 44 9b b7 3f 29 d0 4c be 45 bd c8 bf f4 ae 1d bd
       1.4344258 -0.20001282 -1.568276 -0.038496926

layer_in.bias f4 [40]
000000 6d 0d 9a bf d9 e2 a8 3d 69 95 60 bf 67 d4 c4 3e
       -1.2035347 0.08246393 -0.8772798 0.384433
000010 68 d2 e2 be 43 58 1f 3d 1d 3c ab 3c b7 d6 af 3e
       -0.44301152 0.038902532 0.020902688 0.34343502
000020 d3 fd b5 3e b8 3c f2 bd 61 b5 35 bf 77 84 15 3f
       0.35545215 -0.118279874 -0.7097989 0.5840525
000030 e2 6d bb bf 4c a6 26 bf bd 7e 90 3e 0e 22 72 3e
       -1.4642909 -0.650975 0.28221694 0.23645803
000040 35 99 93 3e b1 e7 5e bf 8f d6 be 3d 1c ca a3 bf
       0.28827825 -0.87072283 0.093182676 -1.2796054
000050 eb 1a 59 bf f1 6d 20 bf 96 ac f1 3f a5 00 0f 3f
       -0.848067 -0.6266776 1.8880794 0.5586036
000060 2a 65 f8 3e d8 ee 18 3f 17 45 2f 3f 7f a3 7e 3f
       0.48514682 0.59739447 0.684648 0.99468225
000070 3d 78 c2 be c1 93 d3 3d d8 ff 12 bf ec 41 22 bf
       -0.3798236 0.10330916 -0.57421637 -0.6338184
000080 da 10 8f be dc 59 87 3d ba a8 ea be c6 8f 43 3e
       -0.27942544 0.06608936 -0.45831853 0.19097814
000090 b9 98 c3 be 40 97 0f bf f6 7a 9f bf 0e 51 20 3e
       -0.38202456 -0.56090164 -1.24594 0.1565592

middle_layers.0.weight f4 [40, 40]
000000 06 3e ec 3e fa 0a b5 bd 43 43 e3 bd 35 1e 7c 3e
       0.4614107 -0.08839984 -0.110968135 0.24620898
000010 5b f6 25 3f d1 45 a3 be 1d 82 8f bd 7c 47 14 3e
       0.64829034 -0.31889203 -0.07007239 0.14480394
000020 1f 4b 94 bd 1a fa ef bd 7e fc 57 be 86 a9 e6 3d
       -0.07240891 -0.11717625 -0.21092412 0.11262803
000030 20 fb 7c 3f 84 53 d0 3e cb fc 85 3e 2c de ff bd
       0.98820686 0.40688717 0.26169428 -0.12493548
000040 c1 e4 6f 3e b2 1a 58 3e 15 0a b3 3d bf 72 28 3f
       0.23427106 0.21103933 0.08742157 0.6580009
000050 72 b5 fe 3d 8e 96 47 3e d7 8b 49 bf ca 0b a9 bd
       0.12436952 0.19491026 -0.78729004 -0.08254202
000060 51 c1 a0 bf fb f2 ef bd 3d 48 bf 3d 92 b0 dc be
       -1.2558995 -0.11716267 0.0933995 -0.43103462
000070 b6 98 dd 3e 06 08 ba be 7e bc 44 3f 54 a5 81 be
       0.43280572 -0.36334246 0.76850116 -0.25321448
000080 86 38 46 be 90 ac e4 be 2d d5 df bd 97 17 57 bc
       -0.193575 -0.44662905 -0.10929332 -0.013128183
000090 34 ba d5 3e 9c 11 7d be 1a 6f a7 bd 53 aa b5 bd
       0.41743624 -0.24713749 -0.08175488 -0.088703774
0000a0 b5 5e d2 3f ba a2 1f c0 4f 5e b1 3e f7 41 32 3d
       1.6435152 -2.494307 0.34642264 0.04351994
0000b0 ff ff 95 3f 6f 24 72 bf 5a 84 43 bf 4c 58 1d 3f
       1.1718749 -0.94586843 -0.7637383 0.61462855
0000c0 ad 19 9f 3e e6 17 9a be 39 b6 9d 3e a0 55 14 3b
       0.31074277 -0.30096358 0.30803087 0.0022634044
0000d0 94 a2 bb 3f 21 27 b4 3f b1 54 f0 3e c5 b5 18 be
       1.465899 1.4074441 0.46939614 -0.1491309
0000e0 e0 19 75 3d 8d c2 cf 3f 3c a9 2c c0 9c 3d f0 3f
       0.05983913 1.6231247 -2.6978292 1.8768802
0000f0 90 b0 7a 3e 76 f7 04 3f 34 2f 51 c0 8c 1d 9f be
       0.24481416 0.51940095 -3.268506 -0.3107723
000100 23 f1 19 c0 cc 54 66 bd d2 39 03 bf c2 e2 4c 40
       -2.4053428 -0.056233212 -0.512601 3.2013402
000110 54 3c 29 40 8f 46 3d bf cb 7d 3a 40 ef 68 af be
       2.6443071 -0.7393579 2.9139278 -0.34259745
000120 32 49 d9 3d 89 c2 2e bf e8 19 13 3e 08 ea 12 be
       0.10609664 -0.6826559 0.14365351 -0.14347088
000130 2e ac 7c 3f c1 38 85 be 63 ad 12 3f 6e 35 e8 bf
       0.98700225 -0.26019862 0.5729582 -1.8141305
000140 af 24 4c 3f b3 e0 3f be 86 e2 52 3d 2c e2 86 3d
       0.79743475 -0.1873806 0.05148556 0.065861076
000150 8d c3 d2 3e d9 93 27 bf 43 43 be be 07 b3 90 3c
       0.41164818 -0.6545997 -0.37160692 0.017663492
000160 8c 02 20 be ec 3e 83 3e 2e c7 c6 bd 2f dd 91 bd
       -0.15625972 0.25633943 -0.09705959 -0.071222655
000170 a5 f0 96 3f cf da 47 3e e7 39 1c be 94 67 5b be
       1.1792189 0.19517063 -0.15256463 -0.2142623
000180 a7 9d 9a 3d a0 a8 19 3f 8a 6d bc bf 45 49 62 3f
       0.07549601 0.60022926 -1.4720929 0.8839305
000190 be 45 e0 3d aa ce c0 bc 21 75 43 bf ba c6 3f be
       0.10950802 -0.023536045 -0.763506 -0.18728152
0001a0 a8 41 86 bf 7b 07 50 bd 83 08 a4 bd 63 c8 99 3e
       -1.0488787 -0.050788384 -0.08009436 0.30035695
0001b0 0d bf 5c 3f bd 8a d6 be bb f7 16 3f ee 5a 27 be
       0.8622902 -0.41902724 0.58971757 -0.1634328
0001c0 90 ca 55 3e a5 c9 1d be 19 61 36 be b2 33 38 bd
       0.20878053 -0.15408953 -0.17810477 -0.044971175
0001d0 b4 af dd 3d df 92 3c be 8c 8d aa 3e 73 2d 1d bf
       0.10824528 -0.18415402 0.33311117 -0.61397475
0001e0 82 f4 ba bf c1 bb 64 40 34 af c9 3d 1a 16 bd be
       -1.4605868 3.5739596 0.098478705 -0.36930925
0001f0 3c 3b bc bf fc e8 ed bf 8f 4e e4 3e 2d ce 31 bf
       -1.4705577 -1.8586726 0.44591185 -0.69455224
000200 17 fc 01 bf a6 0f fe 3e e6 bd 16 3e 6e 62 a6 be
       -0.50775284 0.49621314 0.14720878 -0.3249697
000210 d4 c7 00 c0 75 f4 8a bf 20 b2 c3 be 7d 14 82 3e
       -2.0121965 -1.0855852 -0.38221836 0.25406256
000220 ad 54 54 be 71 68 fd bf 84 bc 53 3f d2 ac e3 bf
       -0.20735426 -1.9797498 0.82709527 -1.7787116
000230 51 4f 10 3c e3 62 e3 3d 5f ce d9 bf f6 06 91 be
       0.008807973 0.111028455 -1.7016104 -0.28325623
000240 60 d3 84 3f ce c8 37 bd 78 4d 5d 3e a9 93 19 c0
       1.0377007 -0.044869237 0.21611583 -2.3996375
000250 1c f6 e5 bf 68 5a 68 3f 88 32 62 c0 76 e3 e8 3e
       -1.7965732 0.9076295 -3.5343342 0.4548604
000260 51 cd 8e 3e 3a 09 36 3f 01 8c 6e 3e ee ea 9b be
       0.2789102 0.7110783 0.23295595 -0.30452675
000270 93 ac 5f bf 57 76 2c 3f 0f ab 2f 3d 51 71 0a 40
       -0.873727 0.6736807 0.042887744 2.1631663
000280 78 32 8a bf 89 57 9c be 93 10 99 3f d7 d6 cb bf
       -1.0796652 -0.30535534 1.1958183 -1.5924939
000290 4c 3f bd c0 52 39 76 40 60 34 79 3f 83 96 a1 bf
       -5.9139767 3.8472486 0.9734554 -1.2624058
0002a0 95 3f a3 bf 45 29 be 3e 0f 83 4c 3f 34 f7 47 bf
       -1.2753779 0.3714086 0.7988748 -0.7811158
0002b0 83 0a 68 c0 48 17 1d bf 13 a5 2f c0 95 c0 c2 be
       -3.6256416 -0.6136365 -2.7444503 -0.38037553
0002c0 57 4e ef be 66 b3 db bf a6 64 15 40 cb 73 f5 be
       -0.46739456 -1.7164123 2.334268 -0.47939906
0002d0 ea be a8 3f 88 a7 d0 3e b2 3c bb 3f 1c a1 de bf
       1.3183262 0.40752816 1.4627898 -1.7392917
0002e0 8e ec 80 bf cd df 2a bf 81 31 93 bf 7d 5d 38 c0
       -1.0072191 -0.6674774 -1.1499482 -2.880706
0002f0 08 7f 63 bf a0 1d 39 40 f3 24 cb be 8f f4 b6 3f
       -0.8886571 2.8924332 -0.39676628 1.4293383
000300 c3 8e 6f 3f 9b a7 ef 3e 23 1a 05 3f ee eb c6 be
       0.9357721 0.4680756 0.51993006 -0.38851875
000310 57 3b 6a c0 3c 28 11 40 06 ad ba 3e 80 2f ec 3e
       -3.6598718 2.2680807 0.3646013 0.4612999
000320 b9 72 05 3e c7 af e8 3d a5 82 0b be 7d 33 43 be
       0.13032044 0.11361652 -0.13624056 -0.1906261
000330 e7 4d 52 be b4 e9 ca 3d 77 ad 4e 3e 1b 70 53 3c
       -0.2053753 0.099078566 0.20183359 0.012905146
000340 7b ee 72 3e 71 d1 3d be e8 6c f9 bd 23 27 21 bd
       0.23723786 -0.18536927 -0.12178975 -0.039343964
000350 8f b9 74 bd 16 f6 99 bd 64 bc 6b be a7 c6 69 be
       -0.059747275 -0.0751764 -0.23021084 -0.22829686
000360 c4 d5 6f be d6 d2 46 3e f1 30 9d bd 21 0b 08 3e
       -0.23421389 0.19416365 -0.076753505 0.13285495
000370 83 a9 7a 3d 00 8d 72 3e e3 ea b2 3e f8 64 77 bd
       0.061196815 0.236866 0.3494483 -0.060399026
000380 63 98 08 3d a0 c0 68 3e ac 13 07 be dd eb 59 be
       0.033348452 0.2272973 -0.13191098 -0.21281381
000390 c7 f5 8c bd d6 2e f4 bb 99 f7 18 3e c4 39 d8 bc
       -0.06882816 -0.0074518723 0.14938201 -0.026394732
0003a0 70 dc 4c be 5f b6 82 3e d4 cc 3f 3e 3e 90 4e be
       -0.20005965 0.25529763 0.1873048 -0.20172212
0003b0 bb 8c 7c 3e f9 35 54 3e bd a3 33 bc 4f e0 84 be
       0.2466306 0.20723714 -0.010964331 -0.25952384
0003c0 25 3e 15 bc d0 49 a8 3d 11 59 6a be 5a 92 5b bd
       -0.009109055 0.082172036 -0.22885539 -0.05360637
0003d0 3e 46 21 bd 01 23 6d 3e 90 72 00 3e b0 85 7b be
       -0.03937363 0.23157884 0.12543702 -0.24562716
0003e0 80 bd 11 be 75 33 86 3e 0a 20 92 3e 99 b6 48 be
       -0.14232445 0.26211134 0.2854007 -0.19600905
0003f0 45 c5 2e be 1c 5c 3c 3e a0 33 4a be 0b 27 0f 3e
       -0.1706744 0.18394512 -0.19746256 0.13979737

middle_layers.0.bias f4 [40]
000000 f0 b9 28 3d 2c f9 38 be dc 59 c6 3c ee ee 7b 3c
       0.04119295 -0.18063802 0.02421277 0.0153767895
000010 a5 ee 47 bf 3a c7 2e be 1b d9 91 bd 29 1e c2 3a
       -0.7809852 -0.17068186 -0.07121488 0.0014810014
000020 c6 9d 05 be d8 9d 24 be fa b4 8b bd c0 53 f4 3d
       -0.13048467 -0.16075838 -0.06821628 0.119300365
000030 a9 1b 08 bf 44 0a 60 3e de be b0 bd 89 62 3f 3e
       -0.53167206 0.21878916 -0.08630155 0.18689932
000040 a3 7d 1b 3e cc 78 a2 bb 8e a6 a8 bd b2 60 34 bd
       0.15184645 -0.0049582478 -0.08234893 -0.04403753
000050 b9 fc 0e 3e 0d fc b1 3d 96 0d 06 3e a1 8a c2 3c
       0.13963594 0.08690653 0.1309112 0.023747744
000060 bb 8b 54 bd d0 5a 0e 3e 30 77 0e be 9c 3e 21 be
       -0.05189107 0.1390183 -0.13912654 -0.1574654
000070 c9 aa ba 3d 61 46 e0 3d 75 a2 12 be e2 65 3e 3e
       0.09114606 0.10950924 -0.14319785 0.18593553
000080 8a 97 ec bd 13 56 c8 bd de ee 3c 3e d2 14 fe bd
       -0.11552341 -0.09782042 0.18450496 -0.12406315
000090 c0 45 10 3e 32 3d e6 bc a3 9b d4 bd 48 de 4f bd
       0.14089108 -0.028105352 -0.10381248 -0.050749093

layer_out.weight f4 [1, 40]
000000 de b8 85 3e 63 8e 87 bf e5 fc 1c 3f 5d 6e 54 bf
       0.26117605 -1.0590328 0.61323386 -0.829809
000010 ee 43 8b 3f 19 0f d9 be f6 f5 56 be d8 c7 d0 be
       1.0880105 -0.4239433 -0.20992264 -0.4077747
000020 a8 14 94 3f 68 a5 8c be 66 99 a4 be 76 54 18 3e
       1.1568804 -0.27469945 -0.32148284 0.1487597
000030 8f 85 21 3f 54 af 53 3e 1a 3e 53 be a4 38 9b be
       0.6309442 0.20672351 -0.20629159 -0.3031665
000040 9b 36 5e 3d 0b f2 98 be 3b fd ae 3e 2c 8e 67 be
       0.054251295 -0.29872164 0.34177575 -0.22612828
000050 0a 8f 8e 3d 05 2e 51 be cc ab 82 3e 1e 7a 45 be
       0.06960876 -0.20427711 0.25521696 -0.19284865
000060 57 f7 92 3e 67 41 87 be ad 2b 03 bf 38 2a 0f be
       0.2870433 -0.26417086 -0.5123852 -0.13980949
000070 a4 ce a4 be a7 d4 8a 3d 75 5f 23 be 1a 52 41 3e
       -0.32188904 0.067788415 -0.15954383 0.18878976
000080 06 b5 7f 3e 15 be 8d be b9 d0 12 bf fd 6e 34 3e
       0.24971399 -0.27684084 -0.57349735 0.17620464
000090 bd 2f ff 3e 50 82 a6 3e c1 7a dc be 2f 9e b8 3e
       0.4984111 0.32521296 -0.43062404 0.36058185
