in_model/2024-04-26 14:50:55.pth (torch, 9984 bytes, 5 tensors)

layer_in.weight f4 [40, 2]
0	0xbee758b4	-0.45184863
1	0xbe89e1ba	-0.26930028
2	0x3ff7adc7	1.9349908
3	0x3e0e8f55	0.13921864
4	0x3fb21a57	1.3914288
5	0xbe626cee	-0.22111866
6	0x3c127722	0.008939536
7	0x3e003dae	0.12523529
8	0x3f429f11	0.76023966
9	0xbf165386	-0.58721197
10	0xbfcd5b7a	-1.6043541
11	0xbef601a5	-0.4804813
12	0xc03c2584	-2.9397898
13	0x3fc83e68	1.5644045
14	0x3f8c064d	1.0939423
15	0x3ed7f114	0.42176116
16	0x4000b0c0	2.010788
17	0x3eaccbb9	0.33749178
18	0xbf8a4a37	-1.0803899
19	0xbee36219	-0.4441078
20	0xbec49e8e	-0.38402218
21	0xbeba95fa	-0.36442548
22	0xbfe91a1d	-1.8211094
23	0x3d8500d2	0.06494297
24	0x3fb09174	1.3794389
25	0x3db25a45	0.08708624
26	0xbe98f5d3	-0.2987505
27	0xbec7989d	-0.38983622
28	0xc0150042	-2.3281407
29	0xbf296125	-0.66163856
30	0x3db989ed	0.090595104
31	0xbddc3a6a	-0.10753329
32	0xbfae7a03	-1.3630985
33	0x3e65af07	0.22430049
34	0x408af1f6	4.3420362
35	0xbee31ae9	-0.44356468
36	0xbe8f4586	-0.2798273
37	0xbee51fe4	-0.44750893
38	0x402e10f2	2.7197843
39	0xc0208cf4	-2.508603
40	0x3ea8b901	0.32953647
41	0xbf0de47b	-0.5542676
42	0xbf076978	-0.5289531
43	0x3e8c08d8	0.27350497
44	0xbea560ad	-0.3230032
45	0xbe3b1c43	-0.182725
46	0x3fd87d5d	1.6913258
47	0x3dca6651	0.098827966
48	0xc093c8ee	-4.6182775
49	0x3c9f9849	0.019481795
50	0xbe7905d7	-0.24318634
51	0xbe9bba92	-0.3041578
52	0xc02e39bc	-2.7222738
53	0x3eb81f7a	0.35961515
54	0x4098db7c	4.7767925
55	0xbde21225	-0.11038617
56	0x3ff84cff	1.9398497
57	0x3e3f5e29	0.18688263
58	0xbf3f0209	-0.7461248
59	0x3f00c70e	0.50303733
60	0xbed403f5	-0.4140927
61	0xbf2ad21d	-0.6672686
62	0x40046bd8	2.0690823
63	0x3df0a766	0.11750679
64	0xc10dcb0d	-8.862073
65	0xbc600856	-0.013673862
66	0x3ff674a8	1.9254351
67	0x3efd359c	0.49454963
68	0x3f8e6b66	1.1126525
69	0x3ea697fc	0.3253783
70	0x400979d3	2.1480606
71	0x3f334f56	0.7004293
72	0xbf8ddc0d	-1.1082779
73	0x3e99bdc9	0.30027607
74	0x40df5d8b	6.980169
75	0xbf024164	-0.5088103
76	0xc0d16220	-6.543228
77	0xbe8672b7	-0.26259395
78	0x400e7d21	2.2263873
79	0x401ae892	2.420445

layer_in.bias f4 [40]
0	0x3f4bd24f	0.7961778
1	0xbfead625	-1.8346602
2	0xbf677148	-0.9040723
3	0xbf4700a6	-0.77735364
4	0x3f251c03	0.6449587
5	0x3fdd85d2	1.7306464
6	0x3ff14872	1.8850234
7	0x3f8bf042	1.0932696
8	0xbff12ba2	-1.8841441
9	0xbeb21ac4	-0.34786046
10	0xbe94ad71	-0.29038575
11	0x3fb7ec52	1.4368994
12	0x3f2a1b3b	0.664478
13	0xbf856c07	-1.0423592
14	0x4017fa99	2.3746703
15	0xbf4c55f0	-0.7981863
16	0x3f841068	1.0317507
17	0xbf25ab99	-0.6471496
18	0xbec0472c	-0.375543
19	0x3dc59af5	0.09648696
20	0xbd327632	-0.04356975
21	0x3f442258	0.76614904
22	0xbf8b96d2	-1.0905402
23	0xbf9dfdb8	-1.2343054
24	0x3ef1dcc3	0.4723874
25	0x3f2a58f4	0.6654198
26	0x4011650f	2.2717931
27	0xbe23cc2d	-0.15995856
28	0x3f6c07a9	0.9219919
29	0x3f343e75	0.704078
30	0xbdd55e14	-0.104183346
31	0xbfedf6f6	-1.8590991
32	0x40155a46	2.3336349
33	0x3e0b71a8	0.13617575
34	0x3f1e1ac5	0.617596
35	0xc00946bf	-2.144943
36	0x3f4ab236	0.7917818
37	0xbf9e055e	-1.2345388
38	0x3f8bd5fd	1.0924679
39	0xc0100682	-2.2503972

middle_layers.0.weight f4 [40, 40]
0	0xbd843632	-0.064556494
1	0xbe4c7b16	-0.19968829
2	0xbe314e75	-0.17315085
3	0x3cd0c4fa	0.02548455
4	0xbc00dda0	-0.0078653395
5	0x3e4265a8	0.18984091
6	0xbd37e105	-0.04489233
7	0x3eb5b14b	0.35486826
8	0x3e570b68	0.21000445
9	0xbe6fcefe	-0.23418805
10	0xbeb5371a	-0.35393602
11	0xbe38444f	-0.17994808
12	0xbdae2f87	-0.08505159
13	0xbe38e594	-0.18056327
14	0x3e0bc9f9	0.13651265
15	0xbd783190	-0.06059414
16	0x3e928fc2	0.28625304
17	0x3c9a4ede	0.018836435
18	0xbe053db0	-0.13011813
19	0x3e414064	0.1887222
20	0xbdce0c5d	-0.10060952
21	0xbd76980b	-0.060203593
22	0xbe8bc44b	-0.27298197
23	0xbe968063	-0.29394826
24	0xbdfaf69b	-0.122540675
25	0x3c24434a	0.010025809
26	0xbe636f58	-0.22210443
27	0x3e9329e7	0.28742906
28	0x3e860bb5	0.26180807
29	0x3ea2bb57	0.31783554
30	0xbe9797d5	-0.29608026
31	0xbdd0099c	-0.10158083
32	0xbe2cb719	-0.16866721
33	0x3ec82d23	0.39096937
34	0xbdc7272b	-0.097242676
35	0xbdf4da45	-0.11955694
36	0xbe0b9eba	-0.13634768
37	0xbd1f5e82	-0.03890849
38	0xbe727dd5	-0.23680814
39	0x393dd938	0.00018105365
40	0xbe3bc20d	-0.18335743
41	0xbec67093	-0.38757762
42	0xbeb60a9b	-0.35554966
43	0xbe26fe03	-0.16307835
44	0x3d5f18da	0.05446706
45	0x3e7bdd01	0.24596025
46	0x3ea88b59	0.32918814
47	0xbe234577	-0.15944467
48	0xbe816e97	-0.25279686
49	0x3dfd38b1	0.12364329
50	0x3da494ec	0.08036217
51	0x3ed53bcc	0.41647184
52	0xbdf30ccc	-0.11867675
53	0x3d7b70d1	0.061386887
54	0x3e1e02e3	0.15430789
55	0x3db93916	0.090440914
56	0xbdd81513	-0.105508946
57	0x3ebaeb0e	0.36507457
58	0x3b40a4b9	0.0029395057
59	0xbec2bcb3	-0.3803459
60	0xbea36fdc	-0.3192128
61	0x3e292cec	0.16521043
62	0xbe8c3722	-0.27385813
63	0xbdbecc70	-0.09316337
64	0xbdc40fe7	-0.09573346
65	0x3ea6bfec	0.325683
66	0xbdbe48ce	-0.0929123
67	0x3e145e6e	0.14489147
68	0x3d986fca	0.07443197
69	0xbdf4f230	-0.11960256
70	0xbe04e310	-0.12977242
71	0xbf20ad9d	-0.6276491
72	0xbe4f75c4	-0.20259768
73	0x3cbbbe0b	0.022917768
74	0x3ea0d842	0.31414992
75	0xbea85be1	-0.32882598
76	0xbdb314af	-0.087441795
77	0xbd8cf9e4	-0.068836
78	0x3da02fa0	0.07821584
79	0xbf4fd132	-0.8117858
80	0x3e0ae809	0.13565077
81	0x3e8daefa	0.2767256
82	0x3e433118	0.19061697
83	0x3e2d929f	0.16950463
84	0x3e071fa4	0.13195664
85	0x3dc5cd19	0.0965826
86	0x3e3dc737	0.18533026
87	0x3e10a35a	0.14124814
88	0xbdbf8c12	-0.09352888
89	0x3e146a9d	0.14493795
90	0x3db6ba71	0.089222796
91	0xbd963847	-0.07334953
92	0xbd61d587	-0.055135276
93	0xbe2d6950	-0.16934705
94	0x3dd19a66	0.10234527
95	0x3e1f78f5	0.15573485
96	0xbe594c87	-0.21220599
97	0xbe1d533c	-0.15363783
98	0x3e4b16bd	0.19832893
99	0xbf553bc1	-0.832943
100	0x3da5321e	0.080662
101	0xbcb435e3	-0.021998351
102	0xbe49681f	-0.19668625
103	0x3e4ff2c9	0.20307459
104	0xbd8c323c	-0.06845519
105	0xbd3e7617	-0.046499338
106	0x3e7197c0	0.23593044
107	0x3dbc24ad	0.09186683
108	0xbd34194e	-0.043969445
109	0x3e322d23	0.17400031
110	0xbe15aadc	-0.14615959
111	0x3ea4a910	0.32160234
112	0x3e89ceb0	0.26915503
113	0xbd885ecb	-0.06658705
114	0x3e901cfa	0.28147107
115	0x3dba1037	0.09085124
116	0xbe3baa5f	-0.1832671
117	0xbe9e1244	-0.3087331
118	0x3d029aa4	0.031885758
119	0x3f2bf5ed	0.6717213
120	0x3e8b6358	0.2722423
121	0xbe48055b	-0.19533293
122	0x3e253b01	0.1613579
123	0xbce8b105	-0.028404722
124	0x3ef5e792	0.48028237
125	0x3e5fe546	0.21864805
126	0xbe00c40c	-0.12574786
127	0xbdbe69ec	-0.09297547
128	0x3d8e437b	0.06946465
129	0x3daf7c95	0.08568684
130	0x3e688b43	0.22709374
131	0x3c537cc0	0.012908161
132	0x3e91f9d9	0.2851093
133	0xbe16c701	-0.14724351
134	0x3e6fe666	0.23427734
135	0xbdb9eb5b	-0.090780936
136	0x3e207f6b	0.15673606
137	0xbc4d1d57	-0.012519202
138	0x3d920447	0.07129722
139	0x3faaff3e	1.3359144
140	0x3e9340c2	0.28760344
141	0xbbfe4c33	-0.0077605485
142	0xbe73e250	-0.238168
143	0xbeabb909	-0.33539608
144	0x3e1f8724	0.15578896
145	0x3d9b00b0	0.075684905
146	0xbe8c0ecb	-0.27355036
147	0xbe792b13	-0.24332838
148	0x3ea381be	0.31934923
149	0xbe3b793a	-0.18307963
150	0x3dbeedb2	0.093226805
151	0xbd4231fd	-0.047410954
152	0x3ee387ee	0.44439644
153	0x3ec7ce84	0.39024746
154	0x3daeacee	0.085290775
155	0x3b845bd2	0.004039266
156	0x3e522fff	0.20526122
157	0xbee0974b	-0.43865427
158	0x3efa8762	0.48931414
159	0xbf2f4337	-0.68461937
160	0xbc7519f0	-0.014959797
161	0xbe37ae3c	-0.17937559
162	0x3eab6fc3	0.33483705
163	0x3de3a0a9	0.11114628
164	0x3e3ac4ee	0.18239185
165	0x3dbb2461	0.09137798
166	0x3e0460c5	0.1292754
167	0xbc63193f	-0.013861
168	0x3e64277d	0.22280689
169	0xbeaf96d4	-0.3429476
170	0xbd6c25db	-0.05765329
171	0xbe8b0df2	-0.27159077
172	0x3d867134	0.065645605
173	0x3c6a89a9	0.014315047
174	0xbcc0068c	-0.023440622
175	0xbe29decf	-0.16588901
176	0xbd9e9c42	-0.077446476
177	0x3f00ec96	0.50361
178	0x3daeaace	0.08528672
179	0x3f91f9c8	1.1404352
180	0xbe2178cf	-0.15768741
181	0x3e3981b2	0.18115881
182	0x3de0a5ea	0.109691456
183	0x3e5b0789	0.21389593
184	0xbea88dee	-0.32920784
185	0xbe91873c	-0.28423488
186	0xbe0c7801	-0.13717653
187	0x3e7f70c0	0.24945354
188	0x3e9ac929	0.30231598
189	0x3de28890	0.110612035
190	0x3d820b14	0.06349769
191	0xbe10c8dc	-0.14139122
192	0xbf9f33b8	-1.2437658
193	0x3ecf21b7	0.4045541
194	0x3dea8bd7	0.114524536
195	0x3e899879	0.2687414
196	0x3e183efc	0.14867777
197	0x3f60627f	0.87650293
198	0xbe996423	-0.2995921
199	0x3fa69b9a	1.3016236
200	0xbebcbb1d	-0.36861506
201	0x3e866342	0.26247603
202	0xbf422d9e	-0.75850856
203	0x3ed04008	0.40673852
204	0xbeb33b48	-0.35006166
205	0xbd65d7be	-0.05611395
206	0x3d93a6b7	0.07209533
207	0xbf41bf7e	-0.7568282
208	0x3e5e4d53	0.21709184
209	0x3f26779d	0.65026265
210	0x3f0f9984	0.5609362
211	0x3d517188	0.051133662
212	0xbfa2956f	-1.2701854
213	0x3edcae3e	0.43101686
214	0xbec71713	-0.38884792
215	0x3ea39480	0.31949234
216	0xbd874d4c	-0.0660654
217	0xc045fae4	-3.0934381
218	0x3ecb1f8e	0.39672512
219	0xc006c0db	-2.105521
220	0x3d4131b9	0.04716656
221	0xbf10f06b	-0.5661685
222	0x3eee1832	0.46502835
223	0x3f078ae4	0.52946305
224	0x4031aad7	2.7760522
225	0xbf5a7773	-0.85338515
226	0xbec0e985	-0.3767816
227	0xc05f7954	-3.4917803
228	0xbf91f6db	-1.1403459
229	0xbea55dfe	-0.32298273
230	0x3f780703	0.968857
231	0xbfa6815b	-1.3008226
232	0x3feb2604	1.8370976
233	0xc0addbc6	-5.433078
234	0xbf5ef8c9	-0.87098366
235	0xbf9518ca	-1.164819
236	0x3d8ad9a8	0.06779796
237	0xc06423d8	-3.5646877
238	0x406cd2c2	3.7003636
239	0xbf1b970f	-0.6077737
240	0xbddfbe78	-0.10925001
241	0x3e54bbdd	0.20774789
242	0x3e3daa82	0.18522075
243	0x3d03b470	0.0321545
244	0xbe5230e8	-0.20526469
245	0xbe3d48ee	-0.18484852
246	0x3ec1edf9	0.3787687
247	0x3ea97a6b	0.3310121
248	0x3ec65864	0.38739312
249	0xbe91355c	-0.28361022
250	0xbeb42aa0	-0.3518877
251	0xbea9ee0d	-0.3318943
252	0x3e881282	0.2657662
253	0xbe2e01f6	-0.16992936
254	0xbdf5afde	-0.11996435
255	0x3daef50c	0.08542833

middle_layers.0.bias f4 [40]
0	0x3e1d0226	0.15332851
1	0x3ca0988a	0.019603986
2	0x3d5e1fc5	0.054229517
3	0x3d9059b8	0.070483625
4	0x3df17d2e	0.11791454
5	0xbf1d93fc	-0.6155393
6	0x3d67cc88	0.05659154
7	0x3e458ba9	0.19291557
8	0xbd28527d	-0.041094292
9	0xbe32d607	-0.17464457
10	0x3f0b57b7	0.5443072
11	0xbdcb3c50	-0.09923613
12	0xbe8cc165	-0.27491298
13	0xbd985130	-0.0743736
14	0x3d130017	0.035888758
15	0x3ccb58c3	0.024822598
16	0xbdb6c562	-0.089243665
17	0xbe4fe4d9	-0.20302142
18	0x3ba00ca5	0.00488432
19	0x3dbc9b87	0.09209352
20	0x3d2f33bd	0.04277395
21	0x3db4c075	0.08825771
22	0x3daa4fc4	0.08315995
23	0x3dad7e69	0.084713764
24	0xbe4a00fd	-0.1972694
25	0x3f89da10	1.0769672
26	0x3e3c3213	0.18378477
27	0x3e1541bd	0.14575858
28	0xbdbf6596	-0.09345548
29	0xbe1ff705	-0.15621574
30	0x3e57a367	0.21058427
31	0x3e52f35a	0.20600644
32	0xbc211382	-0.009831311
33	0x3da26552	0.079294816
34	0xbe08ba8a	-0.13352409
35	0xbe151fe8	-0.14562953
36	0x3ebf63fd	0.37380973
37	0xbd407239	-0.04698393
38	0xbbe9073f	-0.0071114595
39	0x3ddc1149	0.107454844

layer_out.weight f4 [1, 40]
0	0x3dd22fcf	0.10263025
1	0x3eedc392	0.4643827
2	0x3e58c70c	0.2116968
3	0xbebbd8fa	-0.36688977
4	0xbf93c656	-1.1544902
5	0xbf56992d	-0.8382748
6	0x3f2ab435	0.66681224
7	0x3e6619ba	0.22470751
8	0xbed3d61d	-0.41374293
9	0x3ecfcb5b	0.40584835
10	0xbf96c2b6	-1.1778171
11	0x3e7ec889	0.24881186
12	0xbf7e42fa	-0.9932095
13	0xbee98d95	-0.4561583
14	0xbf3159f6	-0.69277894
15	0x3fae783b	1.3630441
16	0xbe10d0c9	-0.14142145
17	0xbe731fb9	-0.2374257
18	0xbf4e3f36	-0.805652
19	0x3e5d31bb	0.21601002
20	0x3eaa111f	0.33216187
21	0xbe76cb39	-0.24100961
22	0x3e6e1aba	0.23252383
23	0xbe821744	-0.25408375
24	0xbdca98d3	-0.0989243
25	0xbf4b1ca2	-0.79340565
26	0x3e36707a	0.17816344
27	0x3e373cbc	0.17894262
28	0x3e0d148c	0.1377737
29	0xbe830361	-0.25588515
30	0xbf263f50	-0.6494036
31	0xbebdf29f	-0.37099168
32	0xbed76b00	-0.42073822
33	0xbf7273e4	-0.94708085
34	0xbb87faf2	-0.004149788
35	0xbf13a512	-0.5767375
36	0x3f53b218	0.82693624
37	0xbf528c71	-0.82245547
38	0x3ecda344	0.40163624
39	0x3e5966a6	0.21230564
