in_model/2024-04-25 16:27:21.pth (torch, 9984 bytes, 5 tensors)

layer_in.weight f4 [40, 2]
-4.064265 -0.57579696 -2.8781824 -0.06537527 -0.5354074 0.29112768 1.1685746 0.079500474
0.69625926 0.16354407 -1.341878 0.32539552 4.8776827 -0.1881823 -0.7635098 0.4172025
0.6182435 -0.22705294 -0.22877482 -0.15443893 -0.85162663 -0.12617159 0.7915008 0.28623283
1.1300596 0.9107723 0.6149094 0.27413335 -0.80359817 0.87088513 -0.36441627 -0.07724357
0.41930115 0.5111085 7.1162996 -0.35522753 0.7875102 -0.23589402 0.9340471 0.08700074
-0.62582374 0.30634278 -0.79680294 -0.09295929 -1.1128336 -0.19397733 0.15478273 -0.022515085
-4.8325458 -0.31281105 -0.08666453 0.6211439 0.45471182 -0.15356056 -0.6142129 -0.24612232
1.3117722 -0.80440754 -0.84179896 -0.18947715 -1.3434652 -0.1489234 0.62611395 0.67266273
-0.5377217 -0.13935488 0.96402436 0.01640051 0.8358164 0.0727506 -2.8338032 -0.25707406
-1.5958985 3.1661475 0.34943345 -0.6307647 -7.541137 0.3579773 -0.24732879 -0.17341065
00000000: 750e 82c0 6e67 13bf 2434 38c0 78e3 85bd
00000010: 7610 09bf b00e 953e da93 953f 25d1 a23d
00000020: 0c3e 323f 1978 273e a9c2 abbf 3e9a a63e
00000030: fa15 9c40 dcb2 40be 6175 43bf 919b d53e
00000040: 3545 1e3f 9180 68be f243 6abe 3d25 1ebe
00000050: 3404 5abf 2033 01be cc9f 4a3f 1c8d 923e
00000060: cba5 903f 6028 693f b46a 1d3f 355b 8c3e
00000070: 9cb8 4dbf 54f2 5e3f c594 babe e031 9ebd
00000080: a4ae d63e 02d8 023f bab8 e340 62e0 b5be
00000090: 459a 493f 348e 71be b61d 6f3f 722d b23d
000000a0: fc35 20bf f6d8 9c3e 47fb 4bbf 7161 bebd
000000b0: 5571 8ebf fea1 46be 5d7f 1e3e 8e71 b8bc
000000c0: 37a4 9ac0 c528 a0be 2c7d b1bd 4903 1f3f
000000d0: fdcf e83e fb3e 1dbe 0e3d 1dbf 7d07 7cbe
000000e0: 27e8 a73f a7ed 4dbf 2380 57bf 4c06 42be
000000f0: abf6 abbf 607f 18be 0149 203f a033 2c3f
00000100: 21a8 09bf 0cb3 0ebe 4dca 763f 5d5a 863c
00000110: 10f8 553f 44fe 943d 085d 35c0 369f 83be
00000120: 6746 ccbf 29a2 4a40 f1e8 b23e cc79 21bf
00000130: ff50 f1c0 cd48 b73e c243 7dbe 9092 31be

layer_in.bias f4 [40]
0.63741356 0.0050163018 0.33654824 0.1542454 0.20639923 -0.31757465 -0.3520524 0.42622876
-0.4617939 -0.41565973 -0.09683233 -0.99494064 -0.71762735 0.001690342 -0.29157156 0.63032144
-0.53961915 -0.5876369 0.16616206 -0.63520646 0.24517213 -0.52504927 -0.11370132 0.30902377
0.5843979 0.5244808 0.32831743 -0.4467816 0.19489974 -0.17988 -0.24982812 -0.57340705
-0.63421375 0.6174609 0.3005459 0.26476225 -0.47859928 -0.60654783 0.61187625 -0.78492326
00000000: 892d 233f ca5f a43b 0d50 ac3e 82f2 1d3e
00000010: 525a 533e 2599 a2be 3640 b4be a83a da3e
00000020: 4070 ecbe 5ad1 d4be 0750 c6bd 6eb4 7ebf
00000030: 6db6 37bf 778e dd3a de48 95be bf5c 213f
00000040: 7b24 0abf 5f6f 16bf 6326 2a3e e49c 22bf
00000050: 670e 7b3e a169 06bf 3ddc e8bd 5d38 9e3e
00000060: 1a9b 153f 6044 063f 3919 a83e 8fc0 e4be
00000070: cc93 473e 7632 38be f1d2 7fbe ceca 12bf
00000080: d55b 22bf eb11 1e3f 27e1 993e eb8e 873e
00000090: f70a f5be b846 1bbf eca3 1c3f bbf0 48bf

middle_layers.0.weight f4 [40, 40]
-0.026997287 0.104156904 0.58898246 0.11577039 0.1327693 -0.06502167 0.14695592 0.69052124
-0.9880911 0.10040339 0.109096915 -0.3730667 -0.40245783 -0.15024671 -0.018945325 0.41008648
-1.097924 0.21855502 -0.04213949 -0.81430376 0.35956448 -0.30386075 0.11540316 0.3333006
0.19303973 -0.08506006 -0.0140581345 -0.10452407 -0.063749954 -0.3082779 -0.113282 -1.3540523
-0.25626084 0.39476117 0.052042894 0.06372493 0.63340116 -0.1781341 -0.39939743 -0.166978
-0.05794663 0.12176779 0.33972868 0.22730623 -0.17628448 -0.2587414 -0.20598537 0.25419265
-0.26982117 -0.14344034 0.16235198 -0.08070431 -0.12759843 -0.23784886 0.01837598 0.2204055
-0.2908782 0.088913865 -0.2383612 -0.21868086 -0.2225513 -0.018449346 0.12568103 -0.17164718
0.022662124 -0.09114382 -0.1902343 -0.006148781 -0.24264799 0.09743896 -0.18042499 -0.26744562
0.11498222 0.07749215 0.1868962 -0.24130468 0.22993846 0.13440312 -0.13512374 -0.104644515
-0.06226877 -0.13214251 -0.18101744 0.039923932 0.22036946 -0.09942876 -0.06823919 -0.070591375
0.15191318 -0.080758944 -0.15029982 0.22405402 0.012257569 0.10523906 0.19795123 -0.039990887
-0.070860736 -0.15793732 -0.28906068 -0.026745947 0.049251653 0.18536147 -0.071307 -0.1430412
0.033386808 0.07012326 -0.16856831 0.05736955 0.20988756 0.19221893 0.066434376 0.10217659
-0.07139842 0.17689726 0.1625746 0.097775266 -0.13269645 -0.15071459 0.15719275 -0.18441793
-0.06283023 -0.19818094 -0.1081438 -0.03901379 0.1649751 0.14953724 -0.14514568 -0.23337008
0.15496486 0.016155178 0.05762959 0.29980803 -0.17190368 0.0013073626 -0.19715992 -0.27680883
0.16367446 -0.09978316 0.042059813 0.17825235 -0.26447278 0.17462978 -0.17845622 0.17766988
-0.006411593 -0.04769304 -0.22505896 0.019477937 0.12071949 -0.11868227 -0.0073734256 -0.1846789
-0.20634004 -0.07103032 -0.08777421 0.12561874 -0.61615217 0.3131138 0.009608922 0.14076535
0.15368 0.1437677 0.20578024 0.03085715 -0.2305497 -0.23919055 0.20547841 -0.1605209
-0.05829912 0.20606785 -0.10741086 -0.19291914 -0.2813916 0.27932087 0.19798577 0.15159677
0.2801929 0.2813343 0.101492696 -0.056678966 0.27674446 0.18937363 0.061777662 -0.03396209
-0.18733168 0.30378154 -0.06989787 -0.21649566 -0.049197763 -0.102334246 -0.04677719 0.2537514
-0.13936856 0.11548394 0.104021244 -0.25213188 -0.021083098 -0.29718754 0.1709772 -0.21257113
-0.1692447 -0.20096727 -0.08167896 -0.17091823 -0.0819338 -0.095634244 -0.08973974 0.12204594
-0.14013593 0.1668222 -0.25112996 -0.061206028 0.0633842 -0.26644576 0.019447168 0.23338094
0.037463192 9.4788506e-05 0.046192195 0.048016105 -0.013015223 0.23226267 -0.05875405 -0.20839304
-0.014251137 0.23592134 0.09109185 0.16314256 0.2847483 -0.15653989 0.16914934 -0.17585546
0.18077306 0.24742077 0.14607732 0.14158729 -0.24578515 -0.18205878 -0.17529255 0.11754894
0.13241124 -0.11335743 0.0005941366 -0.1218427 -0.07480942 0.066031985 0.15539481 -0.30290365
0.17024752 0.016456725 -0.010717727 0.085488334 -0.05028919 -0.027703406 -0.22959049 0.1836712
00000000: 6a29 ddbc 3750 d53d 8ec7 163f 0719 ed3d
00000010: adf4 073e 152a 85bd 9d7b 163e 00c6 303f
00000020: 8af3 7cbf 4ba0 cd3d 346e df3d 9902 bfbe
00000030: f40e cebe 46da 19be 3a33 9bbc dbf6 d13e
00000040: c688 8cbf e3cc 5f3e 759a 2cbd 3676 50bf
00000050: d618 b83e a393 9bbe 7e58 ec3d 60a6 aa3e
00000060: 35ac 453e f833 aebd 1754 66bc b710 d6bd
00000070: 568f 82bd 9ad6 9dbe 6500 e8bd 9651 adbf
00000080: 9f34 83be 231e ca3e ee2a 553d 3782 823d
00000090: 9426 223f c968 36be d27d ccbe 48fc 2abe
000000a0: 7259 6dbd 6461 f93d ebf0 ad3e f7c2 683e
000000b0: eb83 34be c179 84be d4ed 52be 8a25 823e
000000c0: 0026 8abe 06e2 12be 993f 263e 4d48 a5bd
000000d0: 2aa9 02be a78e 73be 3989 963c fbb1 613e
000000e0: fded 94be 7918 b63d f514 74be e0ed 5fbe
000000f0: 7de4 63be 1523 97bc 87b2 003e 47c4 2fbe
00000100: eba5 b93c 9ca9 babd c8cc 42be b77b c9bb
00000110: b778 78be 148e c73d 54c1 38be a2ee 88be
00000120: cc7b eb3d 34b4 9e3d b861 3f3e 9318 77be
00000130: fd74 6b3e f9a0 093e e15d 0abe dd4f d6bd
00000140: 8a0d 7fbd 5e50 07be a35c 39be 4787 233d
00000150: 88a8 613e 4ea1 cbbd fdc0 8bbd 3692 90bd
00000160: 218f 1b3e f264 a5bd 32e8 19be 6b6e 653e
00000170: f8d3 483c 9487 d73d bab3 4a3e 7ccd 23bd
00000180: 6f1f 91bd 52ba 21be c3ff 93be 511a dbbc
00000190: 1abc 493d 66cf 3d3e 6809 92bd 6479 12be
000001a0: 9bc0 083d c99c 8f3d 2c9d 2cbe 55fc 6a3d
000001b0: c4ec 563e 0ad5 443e bf0e 883d f641 d13d
000001c0: 5639 92bd 8e24 353e f579 263e 663e c83d
000001d0: 94e1 07be ed54 1abe 23f7 203e 0ed8 3cbe
000001e0: 23ad 80bd f2ef 4abe 7f7a ddbd edcc 1fbd
000001f0: 3cef 283e 4a20 193e 12a1 14be 91f8 6ebe
00000200: 1caf 1e3e dd57 843c 010d 6c3d 7080 993e
00000210: 8507 30be cf5b ab3a 4ae4 49be e3b9 8dbe
00000220: 479a 273e 1d5b ccbd e946 2c3d c987 363e
00000230: fa68 87be 26d2 323e 3abd 36be 18ef 353e
00000240: 5718 d2bb c759 43bd db75 66be 3290 9f3c
00000250: c83b f73d b10f f3bd c79c f1bb 771c 3dbe
00000260: ce4a 53be 5878 91bd f7c2 b3bd 33a2 003e
00000270: 26bc 1dbf 7450 a03e bd6e 1d3c cb24 103e
00000280: 4a5e 1d3e d737 133e 0eb8 523e 22c8 fc3c
00000290: 3815 6cbe 5eee 74be ef68 523e 975f 24be
000002a0: 0fcb 6ebd 7303 533e 3afa dbbd 988c 45be
000002b0: 8f12 90be 2503 8f3e c8bc 4a3e 2f3c 1b3e
000002c0: 7275 8f3e 0d0b 903e 67db cf3d 3428 68bd
000002d0: 73b1 8d3e 29eb 413e 930a 7d3d d51b 0bbd
000002e0: e0d3 3fbe 4189 9b3e 9d26 8fbd 0ab1 5dbe
000002f0: 9883 49bd 9e94 d1bd 7099 3fbd b4eb 813e
00000300: a2b6 0ebe d882 ec3d 1709 d53d 6e17 81be
00000310: 76b6 acbc f728 98be a614 2f3e 3fac 59be
00000320: 7c4e 2dbe 5dca 4dbe 4c47 a7bd 3005 2fbe
00000330: e8cc a7bd e3db c3bd 78c9 b7bd 39f3 f93d
00000340: cb7f 0fbe 70d3 2a3e 1b94 80be 2cb3 7abd
00000350: 93cf 813d 946b 88be ab4f 9f3c 6afb 6e3e
00000360: 0173 193d 31c9 c638 0734 3d3d 89ac 443d
00000370: cd3d 55bc 44d6 6d3e 16a8 70bd fc64 55be
00000380: 9a7d 69bc 5d95 713e 5d8e ba3d d80e 273e
00000390: 87ca 913e fe4b 20be 7c35 2d3e 7413 34be
000003a0: 931c 393e df5b 7d3e 4b95 153e 42fc 103e
000003b0: 1aaf 7bbe 9e6d 3abe e47f 33be 80bd f03d
000003c0: d096 073e f127 e8bd d5bf 1b3a aa88 f9bd
000003d0: ae35 99bd c73b 873d d11f 1f3e 3016 9bbe
000003e0: 5e55 2e3e 41d0 863c 6899 2fbc 8214 af3d
000003f0: 0afc 4dbd 41f2 e2bc c519 6bbe 4e14 3c3e

middle_layers.0.bias f4 [40]
0.123673744 0.0581243 -0.0731165 0.055486962 -0.10586413 0.068000615 -0.19999477 0.053991478
-0.50018483 -0.014428521 0.053208314 -0.029478474 -0.10503914 0.109659076 0.10199431 0.047850262
0.1289584 0.020177793 -0.015654163 0.14263661 0.08231275 0.10081032 0.0452948 -0.0059705954
0.16130796 -0.14598519 -0.094093986 0.0008211692 -0.059644975 0.027339727 -0.040711522 -0.027630879
-0.067123264 -0.1241508 0.079058506 -0.2798115 0.15658301 -0.17489552 -0.04697153 0.0106413765
00000000: a948 fd3d bf13 6e3d 1bbe 95bd 4c46 633d
00000010: 4bcf d8bd e843 8b3d 6ecb 4cbe 2b26 5d3d
00000020: 1d0c 00bf 9a65 6cbc f6f0 593d d77c f1bc
00000030: c31e d7bd f094 e03d 65e2 d03d a3fe 433d
00000040: ac0d 043e e64b a53c 293d 80bc 550f 123e
00000050: 9693 a83d a475 ce3d 0a87 393d fca4 c3bb
00000060: ea2d 253e 247d 15be 59b4 c0bd bb43 573a
00000070: 4a4e 74bd 90f7 df3c 20c1 26bd 275a e2bc
00000080: ec77 89bd c642 febd 6de9 a13d 7443 8fbe
00000090: 4c57 203e d017 33be 3865 40bd 2b59 2e3c

layer_out.weight f4 [1, 40]
-0.29483843 0.35171023 0.14025341 0.06337844 0.105219275 -0.27387294 -0.170747 1.1101089
1.0397149 -0.25242934 -0.23783112 -0.15491436 -0.39647052 -0.13431427 -0.036791388 0.1904437
0.24426854 0.1324584 -0.339487 0.20263767 -0.32905975 0.15776058 -0.2624354 -0.18752013
-0.47016147 -0.27559075 0.34495053 0.30511907 0.18646826 -0.84065294 -0.04858806 0.36990336
-0.19106866 -0.35634917 0.20884383 -0.07646225 0.22237612 -0.16293028 -0.023531908 -0.41185814
00000000: 10f5 96be 5d13 b43e 979e 0f3e 8ecc 813d
00000010: 347d d73d 1339 8cbe 4dd8 2ebe 0c18 8e3f
00000020: 6115 853f 6b3e 81be 008a 73be dfa1 1ebe
00000030: 2ffe cabe ae89 09be 91b2 16bd ac03 433e
00000040: 8821 7a3e 2da3 073e 3dd1 adbe 4080 4f3e
00000050: 857a a8be fd8b 213e ef5d 86be 4705 40be
00000060: 01b9 f0be 3b1a 8dbe 5b9d b03e 9138 9c3e
00000070: 89f1 3e3e 0835 57bf 4604 47bd f963 bd3e
00000080: 81a7 43be 6673 b6be 28db 553e 3d98 9cbd
00000090: 91b6 633e 32d7 26be fdc5 c0bc 12df d2be
