in_model/2024-04-29 12:24:31.pth (torch, 24592 bytes, 7 tensors)

layer_in.weight f4 [50, 2]
00000000: 4e78 0fbe a408 0c3f 0427 a8bf 18d0 863f
00000010: 97cc 993e f7a6 bf3e 4339 1bbf 0486 5ebf
00000020: db9b 74bf 2334 eb3e 68b6 07bf 5b98 5e3f
00000030: a1e1 43c0 6a71 563d f707 743f e1d9 643f
00000040: 1b55 f8be 1f7a aebe e58f d93c 9451 183f
00000050: 4a53 0c3e 395f 9c3d 5104 4ec0 bc8c a3be
00000060: 09e2 ae3e a0d6 5d3e b98a e83e 3b9f e5be
00000070: 8259 17c0 405f 86be 7a7d 8240 dd58 2cbf
00000080: 0d71 f13f b482 b93e 52d1 89bf 22fe 9cbd
00000090: b13a 203f 7b5c 653e d21b 16bf 83e0 49be
000000a0: 8d7d 99bf b6db ef3e 7321 c4bd 555d 34be
000000b0: 3afb 02c0 d004 cb3e 75dd 4e3f f48b 113e
000000c0: 32d2 a63e 7f9c 63bd 8e2e 94bf 0440 463e
000000d0: 0f29 293f 234c 083d 1d34 8d3f cb63 623e
000000e0: 515b 1a40 ab9b 45bf 4ffb 8bc0 674b d6bd
000000f0: 20ed 1bbf 4baa 0d40 58b3 1e3f 22a3 2b3f
00000100: 8f76 e2bf 4b1a d1be 2c9b c03e 4683 063f
00000110: dc21 3d3f d085 9fbd 82e3 a03e a359 e33e
00000120: 92a8 8bbf 62a8 b2be 8758 1bc0 9121 52bd
00000130: 3055 3ebf aea5 a63e 7350 12c0 7e77 2a3c
00000140: 0934 e03f b1d8 023f c60e cbbe ed22 8dbe
00000150: b1b9 b03e 2bf0 273f b8f7 8d3e 150b 063e
00000160: 8c2d 8bbe d92f 8a3e 1ea4 3b3f aba3 cdbe
00000170: b8cc 533f ecf4 133f ebff bfbe 5e26 11be
00000180: 9cf5 43bf acb5 13bc c08a e03e 30d9 1f3e
-0.14010736 0.54700685 -1.3136907 1.0532255 0.30038902 0.37432072 -0.6063425 -0.8692324
-0.95550317 0.45938215 -0.53012705 0.86951226 -3.0606463 0.052354254 0.95324653 0.89394957
-0.4850243 -0.34077546 0.026557872 0.5949948 0.13703647 0.0763535 -3.2190135 -0.3194331
0.34156826 0.21663904 0.45418337 -0.44848046 -2.3648381 -0.26244545 4.077817 -0.67323095
1.8862625 0.3623253 -1.0767004 -0.076656595 0.62589556 0.2239856 -0.586362 -0.1971455
-1.199144 0.46847314 -0.095766924 -0.17613728 -2.0465837 0.3965211 0.80806667 0.14213544
0.3258224 -0.05556917 -1.1576707 0.19360358 0.66078275 0.033275735 1.1031529 0.2210838
2.4118235 -0.77190655 -4.3744273 -0.104636006 -0.609087 2.2135189 0.61992407 0.67045796
-1.7692431 -0.40840372 0.37618387 0.5254406 0.7387979 -0.077891946 0.31423575 0.44404325
-1.0910819 -0.3489409 -2.4272783 -0.051301543 -0.74348736 0.3254828 -2.2861602 0.010404466
1.751588 0.51111895 -0.3965971 -0.2756571 0.3451667 0.6560084 0.27728057 0.13090165
-0.27183187 0.2698963 0.732973 -0.4016393 0.8273425 0.57795596 -0.37499937 -0.14174792
-0.76546645 -0.009015482 0.43855858 0.15610194

layer_in.bias f4 [50]
00000000: f603 e4be 908e 123f 4a2f 57bd 3c2b 7d3f
00000010: e0ac 043d 1a19 19bd 1cc1 7d3d bd8e 6e3f
00000020: 016a 323f 1d02 01bf 9886 f43d 9c90 1340
00000030: aba6 eabe 84aa 76be eea7 903f 374a fcbf
00000040: 43ef b8be 8e69 083e 5a05 d3be 868a cfbe
00000050: 8ff3 043f 9de4 2a3f 4cf8 233e 6f8d 02bf
00000060: d2c5 6c3e e063 903e 6325 1a3e 8835 58be
00000070: a4fc 8e3d eff9 8240 2478 143f b9bd 2abf
00000080: 779b 1bbd 5fff 973e bedf fa3d 9ae0 d13e
00000090: 71bc 943f 1405 2ebe 59be e73e 28c2 813d
000000a0: 151e 02bf 50b4 dabe fff0 34bf 3585 ff3e
000000b0: 6ecb c93d 5cc3 c03d 6e90 d3be 378a c03e
000000c0: 1050 eb3e 7ca2 45bf
-0.44534272 0.57248783 -0.052535333 0.98894095 0.03239143 -0.037377454 0.06195174 0.9318655
0.69693 -0.5039385 0.11939734 2.3057013 -0.45830283 -0.24088484 1.1301248 -1.9710149
-0.36120042 0.13321516 -0.4121502 -0.40535372 0.5193414 0.66755086 0.16012686 -0.5099706
0.23122337 0.282012 0.15053324 -0.2111417 0.06981781 4.0930095 0.5799582 -0.66695744
-0.03799006 0.2968702 0.12249707 0.4099167 1.1620008 -0.16994125 0.4526241 0.063358605
-0.5082715 -0.42715693 -0.7068023 0.49906316 0.09853254 0.09412262 -0.4132113 0.3760545
0.4595952 -0.77201056

middle_layers.0.weight f4 [50, 50]
00000000: 0d24 923e fb90 2b3e 0727 b6bd e1cb a2be
00000010: 0a46 f23e 5620 083f d7e6 d93e 097c 02bd
00000020: bb85 07bc ee4d b23e 344d 813d 580e 703e
00000030: e8d3 0d3e 1b9c df3d 950d 6bbd a2ae 99be
00000040: 5082 89be 778f ce3e 93cb 863e 50f1 703e
00000050: 3ad9 4fbe 5816 dd3d 77c1 ec3d 1e52 823d
00000060: ce2d d4be 73fc 8f3e e97f acbe 5875 703d
00000070: 810b fdbf 1ea6 82bb 25fe ab3d 91d9 c33e
00000080: 04c7 d93e 5075 bdbd 07af d6be ef49 94be
00000090: dbd9 24be 7b32 643f e7c5 4abe 4b85 3b3f
000000a0: 3df4 1e3d ea54 4b3d 08f0 743e 837d 9ebe
000000b0: 8f26 213e 9eed d7be a309 9a3e 2ee8 67be
000000c0: 1f5a 69be 1777 963e 52a3 53be 28e6 81bd
000000d0: 0ba3 3a3d c129 e63d 5963 1a3e 0f9c 893d
000000e0: 9fb1 9bbe 9a01 373e 0974 a13d a050 69be
000000f0: bf6a 843d a073 45be 981d b13d 9089 c43d
00000100: 5696 db3b f586 123e 8f4f c73e 3b87 e1bb
00000110: eb9e 32be f8af 34bd 7491 5dba 7715 783e
00000120: 304b 3abe 1b3a 213d 2f2c a93d 30be 083d
00000130: 084c 0e3e 5048 d13d 494b 933e 9265 ddbd
00000140: b8a7 d2bd 1477 a9bd f480 00bf c18a ae3e
00000150: 773e 203d 37fd a03e 8a70 ba3e 2e43 6bbe
00000160: c278 a53e baf9 cabe b303 c43e be03 95be
00000170: 020b 74be 6c69 233d 50e8 babd e785 0d3e
00000180: 4d45 a5bc a1e6 7a3e cd65 983d a443 68be
00000190: eeb1 603d cf8a 2d3e d560 83be 8b9b 033f
000001a0: 6c26 8f3f a7c5 0ebe fa8f 4e3f e9cd 0a3e
000001b0: c54f f43d d57a 9ebe a2f4 e7bd 82d4 2340
000001c0: 86c4 13be ca1d c03d 9395 1d40 68ff 17c0
000001d0: cb22 15bf 56ae 993f 1f40 70bf 4bc2 6c3d
000001e0: 1a19 733e 09fb 3cbe fa60 c33e 1f0c 62be
000001f0: 2a65 98bd c420 2840 c30f fdbb 518e 15bf
00000200: fdee 0cc0 ad09 5a40 46b7 82be ef85 0fbf
00000210: ad3d 3a3f 9f28 39bd e768 78be e3a8 cabd
00000220: 5425 113e cd70 163f 0572 c43c cb66 0a3f
00000230: bfce 70bf 2e84 623e 659a d3bd 1b75 e0bd
00000240: 2b41 9cbe b3b0 6bbf 1192 2ac0 dfd5 2e3e
00000250: 6856 a13e 23e5 2fbd c3dc ce3b f156 993d
00000260: 09be 063e 425b 373e aca8 0cbb f336 ff3d
00000270: 047a 07bf 3556 503d c3b9 d73d 633f 76be
00000280: f722 503e 29f9 85be d260 67bd b50e 8b3d
00000290: fb33 59bf ab53 d33e 0b82 153f 0ea8 b5be
000002a0: 5e0d 293e 4fe7 72be 7a96 e7bd f004 bc3d
000002b0: d11f 07be 1839 07be ce79 413e a0fd 293d
000002c0: c040 a03d 6b24 9f3e e8d4 ae3e 8427 cb3d
000002d0: 766e 553e 15cc b53c 98db 4bbf 60c4 383e
000002e0: 204e b13d 693d 543e 227f 8d3e d081 24bf
000002f0: 7479 23bd 17e5 51bf 146a 303f aa84 2ebe
00000300: 0cb4 073e b105 d2bd 3a68 23be 0f57 853e
00000310: 50ed 0a3e 3810 423e 462e da3d 9979 7fbd
00000320: 84bf 97bd 0502 a8bd cabe edbd 8ed8 433e
00000330: 37d0 d9bd 4d89 24bf e956 743d 1dea 4dbe
00000340: 615a 863e d186 553d 27c7 45be 7455 9abe
00000350: ff62 6fbe 0554 773e 22a5 0bbd 70d7 2e3e
00000360: 20d2 a33d 0268 22be 6576 c1be 68b2 98bd
00000370: b7b0 f1be 8cdb aabd 6aeb 9bbe da5e d83d
00000380: cbc5 99bd 143f c5bd f028 963c 9df1 4e3d
00000390: 7daf db3e bc5f f7be 2184 c83c 86ed abbe
000003a0: b19c 2d3e cadd 12be abb8 09be 1929 e73b
000003b0: 617d 8dbd 3b50 8ebc 9d27 9fbe dc9e 00be
000003c0: 698d e73d 80b8 2fbd bc2d 8e3c e5f9 5a3e
000003d0: 9fd5 74be bd00 fd3d 2870 7bbe 82f1 673e
000003e0: 7e9e ef3d b501 1dbc 473b 993d df49 2dbe
000003f0: 77f5 b03e 847d a0be 2b8c 24bf 13e5 2cbf
0.2854313 0.16754524 -0.088941626 -0.31796172 0.4731906 0.5317434 0.4255893 -0.03185657
-0.00827163 0.3482508 0.063135535 0.23442972 0.13850367 0.10918447 -0.057386 -0.30016047
-0.26857233 0.4034383 0.2632719 0.23529553 -0.20297709 0.10795277 0.11560338 0.06363319
-0.41441196 0.2812229 -0.33691338 0.058705658 -1.9769136 -0.003987088 0.083980836 0.38251927
0.4253465 -0.09250891 -0.4193041 -0.28962657 -0.1609873 0.8913953 -0.19802056 0.73250264
0.038807143 0.049641527 0.2391969 -0.30955133 0.15737365 -0.42173475 0.30085477 -0.22647163
-0.22788285 0.29387733 -0.2066777 -0.06342727 0.045565646 0.11238433 0.1507696 0.06719219
-0.30408952 0.17871705 0.0788346 -0.22784662 0.06465673 -0.19282389 0.08648223 0.095965505
0.006701271 0.14309295 0.38927886 -0.006882576 -0.17443435 -0.04411313 -0.0008452155 0.24226938
-0.18192744 0.039362054 0.082603805 0.033384502 0.13896191 0.10218871 0.28768376 -0.108103886
-0.10285896 -0.082746655 -0.50196767 0.34090236 0.03912207 0.31443188 0.36413985 -0.22974846
0.32318693 -0.3964365 0.38284072 -0.29104418 -0.23832324 0.03989546 -0.09126341 0.13820611
-0.020174647 0.2450204 0.07441292 -0.22682053 0.054857187 0.16947483 -0.25659814 0.51409215
1.11836 -0.13942586 0.8068844 0.13555111 0.11929277 -0.30953088 -0.11325957 2.5598454
-0.14430436 0.09380682 2.4622543 -2.3749638 -0.58256215 1.2006328 -0.9384784 0.05780248
0.23740044 -0.18455137 0.38159925 -0.22074936 -0.074411705 2.6269999 -0.007722826 -0.5842028
-2.2020867 3.4068406 -0.25530452 -0.5606374 0.7275036 -0.045204755 -0.24258767 -0.09895494
0.14174396 0.5876587 0.02398015 0.540631 -0.9406547 0.22120735 -0.10332183 -0.10959836
-0.3051847 -0.92066497 -2.6651652 0.17073773 0.31511235 -0.04294313 0.006312938 0.07487286
0.1315843 0.17905906 -0.002146284 0.124616526 -0.52920556 0.050863463 0.10533478 -0.24047618
0.20325838 -0.26166657 -0.05648882 0.067899145 -0.8484494 0.4127477 0.58401555 -0.35479778
0.16509005 -0.2372105 -0.11307998 0.09180629 -0.13195731 -0.13205373 0.18894121 0.04150164
0.0782485 0.31082472 0.3414681 0.099196464 0.20842919 0.02219204 -0.7963195 0.18043661
0.08657479 0.20726551 0.27636057 -0.6426058 -0.03991075 -0.8199019 0.6891186 -0.17042795
0.13252276 -0.10254992 -0.15957728 0.26042983 0.1356709 0.189515 0.10653357 -0.062371824
-0.074095756 -0.0820351 -0.11608656 0.19125578 -0.10635417 -0.64272004 0.059653196 -0.20108838
0.2624083 0.052130524 -0.19314252 -0.3014332 -0.23377608 0.24153145 -0.03409303 0.1707437
0.079990625 -0.15859988 -0.3778564 -0.07455903 -0.47205135 -0.083426565 -0.30453044 0.105649665
-0.07508429 -0.09631172 0.018330067 0.05052339 0.42907324 -0.48315227 0.024477066 -0.33579654
0.16954304 -0.14342418 -0.13449351 0.00705446 -0.0690868 -0.017372241 -0.3108491 -0.125606
0.11306269 -0.042900562 0.017355792 0.2138439 -0.23909615 0.123536564 -0.24554503 0.22650722
0.11700152 -0.0095829265 0.074820094 -0.16922711 0.34562275 -0.3134576 -0.6427638 -0.6753704

middle_layers.0.bias f4 [50]
00000000: b88b 7ebd ba4b 793e 4899 acbd ee9a 26bd
00000010: d3c4 7ebd 9ca4 773d 9682 6f3d 54a9 0dbd
00000020: 0126 d0be dfac b53d 77f6 65bd 1d40 b43d
00000030: 9217 743d d51b debd b085 543e ee03 263d
00000040: 0aff 003e ece6 87bd efd9 78be 7c31 353d
00000050: c1fb 8dbd 8326 d23c a04d c6bd 9101 03be
00000060: 260d 17bb dab2 073d fd1f afbd 5414 623e
00000070: 8d80 0f3e 7b04 7dbe e5c6 493e 53fa 983c
00000080: 9b7d f6bb be12 1ebc f0fa a3ba 9dd0 9e3d
00000090: 7148 0c3b 8e63 443e 097e dabc 6c71 f43d
000000a0: 9ce2 253e 0a47 9b3d 3720 71bd 98c1 24bd
000000b0: ee29 27be 3512 3c3e 9250 4d3e d7e8 cebe
000000c0: ded1 b7bd 969f 5e3d
-0.062144965 0.24345294 -0.084276736 -0.040675096 -0.062199425 0.060459718 0.058474146 -0.034585312
-0.40653995 0.08870863 -0.05614325 0.08801291 0.05959279 -0.10845152 0.20754123 0.04053109
0.1259729 -0.06635842 -0.24301885 0.044236645 -0.06932784 0.02565313 -0.096827745 -0.12793566
-0.0023048609 0.03312955 -0.08551023 0.22078067 0.14013882 -0.2470874 0.19704778 0.018674051
-0.0075222976 -0.009648023 -0.0012510698 0.077546336 0.0021405483 0.19178602 -0.026671426 0.11935696
0.16199726 0.07581909 -0.058868613 -0.040223688 -0.16324589 0.1836632 0.20050266 -0.40412018
-0.08975576 0.05435141

middle_layers.1.weight f4 [50, 50]
00000000: d8ae 40be 83c5 49be 7a04 bb3b 9299 723e
00000010: 13df b63e 04e3 2abe da81 66be d9ab 84bd
00000020: fadf 943d 09aa b03d 12b3 1c3e a1cc 10be
00000030: 73c6 0abe f7d9 84bd 7c43 23bc 35a5 01bd
00000040: a4f6 9e3e 21b2 c83e 2856 2b3e c8e1 353e
00000050: 581c 7abf 5924 5e3e 2e9e c63d 5ff8 0fbe
00000060: 91f6 81be d8b7 61be 1002 333e a94d 273d
00000070: 3c6c 49be c47c 573e ea85 3a3e 0f41 abbe
00000080: d3ca b7bc 4a4a 093e 0578 4f3e 7002 733e
00000090: d693 95bd 3cee 4fbe 0952 ca3e 1d7a 33bd
000000a0: 6300 bfbe eba3 7abd b88f 3cbe 9fc8 053e
000000b0: 882f 76bf 73c0 2dbe e0a5 21bd 1582 0dbe
000000c0: 1c55 c03e 1cea 50bd f0fc 37be 4e77 a83c
000000d0: 9596 943e a278 2dbd 8df5 2b3d 3206 4dbf
000000e0: 1d8b 84be 0bc7 3dbe 8c62 293e 3787 a3bd
000000f0: efe6 74be e8d5 e8bd c9ce aabe 22fb 573e
00000100: 735d c4bc b6a9 0c3e d368 783e ee75 f83e
00000110: 688d c83d 114c 4fbe 954c fbbe 365b 873e
00000120: b42d 4e3e 54aa 95bd c94a bb3b 1445 433e
00000130: 529c 863e a646 abbc 7550 6f3e 5a0c 50be
00000140: 8ef8 a83d 08ed 2bbe b978 91be b3a4 22be
00000150: 027b 02be a62f 26bd cfe9 4d3c 037d 573e
00000160: 31f4 833e db9f 1abd 714b f93d 419d 46be
00000170: be71 273e 52dd 92bd 91dd f1bd ae49 36be
00000180: 3b79 97be d572 c4be 0102 9c3d 2c07 553e
00000190: 6261 dd3d 80a1 843d 16ae 203c dc94 1bbe
000001a0: 784d c3bd aa17 a4bd 18ff f7bd 7ef1 cebd
000001b0: fad9 dc3c df89 ae3d 5941 4abd 6f79 b8bd
000001c0: 2c06 623e a57b 8d3e 15cc bebd 8c45 4cbe
000001d0: d84d e03d f6ee 973d 0776 0a3e bb23 f63c
000001e0: 29ef 5fbe af1a 113e 97ef 723d 0100 30be
000001f0: 0605 333c ba45 1c3e 40ac 16be 19af 843d
00000200: b7b8 37be 0362 96bd 1ff8 cf3d b297 203c
00000210: adbb 013e d9dc fdbd a3f6 623e ba8a 38bd
00000220: 9bfa 373e 7f12 e2bd 9823 d8bd 9803 96be
00000230: 9cd2 10bf 0b93 223d 157a 773d 28c5 793c
00000240: e5a1 12bd 47aa f13d ab3f cdbd d599 a23f
00000250: 5584 1abe ba0f 363d 3eb6 a53d 756e 023e
00000260: c74a ecbe 4967 4ebe eb34 acbe 627c 303f
00000270: 2d70 dd3e 203c 563d 2db1 88bd dc1c 6e3e
00000280: 3cc0 4f3d eb2c 233e 5e5b 463e a437 d7bd
00000290: 2af8 213e 2f19 1abe ef74 97be 86ed 1fbe
000002a0: 5ee1 03bc 1285 443e f8b4 193f 8f1c 0c3d
000002b0: eac1 063d 8bf8 943c 4f06 843e 7439 803e
000002c0: 217a 16be 3177 66be f786 b9bd 8fb5 5f3d
000002d0: 57ec 183e e7e3 2c3d c050 6d38 8fbd d93d
000002e0: 236e 3b3e a7de 8fbc a44a 1dbe 050f 4b3d
000002f0: e7ce 23bf 509f 66be 28be 3a3e 0c03 263e
00000300: 808a 183e cbe1 74be 93f3 343f 9a53 4d3e
00000310: 163e 703e 45de 353f 70ce 9ebe 164c 23be
00000320: e050 37be 74e5 ec3d ae35 043e 601f 59be
00000330: bdd3 083e 2bc5 37be 6b74 9d3e e62c c5bd
00000340: 2794 41bd f3da 83bc e530 2fbe 9314 5ebc
00000350: 9b1b 553e fcfc 05be 050c a2bd 7cbf b6be
00000360: d92e 98bd 21ed dc3e a40e 613e a66d 65be
00000370: ba36 36bd 7966 073e 3661 81bf dfd4 903c
00000380: 76b8 703b 54e2 22bd a72f 813d 484d 1fbe
00000390: 8ee2 543e bf0b b63d 7a29 423e 1e64 d4be
000003a0: f2f1 d1bd e692 7cbe 9721 853d 41fd 1abd
000003b0: 0843 31be b52c ec3b 685a c9bd 30f5 9abe
000003c0: 18a0 64bd 5bc4 72be 581e 7f3f e6e4 903e
000003d0: 7abe 81be 364b 8cbe 2b82 b1be df73 a63b
000003e0: 5e11 10be 87c7 623e b4aa fc3c 280c 693e
000003f0: de32 86bc 97b1 86bd 8db7 07be 818b b0be
-0.18816698 -0.19704251 0.0057073208 0.23691395 0.35717067 -0.16688162 -0.22510472 -0.0647809
0.07269283 0.08626182 0.15302685 -0.1414056 -0.13552265 -0.06486886 -0.00996482 -0.031651694
0.31047547 0.39198402 0.16732085 0.1776191 -0.976995 0.21693553 0.09698139 -0.1405959
-0.25383428 -0.22042787 0.17481256 0.040845547 -0.19670194 0.21043688 0.18215147 -0.33448073
-0.022435581 0.13407245 0.20260628 0.23731399 -0.07303588 -0.20305723 0.39515713 -0.04381763
-0.37304983 -0.06119148 -0.184142 0.13064812 -0.96166277 -0.16967945 -0.03946483 -0.13819154
0.37564933 -0.051004514 -0.17967582 0.020564701 0.29021135 -0.042351373 0.041982222 -0.8008758
-0.25887385 -0.1853296 0.16541499 -0.079847746 -0.23916219 -0.113689244 -0.3336089 0.21091893
-0.023970341 0.13736615 0.24258737 0.48527473 0.09792596 -0.20243861 -0.49081865 0.26436776
0.20134622 -0.07307878 0.005715702 0.1906932 0.26291138 -0.020907711 0.23370536 -0.20317212
0.08250533 -0.16789639 -0.28412417 -0.1588314 -0.12742236 -0.040572785 0.012567951 0.21043782
0.2577224 -0.037750106 0.121725924 -0.19395925 0.16351983 -0.0717112 -0.118098386 -0.17801544
-0.2958468 -0.3836886 0.0761757 0.20803517 0.1080959 0.06476116 0.00980713 -0.15193504
-0.0953626 -0.08012326 -0.12109202 -0.10104655 0.026959408 0.085223906 -0.049378727 -0.090075366
0.22072667 0.27633396 -0.09316269 -0.19948405 0.109523475 0.07418625 0.13521586 0.030046334
-0.21868576 0.14170335 0.059310522 -0.17187501 0.010926491 0.15260974 -0.14714146 0.0647871
-0.17941557 -0.07342913 0.10154747 0.009801792 0.12669249 -0.12395639 0.22164397 -0.045054175
0.17966692 -0.11038684 -0.10553664 -0.29299617 -0.56571364 0.039691012 0.06041916 0.01524476
-0.035798926 0.11800056 -0.10021909 1.2703196 -0.15089543 0.04444859 0.080914006 0.12737449
-0.461508 -0.20156588 -0.33634123 0.68939793 0.43249646 0.052303433 -0.066744186 0.23253196
0.05072044 0.15935104 0.19370791 -0.105086595 0.15817323 -0.1504867 -0.295814 -0.15617952
-0.008049337 0.19191387 0.6004176 0.034206923 0.032899775 0.01818492 0.25786063 0.25043833
-0.14695026 -0.22506405 -0.090589456 0.054616507 0.14933906 0.042209532 5.6580408e-05 0.106318586
0.18303733 -0.017562224 -0.15360504 0.04957487 -0.6398758 -0.2252171 0.18236601 0.162121
0.14896584 -0.23914258 0.70684165 0.20051423 0.23461184 0.7104228 -0.31016874 -0.15946993
-0.17901945 0.11567202 0.12911102 -0.21203375 0.13362022 -0.17946307 0.30752882 -0.09627704
-0.04726043 -0.016095614 -0.17108496 -0.01355471 0.20811312 -0.13084787 -0.07912449 -0.35692966
-0.074308105 0.43149665 0.21978241 -0.22405109 -0.044485785 0.13222684 -1.0107791 0.01767963
0.003673104 -0.039766625 0.06307917 -0.15556824 0.20789549 0.08888959 0.18961135 -0.41482633
-0.102512255 -0.24665412 0.065005474 -0.037839178 -0.17310727 0.007207478 -0.09831697 -0.30265188
-0.05581674 -0.23707716 0.99655676 0.28299636 -0.25340635 -0.2740113 -0.34669623 0.005079731
-0.14069125 0.22146426 0.030843116 0.22758543 -0.016381677 -0.06576841 -0.13253613 -0.34481433

middle_layers.1.bias f4 [50]
00000000: 585f 05bc f3fd f73d 76d5 a9bd 0ec2 1f3e
00000010: f411 e73d c7df 803d 4fc2 19be 19ec 37bc
00000020: 7cfd 04be 14f8 26bd 2d10 00be c6c2 f13d
00000030: ad52 71bd 1af7 d7bd 27df 7c3c a55c f2bd
00000040: 189a 93bd e4b2 66be 522d a23d 1817 55bc
00000050: 5dcb b5bd 5b1c 27bd 6c0c 11be ed81 cfbd
00000060: 6c31 f1bd 7688 40bd b5c3 ffbd 915b b3bd
00000070: 72d0 a63c 42d0 d03d 08be ed3c f6fa 09be
00000080: 8b5e fabc 500f afbd ca4e 30bd ee80 a43d
00000090: 7535 f439 f9fe 2a3d 9e19 07be b2a9 74be
000000a0: d38f 8abd 61c1 f53c 79e5 443e 9e14 20bd
000000b0: f750 e3bd 6086 5d3d 8ec1 05be 55b0 f5bd
000000c0: fe98 24bd 2301 cc3c
-0.0081404075 0.12108984 -0.082926676 0.1560137 0.11282721 0.06292682 -0.15015529 -0.011225724
-0.12987322 -0.04076393 -0.1250617 0.11804728 -0.058916736 -0.10545178 0.015434063 -0.11834077
-0.072071254 -0.22529179 0.079188004 -0.013005994 -0.08876679 -0.040798526 -0.14164895 -0.10132203
-0.117770046 -0.04700514 -0.124885 -0.08757699 0.020363066 0.10195972 0.029021278 -0.1347464
-0.03056266 -0.085478425 -0.04304389 0.08032404 0.00046579135 0.041747067 -0.13193366 -0.23892859
-0.067657135 0.029999437 0.19228162 -0.039082162 -0.11099427 0.054083228 -0.13062117 -0.11996523
-0.040184967 0.024902886

layer_out.weight f4 [1, 50]
00000000: 9fd9 2abf b4a9 bcbe 7744 5cbe abe5 423f
00000010: c127 0c3f 37c0 9dbd 1e31 dfbd aeb8 0b3f
00000020: ab5f c73e e006 b3bf 1f1e 1b3f 75e2 3cbe
00000030: 85a7 ef3e 0dff 5dbe 3c75 43be 23fd a6be
00000040: 1ecf 46bf 0a4e 72bf 285a 6e3f 0b8f 62be
00000050: 2992 ab3e a3b5 ccbe 9a85 85be c383 85be
00000060: 666b ffbe 3faa 0f3f 3dee 8abf c32b 7bbe
00000070: cfe1 a73e 09e5 e6be 77f7 943c e8fe 57be
00000080: e4b0 6f3e b367 023e 16f5 8fbf eb6c 09bf
00000090: 5cdf 94bf 24dd d03e 6d65 10bf 97c5 5f3e
000000a0: 447d ec3e 3ee3 6a3e 24ff 18bf d3d4 b33e
000000b0: 2bab dcbe ecc4 ca3e 4892 d63e 29d8 543e
000000c0: fdd8 a0be ce38 9a3d
-0.66738313 -0.36848223 -0.21510492 0.76131696 0.5474816 -0.07702678 -0.1089804 0.54578674
0.38940176 -1.3986473 0.60592836 -0.18445762 0.46807495 -0.21679325 -0.1908769 -0.32615003
-0.77659786 -0.9465033 0.9310632 -0.22124879 0.3350995 -0.39982328 -0.26078492 -0.2607709
-0.49886626 0.5611915 -1.0853955 -0.24528413 0.32789466 -0.45096615 0.018184407 -0.21093333
0.23407322 0.1273487 -1.1246669 -0.5368182 -1.1630664 0.40793717 -0.56404763 0.21852718
0.4618932 0.22938249 -0.59764314 0.3512331 -0.4309934 0.39603364 0.4190848 0.20785584
-0.3141555 0.07530366
