in_model/2024-04-27 15:54:33.pth (torch, 24592 bytes, 7 tensors)

layer_in.weight f4 [50, 2]
5.270563 -0.9899796 2.316977 0.02566611 -1.5885122 -0.48895115 1.2827486 0.75327957
-0.34475148 0.49890482 -2.3006425 0.6326223 -0.5533655 0.08756465 0.8741472 0.743546
-0.080367796 -0.663013 1.1169757 -0.06458854 -0.9686586 -0.87392575 0.915896 -0.021104185
-0.26711586 -0.13119155 0.932689 0.6524758 -0.6411563 -0.28867114 1.0200621 -0.49211463
1.8400685 -1.6337644 3.7748628 -0.7478308 0.172305 -0.06211678 2.3974543 -0.48895553
0.047822576 0.14494403 -0.3422635 0.6157669 -1.6555473 -0.43070543 1.207829 0.17490098
1.0447941 -0.38282415 -0.4213009 -0.4591859 1.1214556 -0.36858147 -1.4129766 -0.47184652
-0.22673874 -0.16314259 2.1458356 0.33660883 -2.3789744 0.20715606 -0.81179446 0.12966919
0.16114828 0.21182112 -0.12970205 -0.69257873 -0.0037905904 0.47765052 1.215444 -0.3958903
0.41780263 0.17669894 1.6552246 -0.4515642 -0.62002146 0.6472587 -0.8397554 -0.3973406
0.7158958 -0.3808435 -0.7351942 -1.2535567 -0.98304015 -0.49919036 1.4120563 0.17631179
-1.6780468 0.32312295 0.0028055848 -0.48747626 -2.260013 -0.18236783 -1.4927152 -0.6290951
1.7267302 0.35742298 3.518937 -0.6029579
00000000: 74a8 a840 4e6f 7dbf 5a49 1440 bc41 d23c
00000010: 5e54 cbbf ce57 fabe 1b31 a43f eed6 403f
00000020: 4483 b0be 7470 ff3e ba3d 13c0 89f3 213f
00000030: 5da9 0dbf 1855 b33d 1cc8 5f3f 0859 3e3f
00000040: df97 a4bd 38bb 29bf 0ff9 8e3f ff46 84bd
00000050: 03fa 77bf 99b9 5fbf 2978 6a3f afe2 acbc
00000060: 69c3 88be 1457 06be b5c4 6e3f a708 273f
00000070: d222 24bf b4cc 93be 6591 823f 73f6 fbbe
00000080: 5d87 eb3f 311f d1bf 5a97 7140 d771 3fbf
00000090: b970 303e 2a6e 7ebd e46f 1940 6158 fabe
000000a0: 9be1 433d 356c 143e 293d afbe e6a2 1d3f
000000b0: f9e8 d3bf 6c85 dcbe 249a 9a3f 3e19 333e
000000c0: d0bb 853f 8701 c4be c0b4 d7be 6a1a ebbe
000000d0: db8b 8f3f b6b6 bcbe 6bdc b4bf de95 f1be
000000e0: 332e 68be da0e 27be 5f55 0940 fe57 ac3e
000000f0: 1e41 18c0 b820 543e c3d1 4fbf 00c8 043e
00000100: 0e04 253e a3e7 583e 9dd0 04be d74c 31bf
00000110: 8e6b 78bb 9c8e f43e ab93 9b3f 22b2 cabe
00000120: 3aea d53e 91f0 343e 66de d33f 6c33 e7be
00000130: bab9 1ebf bfb2 253f 36fa 56bf 3a70 cbbe
00000140: f244 373f ebfd c2be b035 3cbf 8c74 a0bf
00000150: 85a8 7bbf e195 ffbe 43be b43f 148b 343e
00000160: 3dca d6bf 5f70 a53e e7dd 373b 7d96 f9be
00000170: 0ea4 10c0 a2be 3abe 4b11 bfbf 600c 21bf
00000180: 7f05 dd3f 2500 b73e 4436 6140 735b 1abf

layer_in.bias f4 [50]
-2.4222329 0.37151697 1.6332927 0.9969572 0.5637323 1.6415904 -0.52742684 -0.8136396
-0.12010818 0.5053558 1.085992 -0.19572112 -0.6484553 -0.7450483 0.4456597 -0.6825698
-0.7089347 -1.5365068 0.7698384 -1.1374916 0.45495698 0.44131488 1.3545895 -1.0142366
-0.846201 -0.50782233 0.4341202 1.0096188 0.40201214 -1.5961792 0.6579244 0.50761324
1.2342944 -1.0592359 0.74161667 -0.86650646 0.7965474 0.30364424 -0.56144303 0.036944628
0.22874689 1.1570786 -0.47413328 0.68212986 1.3369279 -0.7320166 0.42660874 -0.33384454
0.0018646505 -0.53164417
00000000: dd05 1bc0 7937 be3e bc0f d13f 9638 7f3f
00000010: c350 103f a21f d23f 7205 07bf af4a 50bf
00000020: 47fb f5bd ff5e 013f c901 8b3f 1e6b 48be
00000030: 2b01 26bf 7cbb 3ebf 822d e43e e5bc 2ebf
00000040: bf7c 35bf 41ac c4bf 2114 453f 5399 91bf
00000050: 1ff0 e83e 06f4 e13e 3063 ad3f 81d2 81bf
00000060: a1a0 58bf a500 02bf 0145 de3e 303b 813f
00000070: 89d4 cd3e 9a4f ccbf bc6d 283f f1f2 013f
00000080: 5cfd 9d3f 0b95 87bf 97da 3d3f 5ed3 5dbf
00000090: 88ea 4b3f 4277 9b3e bbba 0fbf 4053 173d
000000a0: a03c 6a3e 271b 943f 99c1 f2be 10a0 2e3f
000000b0: 7420 ab3f 7165 3bbf 766c da3e aced aabe
000000c0: 4a67 f43a d519 08bf

middle_layers.0.weight f4 [50, 50]
2.0295274 2.541157 -0.26110923 1.069445 0.54643726 -0.16360721 -0.7798529 0.24191763
-0.6049681 0.7115359 0.023059828 2.3271508 -0.320521 1.462028 -0.8300693 -0.36698288
-0.15149201 1.384704 0.31441173 1.2432926 0.21585742 0.45048648 -2.1005743 -0.03432505
-0.26875272 -0.45173204 1.0807465 -1.7959577 0.7072911 0.6280654 -2.2478445 0.44966948
0.62717634 -0.3810064 0.49866155 -0.09262738 0.3916131 1.3421481 -0.00990255 -1.5342084
0.6522705 0.22618313 -0.8435717 0.870852 0.3176117 -0.60814375 -0.88778275 -1.4217522
1.7937212 0.8343357 1.1294367 0.49206546 0.11552286 0.04293815 -0.19558008 0.07117306
-0.060265735 -0.09756495 0.2684886 0.0046702423 0.24400586 0.23016804 -0.037252303 0.22400318
0.07754631 0.14739327 0.14446774 0.6510102 0.09616064 0.24116483 -0.12552471 -0.10632722
-0.5448418 -0.13271286 0.10720157 0.05749646 0.51100355 -0.5334413 -0.18974099 0.044115968
-1.0372648 -0.0065825367 0.19342662 0.11374473 -0.12440849 -0.19229822 0.05158354 0.47908399
0.03501974 -0.00691646 0.327675 0.21156652 -0.022738399 0.31429365 -0.21920298 0.07702293
-0.61105067 -0.12000234 0.39142674 0.23765396 -0.77498287 -0.59764487 0.42994142 0.06023893
-0.10445332 -0.0035390584 0.14714944 -0.5004748 0.12848079 0.0051476015 0.66347027 -0.743218
0.106681176 -1.4773442 0.32566798 -0.14609404 0.16158181 -0.45636022 0.117091075 -0.66945374
0.023738232 -0.03200231 1.2732985 -0.39672288 0.18093337 0.24038349 0.077437244 1.1884537
-0.124250926 -0.87939435 0.68107885 0.04382877 0.050299015 -0.06666503 -0.1573062 0.23072752
-0.038922325 -0.12644136 -0.22322439 0.78859746 0.04406408 0.4743355 0.30487245 -0.3456645
0.25962114 0.05856915 1.0805552 0.18213879 -0.7076257 -0.4864284 -0.7742586 -0.47844496
0.28379247 -0.32525072 -0.052805852 -0.062361367 0.08822519 -0.41013545 0.054565717 -0.44244865
0.40128133 -0.74098057 -0.047998566 -1.1857 0.49892914 0.11286063 -0.40522483 -0.68393254
0.039382447 -0.30963805 -0.27356148 -0.06458732 0.97301036 -0.033740867 -0.008932951 0.23626417
-0.60442 1.5971255 -0.27570993 -0.47583577 1.1819676 0.12526457 -0.01023499 0.1746694
-0.22438142 -0.25729164 -0.077096246 -0.44255668 0.3323532 0.7954186 -0.14806361 0.02871872
0.11420471 -0.27072406 -0.015661474 -0.020098282 1.0036528 0.65539193 -0.34030047 -0.5171428
-0.05192281 -0.45337772 -0.22977042 0.10402997 -0.054897223 -0.18546344 0.07378902 -0.0057847667
0.17365262 0.08697637 0.052537728 -0.27781993 -0.096424796 -0.22941469 -0.20385544 -0.13274276
0.11334369 -0.073495045 -0.16795705 -0.18409097 -0.19291702 0.13567396 0.32536957 0.08963681
0.07917976 0.008089771 -0.2680152 0.08168373 -0.06380424 0.0786999 0.027562538 -0.16769001
-0.11247311 0.22378074 -0.14622745 0.04637581 -0.1394003 0.0071731647 0.09805906 0.09565464
0.049101792 -0.051601835 0.14455685 -0.15527909 0.006606089 0.01108073 -0.08886699 0.12148257
-0.11462675 -0.17813197 0.48586726 0.035759192 -0.12583853 0.15892221 0.15366817 0.057824083
00000000: c7e3 0140 51a2 2240 1cb0 85be 93e3 883f
00000010: 50e3 0b3f a688 27be 71a4 47bf 41b9 773e
00000020: 30df 1abf 3727 363f f7e7 bc3c 0af0 1440
00000030: 541b a4be bc23 bb3f 6c7f 54bf 2ee5 bbbe
00000040: b920 1bbe fb3d b13f 93fa a03e 3624 9f3f
00000050: ba09 5d3e 2aa6 e63e cf6f 06c0 6c98 0cbd
00000060: f599 89be 6c49 e7be e755 8a3f f1e1 e5bf
00000070: 0811 353f e5c8 203f afdc 0fc0 143b e63e
00000080: a18e 203f 4513 c3be 9150 ff3e 6cb3 bdbd
00000090: 8381 c83e 82cb ab3f 4e3e 22bc f160 c4bf
000000a0: 33fb 263f 8d9c 673e 51f4 57bf 28f0 5e3f
000000b0: 009e a23e 4faf 1bbf bb45 63bf fafb b5bf
000000c0: a898 e53f 0697 553f 6291 903f 01f0 fb3e
000000d0: 4097 ec3d eadf 2f3d 2546 48be 2ec3 913d
000000e0: 34d9 76bd 22d0 c7bd 5677 893e d508 993b
000000f0: acdc 793e 2cb1 6b3e df95 18bd 1761 653e
00000100: 9ad0 9e3d 43ee 163e 5aef 133e 9ba8 263f
00000110: dfef c43d eaf3 763e 8d89 00be 16c2 d9bd
00000120: c17a 0bbf e1e5 07be 7f8c db3d 6881 6b3d
00000130: 21d1 023f 9c8f 08bf 764b 42be f2b2 343d
00000140: 18c5 84bf 52b2 d7bb a111 463e fff2 e83d
00000150: e1c9 febd d3e9 44be 4349 533d 7f4a f53e
00000160: dc70 0f3d 79a3 e2bb 05c5 a73e e5a4 583e
00000170: e145 babc 19eb a03e bf76 60be 33be 9d3d
00000180: d16d 1cbf c9c3 f5bd 1669 c83e 8f5b 733e
00000190: 4765 46bf 41ff 18bf 4821 dc3e 19bd 763d
000001a0: 9feb d5bd 8cef 67bb 58ae 163e 1e1f 00bf
000001b0: 7890 033e 36ad a83b 30d9 293f 8943 3ebf
000001c0: a97b da3d 9d19 bdbf f4bd a63e ad99 15be
000001d0: b475 253e 0ca8 e9be 72cd ef3d 5261 2bbf
000001e0: ae76 c23c db14 03bd 72fb a23f 431f cbbe
000001f0: 9946 393e 1727 763e 6b97 9e3d 401f 983f
00000200: 4577 febd fd1f 61bf 2f5b 2e3f cc85 333d
00000210: 5706 4e3d ad87 88bd e014 21be d643 6c3e
00000220: 046d 1fbd d879 01be ef94 64be 86e1 493f
00000230: 897c 343d 1adc f23e 3e18 9c3e f0fa b0be
00000240: 10ed 843e 34e6 6f3d a24f 8a3f 9782 3a3e
00000250: f526 35bf 250d f9be d035 46bf bdf6 f4be
00000260: 3f4d 913e 4387 a6be f34a 58bd a26e 7fbd
00000270: 69af b43d 46fd d1be 4d80 5f3d a188 e2be
00000280: bf74 cd3e e7b0 3dbf 259a 44bd 05c5 97bf
00000290: a473 ff3e 7923 e73d a179 cfbe 3416 2fbf
000002a0: 7d4f 213d e188 9ebe 4010 8cbe 5b46 84bd
000002b0: 3517 793f dd33 0abd 835b 12bc 3cef 713e
000002c0: 45bb 1abf 9c6e cc3f da29 8dbe bfa0 f3be
000002d0: b74a 973f 5b45 003e a9b0 27bc 89dc 323e
000002e0: 3ec4 65be bbbb 83be a3e4 9dbd ca96 e2be
000002f0: 332a aa3e 8ea0 4b3f fd9d 17be 8543 eb3c
00000300: 29e4 e93d 589c 8abe 7e4c 80bc 27a5 a4bc
00000310: b277 803f c4c7 273f dd3b aebe 7863 04bf
00000320: 03ad 54bd 2021 e8be f048 6bbe aa0d d53d
00000330: e9db 60bd 21ea 3dbe b31e 973d 248e bdbb
00000340: fed1 313e ab20 b23d cd31 573d 6a3e 8ebe
00000350: 5d7a c5bd afeb 6abe 7bbf 50be b8ed 07be
00000360: bd20 e83d 9284 96bd effc 2bbe 5882 3cbe
00000370: 0a8c 45be 1dee 0a3e d796 a63e 8193 b73d
00000380: ff28 a23d f58a 043c 4a39 89be cd49 a73d
00000390: ccab 82bd 6a2d a13d d5ca e13c eeb6 2bbe
000003a0: 4d58 e6bd c726 653e a6bc 15be 90f4 3d3d
000003b0: f4be 0ebe de0c eb3b 30d3 c83d 94e6 c33d
000003c0: f61e 493d 725c 53bd b606 143e 7b01 1fbe
000003d0: e477 d83b f38b 353c e5ff b5bd dbcb f83d
000003e0: 6ec1 eabd 3a68 36be 98c3 f83e 3b78 123d
000003f0: d1db 00be 81bc 223e 305b 1d3e f2d8 6c3d

middle_layers.0.bias f4 [50]
0.3189389 0.11380967 0.08019155 0.092700735 -0.06335207 0.037930116 0.120147765 -0.08419148
0.055448424 0.032249995 0.009828271 -0.1766807 -0.08614675 -0.05333592 0.03787574 0.08565153
0.075497426 0.0064817495 0.11639948 -0.0036084217 -0.0013263286 -0.058414225 0.08801775 -0.080198616
-0.09821824 0.29778937 0.06654412 -0.09814681 0.02955645 -0.09568113 -0.23673865 0.13241321
0.0039743558 -0.054991044 -0.074225225 0.08258402 0.07669136 0.11783836 0.102863096 -0.071310386
0.074935384 0.13999224 0.12672634 -0.13477074 -0.039489128 -0.104926154 0.16647172 -0.05318497
-0.088010445 0.07838996
00000000: f64b a33e 0b15 e93d 783b a43d e2d9 bd3d
00000010: bbbe 81bd 9c5c 1b3d 0810 f63d 956c acbd
00000020: e31d 633d 9218 043d c206 213c c9eb 34be
00000030: b56d b0bd c476 5abd 9823 1b3d 126a af3d
00000040: 659e 9a3d db64 d43b da62 ee3d 457b 6cbb
00000050: 34d8 adba c143 6fbd a642 b43d 2c3f a4bd
00000060: a526 c9bd d977 983e 4948 883d 3201 c9bd
00000070: 5e20 f23c 78f4 c3bd 9e6b 72be 5497 073e
00000080: 503b 823b 4a3e 61bd 6503 98bd d021 a93d
00000090: 5c10 9d3d 3d55 f13d e3a9 d23d 2e0b 92bd
000000a0: b977 993d 205a 0f3e 8dc4 013e 5701 0abe
000000b0: 5abf 21bd 86e3 d6bd 9077 2a3e 7cd8 59bd
000000c0: d23e b4bd ea8a a03d

middle_layers.1.weight f4 [50, 50]
-0.20015998 0.0639897 0.0696262 0.09007276 0.035554882 0.054783978 -0.10746723 -0.019840932
1.0054591 0.14658399 0.4127028 0.15090434 0.9427374 -0.09677928 0.090045005 -0.03269249
-0.097912446 0.36905903 0.46579486 -0.012432068 -0.04194778 -0.13117702 0.2158553 0.0020261055
-0.044171393 -0.2854919 -0.0832506 0.101825915 -0.0031959421 0.11217207 -0.4064343 -0.14512417
0.18171982 -0.35555395 -0.113679536 0.09453128 0.07630167 -0.28833815 0.22328418 0.2055277
0.18975744 -0.10446695 0.15410867 -0.16912405 -0.14039312 0.17054029 0.09734861 0.2203683
-0.05537025 0.19652696 0.31729487 0.37858272 -1.2235413 -0.23286085 -0.19462755 0.4462968
0.26158243 0.063499935 -0.31490153 -0.1991535 -0.29122967 0.1629005 -0.18831883 -0.10583989
-0.091593884 -0.20547159 0.28056538 0.14739467 0.21946904 0.34970483 0.72035116 -0.8977023
0.1750722 -0.2312867 -0.040391486 0.08880674 0.3861841 -0.0031649 0.30000496 0.903991
-0.29181156 -1.0753765 -0.6949983 -0.18798718 0.3102726 -0.6230488 -0.085195184 0.35250744
0.24494801 -0.031432815 0.7212524 -0.14905323 -0.3696352 -0.0003467674 -0.3810026 -0.06907727
0.23284863 -0.4445234 0.15604973 0.1800035 -0.031649534 0.14731827 -0.13582695 -0.25955567
-0.2428254 0.122960046 0.034868844 0.37142932 -0.21377441 -0.26297292 0.038711026 0.15198483
-0.22097136 -0.1038667 0.017835544 -0.24005373 0.102449074 -0.14399743 0.22821572 0.23545226
0.1404438 0.10312118 0.16568688 0.18317096 -0.23641962 0.25015274 0.102994956 -0.09411267
-0.20269576 -0.2147464 -0.26886413 -0.10266326 -0.11730697 -0.25213677 0.14976187 0.049687922
0.17389661 0.10409609 0.0253248 -0.00825849 0.08622704 0.038148567 0.09592107 -0.24597788
-0.12325081 -0.016105179 0.36317918 0.111792535 -0.32336205 0.23018147 -0.17638068 0.03548425
0.042723227 -0.16467297 0.04115925 -0.063946135 -0.15326004 0.22654283 -0.22843672 0.039286915
-0.48633856 -0.47091773 -0.2883368 -0.20009631 -0.04786545 -0.0017541181 -0.2931957 0.529351
0.50046504 0.11168977 -0.17455292 -0.15914668 -0.09570613 0.016334163 0.123123564 0.77194357
0.19514407 -0.029297631 -0.15336275 -0.10694293 -0.32554832 -0.310726 0.12449098 -0.45107445
-0.1859879 0.018071976 0.1032494 0.0757723 -0.104557104 0.1895353 0.20348345 0.043811962
-0.055381287 0.24845345 0.18957257 0.025163293 -0.003671705 0.15341958 0.058345743 0.091407314
-0.22645496 0.12429491 -0.9897807 -0.21701065 0.18517618 0.30352327 -0.20615529 0.207136
-0.20132576 -0.30052564 -0.39598712 0.24116622 -0.27533013 0.10898399 -0.14191489 -0.4277605
-0.28346816 -0.1629412 -0.11393759 -0.046601262 0.7747413 -0.41379955 -0.12054783 0.25492084
0.20966738 -0.2484949 0.36619195 0.07650827 0.17222744 0.56953794 0.2163438 -1.066154
-0.4837601 -0.044632893 0.73079795 -0.26022938 -0.19300318 0.15076083 -0.13692804 -0.13671103
0.25528112 -0.22186126 -0.119972564 -0.1258789 0.14408223 -0.13007256 0.22023872 -0.12676357
-0.23695306 0.15863028 -0.18778001 -0.36035886 0.15449828 -0.07826194 -0.15204494 0.13837057
00000000: bdf6 4cbe 080d 833d 2e98 8e3d 1178 b83d
00000010: ffa1 113d 2a65 603d c717 dcbd 7389 a2bc
00000020: e2b2 803f 1d1a 163e c84d d33e ab86 1a3e
00000030: 3d57 713f 3734 c6bd 8469 b83d 8fe8 05bd
00000040: 5286 c8bd 4ef5 bc3e aa7c ee3e dfaf 4bbc
00000050: 6fd1 2bbd 4553 06be 2c09 5d3e 69c8 043b
00000060: 10ed 34bd ff2b 92be 4a7f aabd 1b8a d03d
00000070: 0373 51bb 78ba e53d 2818 d0be 6e9b 14be
00000080: c314 3a3e 2b0b b6be d1d0 e8bd 9e99 c13d
00000090: 0d44 9c3d 0fa1 93be 9ca4 643e da75 523e
000000a0: c64f 423e c5f2 d5bd aace 1d3e db2e 2dbe
000000b0: 37c3 0fbe 1da2 2e3e b55e c73d 3aa8 613e
000000c0: eacb 62bd 5d3e 493e 7974 a23e 98d5 c13e
000000d0: 009d 9cbf 1373 6ebe 724c 47be 0481 e43e
000000e0: 22ee 853e 410c 823d c63a a1be e5ee 4bbe
000000f0: 0e1c 95be 64cf 263e a7d6 40be 96c2 d8bd
00000100: 9395 bbbd 2567 52be 44a6 8f3e a1ee 163e
00000110: 7ebc 603e 830c b33e ef68 383f d1cf 65bf
00000120: 2046 333e 6cd6 6cbe 8b71 25bd 4fe0 b53d
00000130: ecb9 c53e 366a 4fbb 409a 993e f46b 673f
00000140: 5368 95be f0a5 89bf 69eb 31bf b67f 40be
00000150: 0ddc 9e3e 2080 1fbf d07a aebd db7b b43e
00000160: a7d3 7a3e b2bf 00bd ffa3 383f 69a1 18be
00000170: d340 bdbe 55ce b5b9 c612 c3be 6278 8dbd
00000180: df6f 6e3e 9298 e3be 80cb 1f3e d652 383e
00000190: f1a2 01bd 9ada 163e 3816 0bbe 7be4 84be
000001a0: 39a7 78be 7ad2 fb3d a2d2 0e3d fc2b be3e
000001b0: aee7 5abe 63a4 86be 748f 1e3d e9a1 1b3e
000001c0: 5146 62be 10b8 d4bd d91b 923c a5d0 75be
000001d0: d2d0 d13d 1074 13be 62b1 693e 661a 713e
000001e0: 80d0 0f3e 3231 d33d d2a9 293e 2b91 3b3e
000001f0: fc17 72be 0514 803e 05ef d23d 25be c0bd
00000200: 7a8f 4fbe 7be6 5bbe 8fa8 89be 1e41 d2bd
00000210: a33e f0bd 1218 81be 2d5b 193e 9085 4b3d
00000220: f411 323e 5530 d53d f475 cf3c 9e4e 07bc
00000230: cd97 b03d ac41 1c3d 4472 c43d a0e1 7bbe
00000240: ec6a fcbd 02ef 83bc 9ff2 b93e 7cf3 e43d
00000250: b68f a5be b1b4 6b3e 239d 34be ef57 113d
00000260: 8dfe 2e3d 08a0 28be 9a96 283d 31f6 82bd
00000270: 33f0 1cbe d8fa 673e 51eb 69be 51eb 203d
00000280: 5e01 f9be 211c f1be e2a0 93be 0ce6 4cbe
00000290: 900e 44bd 70ea e5ba bf1d 96be 8c83 073f
000002a0: 7a1e 003f 9bbd e43d 00be 32be 59f7 22be
000002b0: 9301 c4bd 39cf 853c 3528 fc3d 189e 453f
000002c0: d9d3 473e 9601 f0bc 200b 1dbe e504 dbbd
000002d0: 45ae a6be 7a17 9fbe 20f5 fe3d 3bf3 e6be
000002e0: 9d73 3ebe ae0b 943c 6c74 d33d 822e 9b3d
000002f0: 0922 d6bd 8b15 423e f75d 503e 2c74 333d
00000300: 7dd7 62bd 956a 7e3e 501f 423e 4023 ce3c
00000310: fda0 70bb 061a 1d3e f2fb 6e3d c233 bb3d
00000320: cfe3 67be 548e fe3d 4562 7dbf 0a38 5ebe
00000330: d39e 3d3e 6767 9b3e 5f1a 53be 761b 543e
00000340: 5728 4ebe 7fde 99be d3be cabe 47f4 763e
00000350: 12f8 8cbe 0033 df3d 2352 11be 6d03 dbbe
00000360: bd22 91be 0fda 26be 1c58 e9bd f7e0 3ebd
00000370: 7255 463f 89dd d3be c8e1 f6bd fc84 823e
00000380: 0cb3 563e 7275 7ebe 837d bb3e 5eb0 9c3d
00000390: 645c 303e 3dcd 113f 3b89 5d3e bc77 88bf
000003a0: 67af f7be fbd0 36bd 9315 3b3f c93c 85be
000003b0: a0a2 45be 0c61 1a3e dd36 0cbe fafd 0bbe
000003c0: 35b4 823e 992f 63be 2db4 f5bd 66e6 00be
000003d0: 4b8a 133e be31 05be 4286 613e 4fce 01be
000003e0: d3a3 72be fa6f 223e 6749 40be f580 b8be
000003f0: cc34 1e3e cc47 a0bd abb1 1bbe 04b1 0d3e

middle_layers.1.bias f4 [50]
0.032840405 0.14867991 -0.01799122 -0.07533593 0.11561737 0.013048057 0.20732743 -0.0007051361
-0.09079858 -0.02144662 -0.04579981 0.028514497 0.13676608 0.009431537 -0.013287208 0.0544209
0.0766652 0.11446008 -0.05777848 -0.14551525 0.06964389 0.04817787 -0.15739624 0.057825882
-0.012202176 -0.06272822 -0.08644952 0.059337623 -0.09274324 0.13248268 0.15467489 0.03196282
0.081970006 0.048673138 0.19343723 -0.04729117 0.086683325 0.013659175 0.09226813 0.026147291
-0.05872435 -0.04930258 -0.10542984 0.024333071 -0.056212172 0.006051502 0.12941667 -0.05082919
0.17413336 0.08523889
00000000: a983 063d 8c3f 183e 5362 93bc b949 9abd
00000010: cdc8 ec3d 85c7 553c a44d 543e e2d8 38ba
00000020: 9bf4 b9bd d2b0 afbc 9598 3bbd 3c97 e93c
00000030: 680c 0c3e bc86 1a3c 97b2 59bc 73e8 5e3d
00000040: a502 9d3d 0c6a ea3d 21a9 6cbd f301 15be
00000050: 75a1 8e3d 2956 453d 7b2c 21be d5da 6c3d
00000060: a3eb 47bc a777 80bd 720c b1bd 020c 733d
00000070: 2bf0 bdbd 8aa9 073e 1863 1e3e 72eb 023d
00000080: e4df a73d 7c5d 473d 6914 463e 63b4 41bd
00000090: 0787 b13d bbca 5f3c 13f7 bc3d d832 d63c
000000a0: f288 70bd 81f1 49bd 9aeb d7bd 2656 c73c
000000b0: bc3e 66bd ae4b c63b ce85 043e 4532 50bd
000000c0: 0450 323e ba91 ae3d

layer_out.weight f4 [1, 50]
-0.5617966 -0.98796254 0.3694969 0.6173303 0.69655967 -0.20607539 0.20568794 -0.46763813
-0.3214883 0.40496752 0.19117728 0.64986 -0.25616175 0.17222953 -0.35387504 0.6585589
0.5298352 -0.4830144 0.4595021 0.31376278 0.22245517 -0.57698256 -0.34966823 -0.43194103
-0.33658385 -0.6009877 0.38089642 -0.40000024 0.41875023 -0.38072738 -0.18510357 0.5086238
0.5316607 -0.19788988 0.47506163 -0.14988701 -0.47623923 0.37798804 -0.2370796 0.72101164
-0.5226211 0.63202333 0.19579141 0.42591676 0.260973 -0.3452644 0.4998106 0.39016742
0.5536807 0.8298242
00000000: e7d1 0fbf 1deb 7cbf b32e bd3e 5c09 1e3f
00000010: bc51 323f 6d05 53be dc9f 523e 446e efbe
00000020: 1d9a a4be e757 cf3e fac3 433e 3a5d 263f
00000030: a227 83be f05c 303e 1c2f b5be 5197 283f
00000040: 48a3 073f aa4d f7be dc43 eb3e 84a5 a03e
00000050: 4acb 633e 21b5 13bf b707 b3be 6027 ddbe
00000060: b854 acbe 54da 19bf db04 c33e d5cc ccbe
00000070: 6e66 d63e b3ee c2be ca8b 3dbe 2b35 023f
00000080: ea1a 083f a5a3 4abe 473b f33e fb7b 19be
00000090: a1d5 f3be a687 c13e ffc4 72be 3894 383f
000000a0: 7fca 05bf 48cc 213f 8b7d 483e c311 da3e
000000b0: 419e 853e 7fc6 b0be 2de7 ff3e 06c4 c73e
000000c0: 05be 0d3f 5c6f 543f
