in_model/2024-04-25 15:33:58.pth (torch, 23744 bytes, 5 tensors)

layer_in.weight f4 [70, 2]
0	0xbd9708bd	-0.073747136
1	0xbf2201dd	-0.63284093
2	0x3f4e26a0	0.8052769
3	0xbf6d276f	-0.92638296
4	0x3d493e3c	0.049131617
5	0x3e4d19d9	0.20029391
6	0xbed11475	-0.4083592
7	0x3e81a93c	0.25324428
8	0xbec23a9f	-0.3793535
9	0xbdfa7c6f	-0.12230765
10	0xbf4a0a4d	-0.7892197
11	0xbf9913d6	-1.1959178
12	0xbf37b382	-0.7175828
13	0x3e4e972e	0.20174858
14	0x3e7ba462	0.24574426
15	0xbdc2d22b	-0.095127426
16	0x3d162135	0.036652762
17	0xbd4b2755	-0.049598057
18	0x3d155a16	0.036462866
19	0x3e0cee93	0.13762884
20	0x3f651e66	0.8949951
21	0x3df1dd37	0.118097715
22	0xbee548bc	-0.44782054
23	0xbd828a9a	-0.063740924
24	0x3eb79dc1	0.35862544
25	0x3eb29275	0.34877363
26	0xbf0d839f	-0.5527896
27	0xbe1ddcd2	-0.15416268
28	0xbf2a4d2e	-0.66524017
29	0x3e99026f	0.2988467
30	0xbe5012be	-0.2031965
31	0x3db0602d	0.08612094
32	0x40a9f188	5.310734
33	0x3e4cfb74	0.20017797
34	0xbddb2ae1	-0.10701538
35	0x3e83351d	0.2562646
36	0xbe65b73e	-0.22433183
37	0x3d091269	0.033464823
38	0x3e6d80ac	0.23193616
39	0xbe7511eb	-0.23932616
40	0x3e40e7fe	0.18838498
41	0xbe9ce65a	-0.30644494
42	0xbec7088b	-0.38873705
43	0xbe3a58b9	-0.18197908
44	0xbd7db16c	-0.06193678
45	0xbeadf2f2	-0.33974415
46	0xbee628a6	-0.44952887
47	0xbf164b08	-0.5870824
48	0xbf8df3e9	-1.109006
49	0xbe048bf4	-0.12944013
50	0x3eefa7b3	0.46807632
51	0x3e200c4e	0.15629694
52	0x407f8c7c	3.9929495
53	0x3e0252b1	0.12726857
54	0xbe57b577	-0.21065317
55	0x3dcbf59b	0.09958955
56	0xbf2479b7	-0.6424822
57	0xbd21891e	-0.039437406
58	0xbe8dd37f	-0.2770042
59	0xbda22d4b	-0.07918795
60	0x40dd9143	6.923982
61	0xbd598d38	-0.053113192
62	0xbfb44c88	-1.4085855
63	0xbec0053c	-0.37503994
64	0x3efacb6f	0.48983333
65	0x3e1f0908	0.15530789
66	0x3e05b9e4	0.13059193
67	0x3d6a42dd	0.057192672
68	0x3fbd8609	1.4806529
69	0xbe4e1d0f	-0.20128272
70	0x3ea9f70f	0.33196303
71	0xbe6d1805	-0.23153694
72	0x3ed613ab	0.4181188
73	0xbe57aa36	-0.21061024
74	0x3e85f422	0.2616282
75	0x3da11cf0	0.078668475
76	0x3ecae4f9	0.39627817
77	0x3d88d4c2	0.06681205
78	0x3eb10962	0.3457747
79	0xbed6e25c	-0.41969573
80	0xc0fb149e	-7.8462667
81	0x3e3dbbaf	0.18528627
82	0x3d67d1b9	0.05659649
83	0x3e8a42d3	0.27004108
84	0x3f204e35	0.62619334
85	0x3eb72ddb	0.35777172
86	0xbe9dff5d	-0.3085889
87	0x3de94c51	0.11391509
88	0x3eb678f8	0.35639167
89	0x3e2429be	0.16031548
90	0xbfb79964	-1.4343686
91	0x3e98cb4c	0.29842603
92	0xbd9136ce	-0.07090531
93	0xbe0d8159	-0.13818873
94	0xbddcedc9	-0.107875414
95	0x3cb00593	0.021487033
96	0xbecbed46	-0.39829463
97	0xbe3a20c4	-0.18176562
98	0xc098887e	-4.7666616
99	0x3bcfb9d2	0.00633929
100	0x3f5ace81	0.8547135
101	0x3dbe6592	0.09296717
102	0xc00020d7	-2.0020044
103	0xbf56662c	-0.8374965
104	0x3e7c2b76	0.24625954
105	0xbec6d4a5	-0.3883411
106	0x3f34d3e9	0.7063585
107	0xbdf6c28e	-0.12048827
108	0x3d588582	0.052861698
109	0xbdba24be	-0.09089039
110	0xbe3418e7	-0.17587624
111	0xbdfe23e1	-0.12409187
112	0x3f7f8dc9	0.9982572
113	0xbf26f505	-0.6521762
114	0xbdee9ca7	-0.11650973
115	0xbd87e74e	-0.06635915
116	0x3c3ea4bc	0.011635955
117	0xbe8babc2	-0.27279478
118	0xbe1239d7	-0.14279877
119	0xbdce6eaa	-0.10079701
120	0x40394dab	2.8953655
121	0x3eff8138	0.49903274
122	0x3ff79322	1.9341776
123	0xc05e70f7	-3.4756448
124	0xbf661e0c	-0.898896
125	0xbeae7a80	-0.34077835
126	0x3eb0f0f2	0.34558827
127	0xbcb4baab	-0.022061666
128	0x402fd1e0	2.7471848
129	0xbf2270b3	-0.63453215
130	0xbede9329	-0.4347165
131	0xbdf9d75a	-0.12199278
132	0xbfc851c1	-1.5649949
133	0xbeb60721	-0.35552314
134	0xbeb0d425	-0.34536853
135	0x3ec76d48	0.38950562
136	0xc05181cb	-3.273547
137	0xbea308c3	-0.31842622
138	0xbdbaf0d8	-0.091279685
139	0xbe0b580a	-0.13607803

layer_in.bias f4 [70]
0	0x3eb57996	0.35444325
1	0xbe72353e	-0.23653123
2	0x3e1443b6	0.14478955
3	0x3eb7481b	0.357972
4	0xbecfb453	-0.40567264
5	0x3f866990	1.0500965
6	0xbec17c21	-0.37790015
7	0xbf00da20	-0.5033283
8	0xbdaa171c	-0.08305189
9	0x3eee83be	0.46584886
10	0xbe81a874	-0.25323832
11	0xbeed0f72	-0.46300846
12	0x3d9016f1	0.07035626
13	0x3f18f6b9	0.5975147
14	0x3f1cad88	0.6120229
15	0xbec4acbf	-0.38413045
16	0xbf120bfa	-0.57049525
17	0x3f1ac7c5	0.60461074
18	0x3db130f6	0.08651917
19	0xbed4ba4b	-0.4154838
20	0xbef173d3	-0.4715868
21	0x3e9dd79e	0.30828565
22	0xbed6b33b	-0.41933617
23	0x3f2ca4e1	0.67439085
24	0xbf31eb1e	-0.69499385
25	0x3eb02cb4	0.34409106
26	0xbecca5eb	-0.39970335
27	0xbedbc14d	-0.42920914
28	0x3e35cae5	0.1775318
29	0xbeca57ff	-0.3952026
30	0xbf8b46a0	-1.0880928
31	0xbf272ec8	-0.6530576
32	0x3e9621af	0.29322574
33	0xbf1f76cc	-0.62290645
34	0x3e7efb53	0.2490056
35	0xbea99a4d	-0.33125535
36	0x3ed0b364	0.40761864
37	0x3e7b7408	0.24555981
38	0xbf0a413c	-0.5400579
39	0xbefb4337	-0.49074718
40	0x3fab90e1	1.3403589
41	0xbf156289	-0.5835348
42	0xbeb09ad1	-0.34493116
43	0x3f139a6a	0.5765749
44	0xbf02240a	-0.5083624
45	0x3dcaeb65	0.09908179
46	0xbdbbdd41	-0.0917306
47	0xbefc6606	-0.49296588
48	0xbf031c3a	-0.51214945
49	0x3edf489c	0.43610084
50	0x3ed838cf	0.42230842
51	0x3f5bf747	0.8592419
52	0xbf31c368	-0.6943879
53	0x3f0fecd6	0.5622076
54	0xbf0822f6	-0.53178346
55	0xbeed9861	-0.46405318
56	0x3ec0d0f2	0.37659413
57	0xbf4a0469	-0.7891298
58	0xbf2ace7d	-0.66721326
59	0xbf162eb3	-0.5866501
60	0xbec0f284	-0.37685025
61	0x3eff6260	0.49879742
62	0xbed04b60	-0.40682507
63	0xbe9a4559	-0.30131033
64	0x3d9991df	0.07498526
65	0xbe36e820	-0.17861986
66	0x3eb0ce40	0.34532356
67	0x3d9bdde2	0.0761068
68	0x3eb93b10	0.36177874
69	0xbf1fcf4f	-0.624257

middle_layers.0.weight f4 [70, 70]
0	0xbd3eb002	-0.046554573
1	0xbe16e899	-0.14737166
2	0x3aaddb57	0.0013264221
3	0xbe02725c	-0.12738937
4	0x3e003654	0.12520725
5	0x3df60069	0.12011797
6	0xbcaddfda	-0.021224905
7	0xbd03bd18	-0.032162756
8	0x3ddfbf28	0.10925132
9	0xbe3a6d00	-0.18205643
10	0x3e118903	0.14212422
11	0x3e263602	0.1623154
12	0xbe030bde	-0.12797496
13	0x3e5492a9	0.20759071
14	0xbe1f004e	-0.1552746
15	0xbd9b1eec	-0.07574257
16	0x3c7a56d8	0.015279494
17	0xbe275a62	-0.16343072
18	0x3d1dc196	0.038514696
19	0x3d84132d	0.0644897
20	0xbddcdb61	-0.10784031
21	0xbc22c695	-0.009935041
22	0x3bd68166	0.006546187
23	0x3e8c3ce6	0.27390212
24	0xbe064c7e	-0.13115117
25	0x3ccdfcda	0.025144983
26	0x3e33e19f	0.17566536
27	0xbde6b8bd	-0.11265705
28	0x3dc12895	0.094315685
29	0x3e2c8a7d	0.16849704
30	0xbea0c221	-0.3139811
31	0xbe307cb8	-0.17235076
32	0x3d8645ac	0.065562576
33	0x3dd56b91	0.10420907
34	0x3e8d4ed3	0.275992
35	0x3e284977	0.16434275
36	0x3da6210f	0.08111774
37	0xbdd687c3	-0.10475113
38	0xbdd67358	-0.10471219
39	0x3bb3f9f5	0.0054924437
40	0x3e171e94	0.14757758
41	0xbde92e75	-0.11385814
42	0xbdac6aac	-0.084187835
43	0xbde1fe23	-0.11034801
44	0xbe4e587f	-0.20150946
45	0x3e04e476	0.12977776
46	0x3d84c162	0.06482197
47	0x3e08c822	0.13357595
48	0x3e0c5c4d	0.13707085
49	0xbe3b57ed	-0.1829526
50	0xbe1337cb	-0.14376752
51	0xbe25e546	-0.16200742
52	0x3c4be0a4	0.012443695
53	0x3d5a55bf	0.05330443
54	0x3dba998a	0.091113165
55	0x3e27139b	0.16316073
56	0xbdddf0ae	-0.10836922
57	0x3e3d1936	0.18466648
58	0xbe34035c	-0.17579406
59	0x3d6ac169	0.057313357
60	0xbd939b8b	-0.07207402
61	0xbda77c5f	-0.08178019
62	0x3df7acce	0.12093507
63	0x3d174763	0.036933314
64	0x3f6b3221	0.91873366
65	0xbdbe0432	-0.09278144
66	0x3db8bfb7	0.09020942
67	0xbda6028c	-0.081059545
68	0xbd0b3f2d	-0.033995796
69	0xbdba7b7c	-0.09105584
70	0x3de061a0	0.109561205
71	0xbe580990	-0.21097398
72	0x3e3a9687	0.18221484
73	0x3ca2daff	0.019879816
74	0xbe1c7bfb	-0.1528167
75	0xbe11ad4d	-0.14226265
76	0xbdf2b43d	-0.11850784
77	0xbe355996	-0.17709956
78	0xbe090908	-0.13382351
79	0x3d142013	0.0361634
80	0x3c3c8584	0.011506442
81	0xbe0db7c5	-0.13839634
82	0x3e1c95b6	0.15291485
83	0xbe092fbe	-0.13397118
84	0x3c58d6a1	0.013234765
85	0xbe4239d5	-0.18967374
86	0xbc83a94a	-0.016071934
87	0x3d87fe4d	0.06640301
88	0x3e098eac	0.13433331
89	0x3df9f132	0.122042075
90	0x3c446ce6	0.011988854
91	0xbc10d404	-0.008839611
92	0x3db6ed8f	0.089320295
93	0x3df6b7f6	0.120468065
94	0x3d99f0c6	0.07516627
95	0xbdfd8530	-0.12378919
96	0xbc72d60f	-0.014821543
97	0xbd0514ed	-0.03249066
98	0x3e10326d	0.14081736
99	0x3e0a8485	0.13527115
100	0x3e01be38	0.12670219
101	0x3c6f4a26	0.014605081
102	0xbe2fcd4f	-0.17168163
103	0x3e2cb60c	0.1686632
104	0xbe4511fe	-0.19245145
105	0xbe2b8492	-0.1674979
106	0xbe40b181	-0.18817712
107	0xbe1625bd	-0.14662834
108	0x3c1db34a	0.009625265
109	0xbe071714	-0.13192397
110	0x3d9b4815	0.07582108
111	0xbc022104	-0.007942442
112	0x3c8f1ba8	0.017469242
113	0xbdc3377c	-0.09532067
114	0x3d9e8c23	0.07741573
115	0x3e10c051	0.14135863
116	0x3e3be7f0	0.18350196
117	0x3e4b4494	0.19850379
118	0x3d2fd5a9	0.04292837
119	0x3e096f69	0.13421406
120	0x3df6de9f	0.1205418
121	0xbe603f3c	-0.21899122
122	0xbe416b92	-0.18888691
123	0x3d0bea89	0.034159217
124	0xbe0f4e15	-0.1399463
125	0xbd0f7314	-0.035021856
126	0xbcfe2ccf	-0.031027226
127	0xbe518dc7	-0.2046424
128	0xbe076533	-0.13222198
129	0x3d2e84f6	0.04260727
130	0x3cf18281	0.029481174
131	0x3de7e60c	0.11323175
132	0xbaeb85a0	-0.00179689
133	0x3e167833	0.1469429
134	0xbe845171	-0.25843385
135	0xbde7c290	-0.11316407
136	0xbe52cc7a	-0.20585814
137	0x3e382c2c	0.179856
138	0x3e6713be	0.22566125
139	0x3e476656	0.19472632
140	0x3f0adec8	0.5424619
141	0x3e494073	0.19653492
142	0xbdefdb19	-0.117117114
143	0xbd6f7e35	-0.05846997
144	0xbc9fbbbb	-0.019498697
145	0x3ea2c50d	0.31790963
146	0xbe6371b7	-0.22211348
147	0xbe17da11	-0.1482928
148	0xbe153ea7	-0.14574681
149	0x3e4ab7bf	0.19796656
150	0xbe76e70e	-0.24111578
151	0xbd4ea9ae	-0.050454788
152	0xbe236796	-0.15957484
153	0xbc99b7a4	-0.018764324
154	0xbdd9e562	-0.106394544
155	0xbe94a1e3	-0.2902976
156	0x3fde3aee	1.7361734
157	0x3e868019	0.26269606
158	0x3db7f5fe	0.08982466
159	0xbe455a4f	-0.19272731
160	0xbdec5cf2	-0.115411654
161	0x3e2526fc	0.16128153
162	0x3d20c7b7	0.039252963
163	0x3e3f246c	0.18666238
164	0xbe886702	-0.2664109
165	0x3e04250b	0.12904756
166	0x3f5fdc75	0.87445766
167	0xbe8cbdfe	-0.27488703
168	0x3daaab5b	0.08333465
169	0xbd18b63e	-0.037283175
170	0x3f801797	1.0007199
171	0xbdfdc15a	-0.123903945
172	0x3e1720dc	0.14758629
173	0xbe018b7c	-0.12650865
174	0x3f9a5ff5	1.2060534
175	0x3d6f4770	0.058417737
176	0x3e66ab7c	0.22526354
177	0xbd996f46	-0.07491927
178	0x3cdce0e8	0.026962712
179	0x3e116f61	0.14202644
180	0xbe9105be	-0.28324693
181	0xbec04638	-0.37553573
182	0xbe67e5f2	-0.22646311
183	0x3ce0606b	0.027389726
184	0xbe7f5b89	-0.24937262
185	0xbf082a25	-0.5318931
186	0xbd9696ae	-0.073529586
187	0xbdc038fd	-0.0938587
188	0x3d8688d2	0.06569065
189	0xbff75111	-1.9321615
190	0x3e67bfa8	0.22631705
191	0x3f150283	0.5820696
192	0xbe87c52e	-0.26517624
193	0x3e4abe65	0.19799192
194	0xbdede182	-0.11615278
195	0xbe8fe5ea	-0.28105098
196	0x3ed8efb3	0.42370376
197	0xbcd8499c	-0.026402287
198	0x3dcfb004	0.10140994
199	0xbe82d732	-0.25554806
200	0x3e09c6bf	0.13454722
201	0xbf9251c8	-1.1431208
202	0xbe83af69	-0.25719765
203	0x3dd58da2	0.10427405
204	0x403f84ed	2.9924881
205	0xbe2cc500	-0.16872025
206	0x3eadd82a	0.33953983
207	0xbddc1a46	-0.10747199
208	0xbf362981	-0.7115708
209	0xbe2f9a41	-0.17148687
210	0x3dba5f19	0.0910017
211	0x3e11f07e	0.14251897
212	0x3de53a6e	0.11192785
213	0xbe2f46ce	-0.17116854
214	0xbdec3e46	-0.11535315
215	0x3e461ed1	0.19347693
216	0x3d099bdb	0.0335959
217	0x3e21215c	0.15735382
218	0x3e14f82a	0.14547792
219	0xbe6d4004	-0.23168951
220	0x3c2c132b	0.010502617
221	0x3e174f0e	0.1477625
222	0x3da2f863	0.07957532
223	0xbe64ef8f	-0.2235701
224	0xbc30187d	-0.010748026
225	0x3dbc76e6	0.092023656
226	0xbd7e7110	-0.062119544
227	0x3e2b77b0	0.16744876
228	0xbdf07029	-0.11740143
229	0x3e60fa11	0.21970393
230	0xbdfb4bc4	-0.122703105
231	0x3df90e5f	0.12160944
232	0xbb60eabc	-0.00343196
233	0xbe066087	-0.1312276
234	0x3e01acd8	0.12663591
235	0x3e2d1ce5	0.16905554
236	0xbd8f23b8	-0.06989235
237	0x3e60c1f1	0.21948983
238	0xbe082932	-0.13296965
239	0x3e4b0455	0.19825871
240	0x3cdfd00f	0.02732089
241	0x3e3c0aef	0.18363546
242	0xbe1d8b0e	-0.15385076
243	0xbdfb8c17	-0.122825794
244	0x3ca90c5c	0.020635776
245	0x3e715fc1	0.23571683
246	0xbe53d6d9	-0.20687427
247	0xbe0f7917	-0.14011036
248	0xbd623f38	-0.05523607
249	0x3e0c9694	0.13729316
250	0xbd85645f	-0.06513285
251	0x3e1f343b	0.15547268
252	0xbc5d0554	-0.01349004
253	0xbd36a675	-0.04459234
254	0x3e24ea96	0.16105112
255	0xbd4bd2f4	-0.049761727

middle_layers.0.bias f4 [70]
0	0x3df69769	0.12040598
1	0x3d598773	0.05310769
2	0x3d83c8eb	0.064348064
3	0x3c96b93d	0.018398875
4	0x3c8a0c3e	0.01685154
5	0xbd4585d3	-0.048223328
6	0xb9ee1a31	-0.00045414412
7	0x3d40b3c5	0.04704644
8	0xbe575849	-0.21029772
9	0x3e04f1fd	0.12982936
10	0x3d8c16d8	0.068402946
11	0x3db0112d	0.08597026
12	0x3d4df2b0	0.050280273
13	0xbdd189ed	-0.102313854
14	0xbc9b6649	-0.018969672
15	0x3d962744	0.07331708
16	0x3d996444	0.07489827
17	0x3d87859a	0.06617279
18	0x3ae21ec7	0.0017251604
19	0xbd89a1d3	-0.06720319
20	0x3e03cda9	0.12871422
21	0xbd40d4ff	-0.04707813
22	0x3db8767e	0.090069756
23	0xbd75daef	-0.060023244
24	0xbbe8ca16	-0.0071041686
25	0xbc2aac6a	-0.010417083
26	0xbdb8873f	-0.09010171
27	0xbd530e78	-0.05152747
28	0xbcee007a	-0.029052962
29	0xbe965f43	-0.29369554
30	0x3d1ade68	0.03780976
31	0x3dc2a114	0.095033795
32	0xbdc9cbf1	-0.09853352
33	0x3f194e6f	0.59885305
34	0x3dd02941	0.101641186
35	0xbdef5579	-0.116862245
36	0x3cf2cffd	0.029640192
37	0x3cce6b75	0.025197724
38	0x3d8b56e0	0.068036795
39	0xbd0587f0	-0.032600343
40	0x3d6b2b9e	0.057414643
41	0x3d7280bf	0.059204813
42	0xbd7f4c7e	-0.062328808
43	0xbd2b187f	-0.04177141
44	0xbd6d5475	-0.057941873
45	0xbdd85b8d	-0.10564337
46	0x3d854ad2	0.065084115
47	0x3d327591	0.04356915
48	0x3dea9e6a	0.11455996
49	0x3dd753b4	0.10514012
50	0xbc7a1392	-0.015263455
51	0x3d173eff	0.036925312
52	0x3c321520	0.010869294
53	0x3d50534c	0.050860688
54	0xbd6b2c79	-0.05741546
55	0x3cad2b24	0.021138735
56	0x3df143b6	0.11780493
57	0xbd8bd797	-0.0682823
58	0xbc9e878a	-0.01935174
59	0x3d99b66b	0.075054966
60	0xbba8e7da	-0.005154592
61	0x3de647eb	0.11244186
62	0xbce65d4a	-0.028120656
63	0xbda91327	-0.08255606
64	0xbc08cde5	-0.00834987
65	0xbdf5681b	-0.11982747
66	0xbd9490e7	-0.072542004
67	0xbdc5d27c	-0.09659287
68	0x3dcfbb76	0.10143177
69	0x3bbb0849	0.005707775

layer_out.weight f4 [1, 70]
0	0x3cb53a9e	0.022122677
1	0xbd6c9120	-0.05775559
2	0xbe3d75b4	-0.18501931
3	0xbe546176	-0.20740303
4	0x3c0bef15	0.008540888
5	0x3e06fa7d	0.13181491
6	0xbefd4bcb	-0.49471888
7	0x3d342073	0.04397626
8	0x3f01c01d	0.50683767
9	0x3e1d85e0	0.153831
10	0x3e6defe4	0.23236042
11	0xbce90b60	-0.028447807
12	0xbe97939b	-0.29604802
13	0x3d2773d7	0.040881958
14	0x3ddc477d	0.10755823
15	0x3e51fbd8	0.20506227
16	0xbe0481a6	-0.12940082
17	0x3dc57e43	0.09643223
18	0x3c80cf04	0.015723713
19	0xbc52c46b	-0.0128642125
20	0x3e83ab33	0.25716552
21	0x3e2c56aa	0.16829935
22	0x3c740cba	0.014895612
23	0xbdf9c314	-0.12195411
24	0xbe3aeb91	-0.18253924
25	0xba29dff8	-0.00064802123
26	0x3e85ca76	0.26131028
27	0xbde31d50	-0.11089575
28	0x3e396a43	0.18106942
29	0xbf55a069	-0.8344789
30	0x3e0b2678	0.13588893
31	0x3baf446a	0.0053487318
32	0x3e985a6f	0.29756495
33	0xbf2e14ee	-0.68000686
34	0x3e346ff9	0.17620839
35	0xba4981cf	-0.00076868845
36	0x3f7e87c7	0.9942593
37	0x3e6f4a5e	0.23368213
38	0xbe4fadb4	-0.20281106
39	0xbe44a567	-0.19203721
40	0xbdfc281a	-0.12312336
41	0xbe65fb28	-0.2245909
42	0x3e020e91	0.12700869
43	0x38d56eec	0.00010177292
44	0xbe490da9	-0.19634117
45	0x3e8c2c56	0.27377576
46	0x3d4d7696	0.05016192
47	0xbd20161c	-0.039083585
48	0x3d669ac3	0.056299936
49	0xbd65e1f5	-0.056123693
50	0x3ccc7e75	0.024962643
51	0xbe6dcf5e	-0.23223636
52	0xbdc9fab7	-0.09862273
53	0x3e9c542f	0.30532977
54	0x3d069add	0.032862533
55	0x3dc7a52f	0.09748303
56	0xbf4d871a	-0.80284274
57	0xbd0400f1	-0.03222746
58	0x3cf9d827	0.030498577
59	0x3d5bc77a	0.053657033
60	0xbe71ca5b	-0.23612349
61	0x3e77265d	0.24135728
62	0xbdb65c4c	-0.08904323
63	0xbe8304dc	-0.25589645
64	0xbdfaa5ca	-0.12238653
65	0xbe362fa5	-0.17791612
66	0xbb5389d3	-0.0032278195
67	0x3e48e46e	0.19618389
68	0xbdaf827e	-0.08569811
69	0xbd1359c9	-0.035974298
