in_model/2024-04-27 15:45:55.pth (torch, 9984 bytes, 5 tensors)

layer_in.weight f4 [40, 2]
00000000: 94a3 ec3e feea afbd 27ef b13f 28f6 9c3e
00000010: 05bf 1240 c804 0fbf 7688 33c0 3e18 e7bb
00000020: 5543 2340 9843 b53d 64af 9d40 c983 7cbd
00000030: 7473 fb3f 0df1 c23e 4b94 15c0 f270 753f
00000040: 297a 803e 3348 d0bd 9080 c23e 2ec3 b13c
00000050: 5c88 16bf b317 a93d 80f8 cabe 7e1f fc3c
00000060: a354 62bf e773 94bd 612f 60bf ec60 d23d
00000070: f575 91be 1eeb 743e 8cb0 92be 9765 11bd
00000080: bb36 1dbf ac03 953e ef08 62bf 0bf8 5d3d
00000090: 2c3e 313f 72c3 46bf 4baf 03bf 749d e63b
000000a0: c92e 79bf e095 c6bf 0ce8 acc0 bfdb eb3f
000000b0: 0bf2 e1be 76fb 203e ef37 83bf 982e 5b3e
000000c0: 7ea4 17bf 6ebd f0be 93a3 efbe 38ce 59be
000000d0: 538e 443f dbef 10bd 96fd 3cbf df31 89be
000000e0: 6f63 29ba 8279 d53e 882f cd3f a1bb debb
000000f0: 508b a13f cb81 403f b764 1d3d e1d3 c03d
00000100: 6709 493f 4e7f 3f3e 3604 893e 2ed3 893e
00000110: ed10 32bf 8725 2e3e 6203 e4be e9c2 a5be
00000120: 780b 40bf 34f3 e3bd 6107 6a3e fe6d 9e3e
00000130: 62a6 1ec0 e05e 243d e837 613f 9cd4 5fbe
0.4621855 -0.08589743 1.3901109 0.30656552 2.292909 -0.5586667 -2.805204 -0.0070524504
2.5509846 0.08850783 4.92766 -0.061649118 1.9644608 0.38074532 -2.337176 0.95875466
0.250932 -0.10170021 0.3798871 0.021699514 -0.5880182 0.082564734 -0.39642715 0.030776735
-0.88410395 -0.07248669 -0.87572294 0.10272393 -0.28410307 0.23917815 -0.2865032 -0.035497274
-0.6141164 0.29104364 -0.8829488 0.05419163 0.6923549 -0.77641976 -0.5143935 0.007037813
-0.97337013 -1.5514488 -5.403326 1.8426436 -0.44129977 0.15720925 -1.0251445 0.21404493
-0.5923537 -0.47019523 -0.46804485 -0.21270072 0.7677967 -0.035384994 -0.7382444 -0.2679586
-0.0006461655 0.41694266 1.603013 -0.0067972695 1.262064 0.7519805 0.038426127 0.09415413
0.7852997 0.18700907 0.26761025 0.2691893 -0.69557077 0.17006503 -0.4453383 -0.32375267
-0.750175 -0.11130372 0.22854377 0.30943292 -2.4789052 0.040129542 0.8797593 -0.21858448

layer_in.bias f4 [40]
00000000: d930 c53e 51a6 8dbd 7c6c f4bf f98a 903d
00000010: 8e90 07bd 00b0 dcbd 434b 8ebe 08c3 04be
00000020: e84f 293f 5ec9 9d3e 8793 513f 1670 98be
00000030: 7fa5 c6be 984b 4b3f 4850 49bf e518 083f
00000040: ecd7 b83e 806a 0d3f dec0 87bd 640b 07bf
00000050: 8c59 953f de5f 0abe b7fd 40be 9c49 1dbf
00000060: 90f0 613f f318 d13e b233 37bf 68d1 413f
00000070: 1871 563e 30ff 3e3f 97e1 1dbf b1dd b9be
00000080: 3008 60bf 86bc 8f3d 6658 fa3e 32ac 0f3e
00000090: 532b cd3e 0d65 e03e 7cb6 1cbc f2b4 3abf
0.3851383 -0.06916488 -1.9095607 0.07057757 -0.033096842 -0.10775757 -0.27791795 -0.12965024
0.6613755 0.30817693 0.81865734 -0.29773015 -0.38798138 0.7941222 -0.78638124 0.53162986
0.36102235 0.5524063 -0.06628583 -0.52751756 1.1667953 -0.13513133 -0.18846785 -0.61440444
0.88257694 0.40839347 -0.71563256 0.75710154 0.2094158 0.74608135 -0.6167235 -0.3630195
-0.87512493 0.0701838 0.48895568 0.14030531 0.40072116 0.43827096 -0.009564992 -0.7293235

middle_layers.0.weight f4 [40, 40]
00000000: aedf 62be f49a 0ebe 2f24 e33d d6f0 4f3d
00000010: 535d 9e3d f4d3 1c3e 4367 99bd 598a aa3e
00000020: 7c1d 823e b228 88be c146 fc3d 11b9 71be
00000030: 03f8 693e eb91 a8bd 0264 47be 91c3 95bc
00000040: e4bb 413e f5d7 963e 8708 253e 08ff 5cbe
00000050: 5c67 7d3e d042 d53e 6a36 403e d2c8 503e
00000060: 06be 703e a243 b63e d14e 7bbe 6170 513e
00000070: a978 0c3e dd7a d4bd 6d89 80be cdb0 69be
00000080: 422a f6bc 6114 3d3d 821f bd3e 5c6a bdbd
00000090: e4fa 303e fa13 4dbd ea7f 5a3e 8702 e1bd
000000a0: cb99 b13d 55c7 9cbe 8d73 8dbc 8c7f 203e
000000b0: d5bb 92be 0b90 8dbe 7b3b e03d cecd 8e3d
000000c0: 55e6 3cbe e4d2 0ebe c125 1abd 677f e5bd
000000d0: d3f9 1e3e 5107 48bd 3e67 91bc f90b 393d
000000e0: 76ae 99bd 48a0 583d 1339 133e 8840 bb3d
000000f0: 8367 aebd 1437 93bd 5e8d 8e3e e559 2dbe
00000100: 0274 023e f055 143e 5aca 8fbe 319e cfbd
00000110: 076a 803e c850 3fbe a5d0 ccbd e02f 7f3d
00000120: 986a 543e 88be 103e ce83 073d 56a1 533e
00000130: dfa7 b43e 6305 843e f6a2 403e e027 5d3e
00000140: 4e89 b4bd 4ecf 493c d7be b43d cc7f 27bd
00000150: bbc1 033d 5df1 963e ee43 893e 007b de3d
00000160: a394 9fbe a464 883d e71b 003e df06 993e
00000170: ee2f 81bd f5ab 853e 8f64 80bc e462 ec3d
00000180: d8dd 8f3e adaf 703e b0de 86bd 5acc 57be
00000190: 5f71 d73d 284d 233e 67a9 963e fb3d 993d
000001a0: 35fa 36be a17a 123d 586c 043c 7f8e 4a3e
000001b0: e529 923d c2fe ad3b 848d 663e c439 293e
000001c0: 417d 54be 4327 463e 54d2 5a3e e3ea b23d
000001d0: 64d9 553c 4a2c 323e 7810 033e 7e1d 87bd
000001e0: e61e df3d ae70 00be e6d1 3bbe 7478 d0bc
000001f0: 1982 7bbe 6515 5f3e 0cdc 0e3e f56b 3e3e
00000200: 6203 273e 9f68 503e 2920 5dbe 3faa 98be
00000210: d742 68be 1150 3fbd 26ed 04be de22 c83b
00000220: 3796 9abd 0439 a0bc 8dbf 47be 1e7e 3bbe
00000230: 0035 633e 2f57 093e be5a a23d 2660 cbbc
00000240: 7f00 13be 0ce3 54bd 1c40 823e b785 023e
00000250: 4c9a 4e3e 684f 42be 119b 96be 2232 b3bd
00000260: ec16 7fbe 58e2 5dbe 2b5b f43b e99c 4b3e
00000270: 97ad 153e b0e0 1c3c c7a0 af3d cec4 763e
00000280: 0277 0bbe 1d6f da3d fb7d 6a40 f51e d93e
00000290: fe21 b4be 5be9 08bf 69aa 253e d7cc aa3e
000002a0: 164b 2fbd 876f d93d cc99 46bf a330 8d3d
000002b0: 00db 523e 3dba 12c0 c0d8 fe3e f644 6ebf
000002c0: 57bb 19c0 d925 d5bf b2f2 a93f bce1 703e
000002d0: aee4 07c0 7c41 193f 1f4b 5bbe 87f6 f13e
000002e0: 7a7d acbf 79c5 e9bf 0f58 c33f 9b83 bdbf
000002f0: f525 5dbe 20ec d1be d620 833f b2a8 c83e
00000300: 36d3 b03f 872f 1f3e 59f8 03c0 b49a 50bf
00000310: dd58 a0bf 04da 24bd 0b18 1c3f a286 e33f
00000320: 48c2 1e3e 0b14 7abe 8661 3b3d 9f10 a23d
00000330: 4500 03be 1dfa dbbd 0713 963e 145c 013e
00000340: 9d66 e3bd b331 fbbd aff2 abbe 3ea0 5d3e
00000350: 5703 60be 300c 823d 28ec 7c3e f722 cf3d
00000360: a177 9cbe 487a 853d c923 c03e 8155 67be
00000370: de08 f4bc 81ee 7d3d ee82 423e d582 903e
00000380: 66dd 6b3e f3aa 84bd cca5 3a3e 0196 8f3d
00000390: 67cb c13d 6524 96be c843 893e e2c7 9bbd
000003a0: fdec 933d 68c2 a03d 5e1e 78be 00c4 7a3e
000003b0: 115d 4ebe a65e f6bc b380 c6bd 0178 ea3d
000003c0: 3f1c 46be 11a6 12bd 364c 6b3e 6889 4c3d
000003d0: 1fd9 2f3e f93b 10be 6801 183e 8dc1 373e
000003e0: 12b2 823e c8d9 453e 3f52 8b3e 9e63 43be
000003f0: e9f7 163e 3989 66bd 9c32 a1be 5512 0d3e
-0.2215564 -0.13926297 0.11090886 0.05076679 0.07732644 0.15315229 -0.07490399 0.33308676
0.2541312 -0.26593548 0.12318183 -0.23605753 0.22848515 -0.08230957 -0.19471744 -0.01828173
0.18919331 0.29461637 0.16116534 -0.21581662 0.2474646 0.41652536 0.18770757 0.20389107
0.23509988 0.35598475 -0.24541785 0.20453025 0.13717903 -0.10374997 -0.25104848 -0.2282135
-0.030049447 0.046162013 0.369381 -0.09248802 0.17283207 -0.05006788 0.21337858 -0.1098681
0.08671912 -0.30620828 -0.017267013 0.15673655 -0.2865893 -0.2764896 0.10948845 0.06972848
-0.1844724 -0.13947636 -0.03763366 -0.11205941 0.15524988 -0.048835102 -0.017749425 0.045177434
-0.07503979 0.05288723 0.14377241 0.09143168 -0.08515837 -0.0718824 0.2784223 -0.16928823
0.12739566 0.14485908 -0.2808407 -0.101375945 0.25080892 -0.1868316 -0.10000733 0.062301517
0.20743787 0.14135182 0.033084683 0.20667014 0.35284325 0.2578536 0.18812165 0.21597242
-0.08815251 0.012317492 0.08825462 -0.04089336 0.032167178 0.2948102 0.2680964 0.10863304
-0.31168088 0.06659821 0.12510644 0.29888055 -0.0630797 0.26107755 -0.01567295 0.115422994
0.2809894 0.23504515 -0.06585443 -0.21074048 0.10519671 0.15947402 0.2942612 0.07482525
-0.17868884 0.03576148 0.008082472 0.1978092 0.07136897 0.0053099105 0.22514921 0.16525942
-0.20750906 0.19350915 0.21369296 0.08736207 0.013052318 0.17399707 0.12799251 -0.06597422
0.10894565 -0.12542984 -0.18341789 -0.025448062 -0.24561347 0.21785505 0.13951129 0.1859587
0.16309884 0.2035241 -0.215943 -0.29817387 -0.22681747 -0.046707217 -0.1298109 0.006107672
-0.075481825 -0.019558437 -0.19506665 -0.18309829 0.22188187 0.13412164 0.07927464 -0.02482612
-0.14355658 -0.05197434 0.25439537 0.1274632 0.20176047 -0.18975604 -0.2941518 -0.087497965
-0.24911088 -0.21668375 0.007457157 0.19884075 0.14617 0.009575054 0.08575588 0.24098513
-0.13619617 0.106657244 3.6639392 0.4240643 -0.35182184 -0.5348107 0.16178288 0.33359405
-0.042796217 0.10616975 -0.77578425 0.06894042 0.20591354 -2.292617 0.49774742 -0.93073976
-2.4020593 -1.6652175 1.327719 0.23523611 -2.1233325 0.59865546 -0.21415375 0.47258398
-1.3475792 -1.8263389 1.5261248 -1.4805788 -0.2159651 -0.41000462 1.0244396 0.39191204
1.3814456 0.15545474 -2.062033 -0.8148606 -1.2527119 -0.04024698 0.60974187 1.7775462
0.155038 -0.24421708 0.045747302 0.079133265 -0.12793072 -0.10741065 0.29311392 0.12632781
-0.11103556 -0.12265339 -0.3358359 0.21643159 -0.21876274 0.06349981 0.24699461 0.10114091
-0.3056002 0.06517464 0.37527302 -0.22591211 -0.029789384 0.061995033 0.18995258 0.28224817
0.23033676 -0.064779185 0.18227309 0.07011033 0.09462624 -0.29324642 0.26809525 -0.07606484
0.07222936 0.0784958 -0.24230334 0.2448883 -0.2015269 -0.030074429 -0.09692516 0.1144867
-0.19346713 -0.035802905 0.22978291 0.04993573 0.17172669 -0.14085378 0.14844286 0.17944928
0.25526482 0.19321358 0.27211186 -0.1908097 0.14743008 -0.05628321 -0.31483924 0.13776524

middle_layers.0.bias f4 [40]
00000000: 3ad2 41bd fb35 d6bd e7b4 f1bb 9432 2e3e
00000010: 9d09 90be c22f 2d3d 7d09 33bd e1d8 9d38
00000020: 4c75 79be a580 96bd 2981 173d f66e 8ebd
00000030: ad1a fd3d 961b 2c3e a988 b6bd 8bbf 99bd
00000040: 7c57 9a3d 22bc 35bc b699 dc3d 8918 c93c
00000050: 22f5 223e 5d68 33be b395 40be 561b fcbc
00000060: 236a e23d a414 463e c6ed 06be 7e71 fbbd
00000070: e9a1 dabb 5d04 88bd 8d04 cabd f905 edbd
00000080: 32a4 02be 9127 a1bd 9d86 2fbe a31b 1bbe
00000090: 19ff b9bd a318 88bd 5a94 1bbe 1d23 0c3e
-0.04731963 -0.10459515 -0.0073763016 0.17011482 -0.28132334 0.042281874 -0.04371022 7.52674e-05
-0.24361151 -0.07348756 0.03698841 -0.06954758 0.123586036 0.16807398 -0.089127846 -0.07507237
0.075362176 -0.011092218 0.107715055 0.024547832 0.15913823 -0.1752028 -0.18807106 -0.030774754
0.110554 0.19343811 -0.13176641 -0.12277506 -0.006672133 -0.06641457 -0.09864149 -0.11573405
-0.12757948 -0.07868875 -0.17141195 -0.15147261 -0.09081859 -0.06645324 -0.1519331 0.1368527

layer_out.weight f4 [1, 40]
00000000: 2f81 d13d f9a0 fd3d 58de 0dbe b319 a73d
00000010: 3f79 4a3f 71cc 96be 3b65 b93e 1c1b 89be
00000020: 9561 6c3f 83b1 4cbe 5dfc f6bd 5f55 d2be
00000030: 4e90 7e3e 2455 b33c f41e ed3d 06ce 27be
00000040: e6a2 9cbe 1fee 92be 680b 19bf 81af 563e
00000050: df61 703e c5ea 88be b3f1 cfbe 0307 73be
00000060: c4d1 93be 72ef 0b3f f77a b8be a1f6 403e
00000070: 97d7 7ebe 7ebb 5dbe 53fb 33bf edda 1c3e
00000080: 2a20 87be c68b b53e a0e2 e5be b73c 0cbe
00000090: 41b2 d03d c87a 873e 29e5 98be d525 a23e
0.10229718 0.12384219 -0.13854349 0.081591986 0.79091257 -0.2945285 0.36210045 -0.26778495
0.923364 -0.1998959 -0.12059853 -0.41080758 0.24859735 0.021891184 0.115781695 -0.16387185
-0.30593032 -0.28697297 -0.5978303 0.20965387 0.23474835 -0.26741615 -0.4061409 -0.23733144
-0.28870976 0.5466224 -0.36031315 0.18844081 -0.24886928 -0.21653554 -0.70305365 0.15317889
-0.26391727 0.354582 -0.44899464 -0.13695036 0.10190249 0.26460862 -0.29862335 0.3166949
