in_model/2024-04-25 16:24:34.pth (torch, 23744 bytes, 5 tensors)

layer_in.weight f4 [70, 2]
000000 15 08 6a 3f 9c 2b 19 3e 2b 77 7a 3f 61 a6 eb 3e
       0.9141858 0.14958042 0.97838086 0.46025375
000010 01 08 ef 3d ce 6c f6 bd cd 99 27 bf cf dd 6b bd
       0.116714485 -0.120324716 -0.65469056 -0.05758458
000020 3e 88 89 be 26 c4 9a be d2 0f 8e c0 45 ef 88 bd
       -0.26861757 -0.30227774 -4.439431 -0.06686262
000030 af 23 ab bf 96 47 43 bf 1d 05 84 3e ec 52 81 3e
       -1.3370265 -0.76281106 0.2578515 0.25258577
000040 a0 93 05 3f bd a1 86 3e 32 82 d0 3f 4f d8 99 bf
       0.5217838 0.26295272 1.6289732 -1.2019137
000050 fa 68 15 3f 99 fd eb 3d 64 cd 1e 3f 14 71 35 3e
       0.58363307 0.11522979 0.6203215 0.17718917
000060 1d 25 ca be a9 da 51 be 63 6c 55 3f 9e ba 01 3e
       -0.3948144 -0.20493568 0.8336851 0.12668845
000070 79 c9 a9 3e b8 83 93 bd 44 ec 71 3e 6e 86 bd bc
       0.33161524 -0.07202858 0.23625284 -0.02313539
000080 9d 02 de bf 6c da 05 3e fb 90 b2 bf 82 bd 76 3e
       -1.7344548 0.13071603 -1.3950495 0.24095729
000090 3b 57 37 c0 29 11 82 3e f7 8f 21 c0 48 2b 42 3e
       -2.8646991 0.25403717 -2.524412 0.18961823
0000a0 01 98 37 c0 34 95 ca 3f 0f 6c 60 bf 06 9c 7d be
       -2.8686526 1.5826783 -0.87664884 -0.2476655
0000b0 0b f4 b7 3f 1d 78 8b 3d 33 e1 60 be b3 ed 19 3e
       1.4371351 0.06810019 -0.21960907 0.15032081
0000c0 23 5d 4d 3f 4a 43 b5 3b 55 f2 9b 3f f8 9c 24 be
       0.8022024 0.005531703 1.2183329 -0.16075504
0000d0 76 1f f2 be 46 9b ac 3c 75 80 b3 be b2 6e 96 be
       -0.47289628 0.021070134 -0.35058942 -0.2938133
0000e0 5a fd 33 c0 95 06 1c 3d af be 90 be 8d 55 95 bd
       -2.8123384 0.038092215 -0.2827048 -0.07291708
0000f0 6e 06 8a 3e c4 50 2b 3e 4f 6a 08 bf 07 c5 7a bd
       0.2695803 0.16730028 -0.53287214 -0.061223056
000100 57 a4 84 3f 2f 3f b4 3f f6 06 8e c0 3a 2c 28 3e
       1.0362653 1.4081782 -4.4383497 0.16423121
000110 1d d7 87 bf b2 19 b8 3e 21 92 e4 3e 16 5c 1d 3e
       -1.0612522 0.35957104 0.44642738 0.15367159
000120 ce b2 02 3f ee 75 42 3d 0a 64 21 bf f5 b1 53 be
       0.51054084 0.047475748 -0.6304327 -0.20673354
000130 bf 9d b1 bf 1f 20 08 bf b9 de ab 3f a0 4c a8 be
       -1.3876265 -0.5317401 1.3427345 -0.3287096
000140 dc ed 4d be f5 eb 89 3d c6 0f e2 3e 1e 3f 4c bd
       -0.20110267 0.06734458 0.4415266 -0.04986488
000150 a3 80 00 bf b0 43 70 3e c3 ff a8 3e c3 1c 08 3e
       -0.50196284 0.2346332 0.3300763 0.13292222
000160 5a e4 8f bf 30 7f 6f bd 6f 61 25 bf 1c 08 10 be
       -1.1241562 -0.058470905 -0.64601797 -0.14065593
000170 c3 c7 8e bd e0 f0 70 be 88 0d b3 be bd c9 5e 3e
       -0.06971695 -0.23529387 -0.3497126 0.21756645
000180 ee 08 80 3f 65 5d 97 be 52 bf 3d 3f b9 19 63 be
       1.0002725 -0.29563442 0.74120057 -0.22177781
000190 8c 7c ac 3d c2 39 83 be f7 07 bc 3f 45 53 ae 3f
       0.08422193 -0.25630003 1.4689931 1.3619162
0001a0 c5 29 e5 bc ab 98 0f be b0 fc 2b 3f e7 e0 bd 3e
       -0.027974019 -0.14023082 0.67182446 0.3708565
0001b0 06 db 84 bf 74 80 1f bd 4d 08 a6 3f 08 00 b5 3d
       -1.0379341 -0.03894086 1.2971283 0.088378966
0001c0 d8 d8 8c 3e 84 73 e5 3d da 2b 53 3d bb 25 9d be
       0.2750919 0.112036735 0.051555492 -0.3069285
0001d0 a5 ed 83 bf 90 42 b1 bd 8a 17 92 3d 75 b9 d0 3e
       -1.0306898 -0.08655274 0.07133396 0.40766492
0001e0 75 58 50 3f c2 82 b5 3e 17 ae 22 be 04 61 40 be
       0.81384975 0.35451323 -0.15886723 -0.18787009
0001f0 be 2a 7d 3f 61 b7 ae 3d b4 a9 c4 be 6c f0 01 3e
       0.98893344 0.085310705 -0.38410723 0.1268937
000200 6f 83 de be 0b c7 99 3e a3 76 dc 3e 65 ea 45 3e
       -0.4345965 0.3003467 0.43059263 0.19327696
000210 d6 1b f6 be b8 e3 8e 3e 32 ef 00 bf 44 53 ea 3d
       -0.48068112 0.2790811 -0.50364983 0.11441663
000220 ae 99 54 3f 70 1f c3 bd 9f 97 2e be 11 90 bd bd
       0.83046997 -0.095274806 -0.17050026 -0.09255994

layer_in.bias f4 [70]
000000 8d 16 93 3e fd 4a 83 bf 6b 1e 34 3f a5 c9 ed be
       0.28728142 -1.025726 0.70358914 -0.46442905
000010 80 96 78 be 1f 65 16 3d de 93 d8 3f 83 39 79 bc
       -0.24276161 0.03671753 1.6920125 -0.015211466
000020 84 e8 f4 3e f1 7d 2a bf 8d 76 3a 3f aa 77 21 3f
       0.47833645 -0.6659842 0.72837144 0.6307322
000030 7c f3 25 bf d1 10 b4 be 22 b1 66 be 9e 6a 8f be
       -0.6482465 -0.3516908 -0.22528508 -0.2801103
000040 d4 69 03 bf c0 44 9e 3f 66 53 53 be 11 e9 9c be
       -0.51333356 1.2364731 -0.20637283 -0.30646566
000050 5c a3 d3 be b7 dc 56 3f f8 eb a8 3e 34 bd 5e 3f
       -0.4133557 0.83930534 0.3299253 0.8700745
000060 79 11 4b bf c6 99 8b bf 86 66 9d 3e 0e 02 d0 be
       -0.79323536 -1.0906303 0.30742282 -0.40626568
000070 f4 0b 40 be 45 a2 11 bf c4 ec 6e 3e 28 e0 ae 3e
       -0.1875456 -0.5688823 0.23332506 0.34155393
000080 59 59 ba bf b3 a9 80 bd 33 a8 39 3f 3b e6 2e bf
       -1.4558517 -0.062823676 0.72522277 -0.68320054
000090 e9 51 89 3e 3d 9b 54 3f 60 44 ac 3e fa 4d 8b bf
       0.26820305 0.83049375 0.33645916 -1.0883172
0000a0 2a 07 76 3f 1b 11 11 3f dd c3 07 3f a5 51 6d 3f
       0.9610468 0.56666726 0.5303324 0.92702705
0000b0 49 3a 8d 3f 83 1b 28 3f 1d 93 1a bf 1d a3 35 3f
       1.1033412 0.6566698 -0.6038073 0.70952016
0000c0 10 8c 43 bf 19 40 1b bf e3 cf 49 3f 39 8f 77 bf
       -0.76385593 -0.6064468 0.78832835 -0.96702915
0000d0 7b e8 8e 3e 1d af 24 bf ec 09 90 3f b0 42 a5 bf
       0.27911744 -0.643297 1.1253028 -1.2910976
0000e0 5a 8f 0a 3f 2d fe f4 be 2d 25 66 3f f4 5e 2e bf
       0.5412499 -0.4785017 0.89900476 -0.68113637
0000f0 7a 74 6d bf 36 0a 23 bf bc 79 f4 3e 1b 8a 2e 3f
       -0.92755854 -0.63687456 0.47749126 0.6817948
000100 8c 9f 5d be 08 ea 2b bf 02 ed 9d 3e cd 3d 4c be
       -0.21642894 -0.6715398 0.30844885 -0.1994545
000110 97 6a 0c 3f 8e 48 27 bf
       0.54850143 -0.65345085

middle_layers.0.weight f4 [70, 70]
000000 60 2f 9c bd 83 7f 32 be f1 9a 4a 3e aa f6 0b 3e
       -0.076262236 -0.17431454 0.19785668 0.13668314
000010 d1 f4 f8 3d 71 8e c8 3d 6f ce 7d bc f9 e0 e6 3d
       0.1215607 0.097927935 -0.015491112 0.11273379
000020 aa c5 e7 bd 89 fe 3d 3d b5 0c 43 3a 80 b1 13 3e
       -0.11316998 0.04638532 0.0007440553 0.1442318
000030 59 5a ce 3d a9 09 0f bc 7f b3 1a 3d 99 10 07 bd
       0.10075826 -0.0087303305 0.037768837 -0.032974813
000040 2d 8a f5 bd 9a 55 33 3d e9 51 13 3e c3 3e b8 3d
       -0.119892456 0.043782808 0.14386715 0.08996346
000050 b1 8d 32 be 33 95 17 3d 1a 89 28 be c8 64 1b 3e
       -0.17436863 0.03700752 -0.1645855 0.15175164
000060 31 e3 e4 3d 5b 74 be bc aa 0e 01 be b0 8c 1f 3d
       0.11176146 -0.023248842 -0.1260325 0.03895253
000070 2d 38 cb 3c 5b 81 c9 39 25 e5 f7 bd 1c df 2c 3e
       0.02480706 0.00038434085 -0.12104253 0.16881984
000080 4e 39 84 be f6 02 d3 3d 7b 52 0d 3e e6 04 00 3e
       -0.2582497 0.10303299 0.13800995 0.12501869
000090 3b d2 4a 3e cd 81 cb 3d df cd 8d 3e 0c 39 04 be
       0.19806759 0.09936867 0.2769613 -0.12912387
0000a0 e8 d8 f5 bd 22 73 2e bd 25 b3 90 bd 4b 22 4e 3e
       -0.12004262 -0.042590268 -0.07065419 0.20130269
0000b0 9c 1f 73 3d c4 80 c2 bd d9 f8 56 be bf 51 05 bd
       0.059356317 -0.09497216 -0.20993365 -0.032548662
0000c0 61 0a 96 bd 25 78 1b bb dd 8f 98 3d af 95 4f 3d
       -0.07326198 -0.0023722735 0.07449315 0.05067986
0000d0 d5 25 8a 3d fe f0 33 be d7 d8 fa bd 64 f7 0a bd
       0.06745497 -0.175724 -0.1224839 -0.033927336
0000e0 28 c3 51 3e d3 53 89 3c 1a 76 26 3e e4 eb 82 be
       0.20484602 0.016763603 0.1625599 -0.25570595
0000f0 b9 32 c4 bd 9b f4 ad bd 9a 77 63 3e 55 59 14 3e
       -0.09579987 -0.084939204 0.22213593 0.14487202
000100 9e 73 1b bf 40 03 54 be 0c 92 b4 bd 23 d9 27 be
       -0.6072329 -0.20704365 -0.08816919 -0.16391425
000110 68 39 d6 3d e8 30 d0 bd ae 59 05 3e 5a eb 5b 3d
       0.10460168 -0.10165578 0.13022491 0.053691246
000120 8f e6 d1 bc da 11 43 3d 32 5d 39 3e e8 60 05 3e
       -0.025622634 0.047624446 0.18101957 0.13025248
000130 d2 69 41 be ed ef 61 3b f3 8c 13 3e 4d fa ff 3e
       -0.18888023 0.0034475282 0.14409237 0.49995652
000140 11 79 e7 bd 7b c8 14 be 7b 83 9f bd 85 81 7e 3d
       -0.113023885 -0.14529602 -0.0778875 0.06213524
000150 c4 85 03 bd ee 2f 68 3e a3 f6 1c 3e b3 50 98 bd
       -0.03210999 0.22674534 0.1532846 -0.07437267
000160 3c 16 b0 3c 50 21 13 3e d4 c9 37 3d 77 27 5f be
       0.021494977 0.14368176 0.044870213 -0.21792398
000170 06 3c 17 3e 65 55 fa 3d 4c bd a8 bd 02 d8 43 3e
       0.14768991 0.12223319 -0.082392305 0.19125369
000180 1d 9b cd bd 9e 61 a6 3d 0a c4 fe 3c 99 56 ae 3d
       -0.10039351 0.08124088 0.031099338 0.08512611
000190 83 c0 a0 bd 46 4e 96 bd 60 08 00 3e 78 5f 13 bd
       -0.07849219 -0.07339148 0.12503195 -0.035979718
0001a0 5e e0 74 3c 59 fd 24 3e c3 ed 38 bd 91 fd 22 bd
       0.014946071 0.1611227 -0.045148622 -0.0397926
0001b0 81 d5 4c 3e 9b cd 7c 3e 3b a2 03 3e 63 23 1b 3e
       0.2000332 0.24687807 0.12854855 0.15150218
0001c0 85 4c 10 3d 13 1b 1d 3e 14 48 2a be 3d e8 06 3e
       0.035229225 0.15342359 -0.16629058 0.1317453
0001d0 bf 70 1e 3e d0 f3 04 be da ed b8 bd 80 06 03 3d
       0.15472697 -0.12983632 -0.090297416 0.03198862
0001e0 8d 8c 0e be b4 97 0e be 9c d7 34 bc 7d be 9e 3d
       -0.13920803 -0.13925058 -0.011037733 0.077511765
0001f0 38 c4 b4 3d f2 1a b1 3d 9a 8d 3d be ba 05 18 3e
       0.08826488 0.086477175 -0.18511048 0.14845935
000200 50 ef 0e bf e0 a5 5c 3d 6a 49 04 3d fb 7d 82 bc
       -0.5583391 0.05386913 0.032296576 -0.015929213
000210 ed 41 ad bd b5 56 1a 3d 22 42 15 be 37 66 aa bd
       -0.0845984 0.037680347 -0.14576009 -0.08320277
000220 79 9e ba bd 95 3e 2a 3e 90 f9 f6 3c 09 fa ac 3d
       -0.091122575 0.16625436 0.030148298 0.08446128
000230 e0 14 35 be 50 21 f7 3e f7 1f a6 bd ce 35 db bc
       -0.17683744 0.48267603 -0.081115656 -0.026759055
000240 96 21 fc bd a0 9f 16 3e 7e fc 07 bf b6 35 5d 3e
       -0.123110935 0.1470933 -0.5311965 0.2160252
000250 a7 b2 28 be 2b 46 8f 3f eb 5c 9b bd f9 04 5f be
       -0.164744 1.1193289 -0.07586082 -0.2177924
000260 2f 95 0a 3e 62 fa e5 3e d1 ad ae 3e 6d 5b 1f bd
       0.13533472 0.4491759 0.34116986 -0.03890555
000270 3e 64 4c 3e b1 ed 9d be 19 2d f7 3d e5 77 e4 ba
       0.19960114 -0.30845407 0.120691486 -0.0017430751
000280 36 fc 39 3e c0 dd 94 be 36 3a 32 3d b6 63 2c be
       0.18162617 -0.29075432 0.043512546 -0.16834912
000290 40 41 5d 3e 9c a7 88 3e 67 41 f2 be e3 82 ba bc
       0.21606922 0.26690376 -0.47315523 -0.02276749
0002a0 66 5b e7 3d b0 ef 2b 3b c4 e4 c7 3a e8 9a 89 be
       0.1129673 0.0026235394 0.0015250673 -0.26875997
0002b0 17 35 16 3f 9e ac 22 be c7 79 ed be f2 c3 a0 bd
       0.5867476 -0.1588616 -0.4638197 -0.078498736
0002c0 87 c4 cc bd aa e2 43 be 4d d8 7e be 98 9c 02 3f
       -0.09998422 -0.19129434 -0.248872 0.51020193
0002d0 bc 18 73 be ab 15 32 3e b6 e4 89 be 53 21 32 3d
       -0.23739904 0.17391078 -0.26932305 0.04348881
0002e0 01 c6 9e bf c8 1d ab be ed 98 5c 3d 26 5f 9c bc
       -1.2404176 -0.3342116 0.05385678 -0.019088339
0002f0 10 03 12 3f a5 4a aa 3d 18 0e 0d be c9 0b c1 3d
       0.57035923 0.083150186 -0.13774908 0.09426076
000300 be 89 31 be 84 88 da 3d 15 bd 22 be cc 1c 04 3f
       -0.173377 0.106705695 -0.15892442 0.5160644
000310 38 bc a5 3d 5d 34 89 bd 06 63 5c bf c8 e7 82 ba
       0.080925405 -0.06699441 -0.860886 -0.0009987289
000320 55 7e 36 3f 4c 3f 0d 3e 7a 44 d9 bd 30 98 67 3d
       0.7128652 0.13793677 -0.10608764 0.05654162
000330 d2 5e da 3d f5 96 b5 3d 8d 00 d7 bd 88 79 e6 bc
       0.10662617 0.088666834 -0.10498152 -0.028134122
000340 42 5a 7c 3c 4b 97 11 3e 95 08 94 3b 05 55 04 3e
       0.0154023785 0.1421787 0.0045176246 0.12923057
000350 a7 5b 25 bd 84 8f 13 be d8 3f 83 bd 3c 9f 3e 3d
       -0.04037061 -0.14410216 -0.064086616 0.046538576
000360 bf 69 15 bc e2 72 00 3e a6 15 19 3c e8 8c 64 be
       -0.00911945 0.12543824 0.00934354 -0.22319376
000370 71 2a a7 3d b0 50 37 be 93 f8 1e 3c 42 47 07 be
       0.08162392 -0.17901874 0.009702819 -0.13210776
000380 66 df 88 bd bc ca ea bd f9 ee 15 3e 44 93 83 3d
       -0.06683235 -0.1146445 0.14641942 0.06424573
000390 66 e8 93 3d 0d 90 e7 3d 81 7a 24 be 22 c6 d7 3d
       0.07222061 0.113067724 -0.16062357 0.10535838
0003a0 e8 dd df 3c c9 20 d7 3d 5d 28 31 be 8f e5 37 3d
       0.027327493 0.105043 -0.17300554 0.04489666
0003b0 14 c4 1f 3e f3 1f 08 be ab 2a 2e 3e 34 d6 33 be
       0.15602142 -0.13293438 0.17008464 -0.17562181
0003c0 59 dc 1a 3e 23 fb c0 3d 0d de fe bd bc 8f 99 3c
       0.15123118 0.094229005 -0.124446966 0.018745296
0003d0 c0 27 8a 3d 01 2d 0f 3d 80 e6 05 be df 2f 9b 3d
       0.06745863 0.03495503 -0.1307621 0.0757749
0003e0 d3 d6 71 be f2 46 0f be 7c 67 72 bd f6 e3 3b be
       -0.23617105 -0.13991907 -0.05918072 -0.18348679
0003f0 9c 23 0f 3e 04 fe b2 3c b3 f7 8a be 03 9c 42 bd
       0.13978428 0.02184964 -0.27142105 -0.047512066

middle_layers.0.bias f4 [70]
000000 44 8a 06 bd 5f 13 96 3d 32 b8 f6 bd 41 0a 67 bd
       -0.032846704 0.073279135 -0.12046851 -0.056406263
000010 bb d2 3e 3d 0c 05 3a 3d 2e e4 c5 3b 81 90 0a bd
       0.046587687 0.04541497 0.006039164 -0.033829216
000020 17 d8 3f 3d 4e 71 11 bf 86 de 03 be ae 37 ac bd
       0.04683694 -0.56813514 -0.12877855 -0.084090576
000030 54 62 89 3d 96 90 3f 3d 3d e9 ed 3d 19 90 76 bc
       0.06708208 0.046768747 0.11616752 -0.015049004
000040 2e aa ea 3d c6 4e e6 bd 3d 25 20 3d e2 8f d4 3c
       0.114582404 -0.112454936 0.039098013 0.025947515
000050 ff fb 12 3e ee 54 e5 3d 1e d5 7c be 6d 4f 92 3d
       0.14353941 0.1119784 -0.24690673 0.071440555
000060 f7 4d fa 3a 6c dc ec bd 69 0e 1f bd b1 09 bd bd
       0.0019096722 -0.1156548 -0.038832102 -0.09230364
000070 88 19 e8 bd ef e0 93 3d a1 43 6b 3d 55 dd 5c 3d
       -0.11332995 0.07220637 0.057437543 0.053922016
000080 fa 72 b9 bd 03 70 90 3d d4 88 c8 bd ee c8 92 3d
       -0.09055133 0.070526145 -0.09791723 0.071672305
000090 ff 24 fb 3c de d6 e5 bd d4 37 0c bd cf 06 b4 3d
       0.03065729 -0.11222623 -0.03423293 0.08790361
0000a0 eb 7e b8 bd c5 20 d9 bd ef 34 04 3d 7b 91 84 3c
       -0.09008583 -0.106019534 0.032277044 0.016182652
0000b0 64 7d 76 bc dc ed 97 bd c2 ad 80 3d 9f bf 02 be
       -0.015044544 -0.07418415 0.06283142 -0.1276841
0000c0 3d cc 9c 3d 3b 41 07 be 3d ac 09 bb db a1 8d bc
       0.07656143 -0.13208477 -0.0021007203 -0.017289093
0000d0 1c 53 9c 3c c2 81 92 bd 7a a8 32 bd 30 32 46 bd
       0.019082598 -0.071536556 -0.043617703 -0.048387706
0000e0 ad 1e b4 bd 72 71 96 3d 20 8f e9 3d 9c 6f 1e bd
       -0.087949134 0.07345857 0.11404252 -0.038680658
0000f0 1a e2 88 bd f4 52 35 bd 90 3e 9c 3b a0 cf 38 3c
       -0.066837505 -0.044268563 0.0047682 0.01127997
000100 5a 03 ca bc ff 5f ef bd 1f a1 a5 bc 3b 2c f4 3d
       -0.024659801 -0.11688232 -0.02021843 0.11922499
000110 ed 96 0f 3d fd 71 56 bd
       0.035056043 -0.0523548

layer_out.weight f4 [1, 70]
000000 c0 17 1c 3e 15 6d 09 be 83 da 9f be 36 52 04 be
       0.15243435 -0.13420518 -0.312214 -0.12921986
000010 1f 32 d3 bd 85 84 57 3d 93 0f 62 be 48 cd 5f be
       -0.10312294 0.052616615 -0.22076254 -0.21855652
000020 0f 85 30 3e 65 f2 81 3f c5 67 ad bd 08 34 5a 3e
       0.17238258 1.0152098 -0.08467058 0.21308911
000030 4f 07 a2 ba 24 5e 8e 39 2a 04 67 bd c2 64 65 be
       -0.0012361797 0.0002715449 -0.056400456 -0.22401717
000040 08 b3 2e be 9d 4c 45 bc f4 89 36 bd 20 d2 db 3c
       -0.17060483 -0.012042192 -0.044565156 0.026833594
000050 d0 fa 21 3e 4a 8d 58 3e 3d 82 70 3f aa a2 64 3e
       0.15818334 0.21147648 0.9394873 0.22327676
000060 75 39 a5 39 97 f2 3f 3e 2c 23 65 3e 2c 83 3b be
       0.0003151406 0.18744884 0.22376698 -0.18311757
000070 79 97 12 3e dc 3f 8b 3d f4 65 0f 3d 2d e8 f6 bd
       0.14315595 0.067992896 0.03500934 -0.12056003
000080 64 da bf 3c 3f ec 23 be 49 2f c1 3d d0 82 16 be
       0.023419566 -0.1600809 0.09432847 -0.14698339
000090 91 32 20 be 7d b5 46 ba 5e 0d 6a 3e 6c 69 35 be
       -0.1564429 -0.00075801444 0.22856662 -0.17715997
0000a0 fc 5b 93 be 84 b7 c8 3e 54 81 cc be 0e ae 5f 3d
       -0.28781116 0.3920251 -0.3994242 0.05460935
0000b0 59 2e 53 bb 83 ce 60 3e de e1 99 bd 2e 49 7e bd
       -0.003222367 0.21953778 -0.07513784 -0.06208151
0000c0 b0 ee 5a bc 83 3c 43 be d0 50 19 be 23 5f 46 be
       -0.013362572 -0.19066052 -0.14972234 -0.1937223
0000d0 d0 5d 83 bc 38 1c 64 bd 62 c9 e0 bd 49 7b 18 3e
       -0.016035944 -0.055690974 -0.10975911 0.1489078
0000e0 14 50 fa 3d c3 b9 80 3e 65 78 2e ba 44 3e c7 3d
       0.12222305 0.25141725 -0.00066555134 0.09728673
0000f0 f2 bb 4a be 8c 09 29 bb b0 91 0a be d4 d8 58 be
       -0.19798258 -0.0025793044 -0.13532138 -0.21176463
000100 45 71 ee 3a 0f c8 8c bb 37 9d f9 bd fd c4 81 be
       0.0018191716 -0.00429631 -0.121881895 -0.25345603
000110 33 48 d8 3d 08 3c 2d bc
       0.10560646 -0.010573395
