in_model/April 24 - 15:28.pth (torch, 8290 bytes, 5 tensors)

layer_in.weight f4 [35, 2]
00000000: 0dd8 c83f e343 cdbe 8cec 8e40 db71 d3bd
00000010: afb3 f8c0 fefb a63e ee49 dd3e 1746 853f
00000020: 3883 ecbf 5fe7 333d 8262 db3f f34b b1bf
00000030: c019 f0bd a65e 4abf 2412 d0c0 3a08 913f
00000040: e28b 02c0 6659 353e 2fbe b03f 76d1 883e
00000050: f626 4f3f bed7 ba3e 9d0d 02bf 7f29 4fbe
00000060: cf82 903f 4c2e 95bf 9611 7cbe aea0 9fbf
00000070: 49af c6c0 7244 8abe ee49 02bf fc79 63be
00000080: 98c0 213f f197 c1bc de8c 953e f7dc 1440
00000090: 163e 173f 45b7 2ebf d05b 56bf f6f4 413f
000000a0: cc95 08c1 6ee2 02bf c499 27bf defb 95bf
000000b0: 543d 40bf 24d8 5abe 0eaa 21bf 6de8 f7be
000000c0: 24f5 d43e 56ed fa3e 48c7 0f3f e4fc e4bd
000000d0: 3972 e33e a716 0a3e f930 d7be a279 99be
000000e0: d05d 4341 c2b8 97bf d0bf 2041 415c 9fbe
000000f0: a714 e3be 0641 c8be fb30 293f 37cd 573f
00000100: 3834 9a3e 6668 e53e 53c8 edbf d9fa 0f3e
00000110: 8ec8 8d40 8c5c 993f
1.5690933 -0.40090856 4.4663754 -0.103244506 -7.771934 0.3261413 0.43220466 1.0412015
-1.8477545 0.043921825 1.7139437 -1.3851303 -0.117236614 -0.7905067 -6.5022144 1.1330636
-2.0397878 0.17709884 1.380804 0.26722306 0.80918825 0.36492723 -0.5080202 -0.20230673
1.128992 -1.1654754 -0.24616084 -1.247091 -6.208897 -0.27005345 -0.5089406 -0.22214502
0.631845 -0.023632022 0.29209036 2.3259866 0.5907911 -0.682484 -0.83733845 0.75764406
-8.5365715 -0.51126754 -0.65469 -1.1717489 -0.7509358 -0.21371514 -0.6315011 -0.48419514
0.41593277 0.49009198 0.56163454 -0.111810476 0.44423082 0.13485204 -0.4202955 -0.2997561
12.210403 -1.1853259 10.046829 -0.31125072 -0.44351694 -0.3911211 0.66090363 0.8429751
0.30117965 0.44806212 -1.8576759 0.14060535 4.430732 1.1981368

layer_in.bias f4 [35]
00000000: 09e3 90bf 1c5a 303f 7506 4d3f a4ef b13e
00000010: 70b7 c93f ff8e 75be 75fb a3bf a7f2 0540
00000020: cb0f df3f 060c 98bf a052 e43e f584 71bf
00000030: 4f4c 683f cf22 adbf 178f f43f 9ed3 71bf
00000040: a110 6c3f d749 fcbe fcba 4e3f 180e 53bf
00000050: 9163 6a3f 9405 963f e412 e2bf 241e 91bf
00000060: 4676 c23f 3c46 7b3f 3f4a 723f 8f26 abbf
00000070: 5cc5 abc0 69fe b5c0 65b4 b8bf 22b4 1440
00000080: 11f9 2c3f 174e c33f 4dbb bebf
-1.1319286 0.68887496 0.8008798 0.34753144 1.5759106 -0.2398033 -1.2811114 2.0929353
1.7426695 -1.1878669 0.44594288 -0.943435 0.9074144 -1.3526248 1.9106168 -0.9446353
0.92212874 -0.49275085 0.80754066 -0.8244338 0.91558176 1.1720452 -1.7662015 -1.1337323
1.5192344 0.98154044 0.9464454 -1.3371142 -5.3678417 -5.687306 -1.4430052 2.3234944
0.67567545 1.5258206 -1.490091

middle_layers.0.weight f4 [35, 35]
00000000: 2028 58be 76fa 5a3e c321 3fc0 6ba3 b3bc
00000010: 408c 393e f90b b93f c200 a9be 8790 73bf
00000020: a6e3 3d3e 38f6 bebd cd44 ed3e ae5c 9fbe
00000030: d899 b0be 82a7 d5bd 79a6 41bf 1af0 e13c
00000040: e4a1 193e a55f 87be c9b4 c63d c9e1 b73e
00000050: 8182 07c0 c677 68be c321 efbe 3c44 e5be
00000060: c502 fd3d 01b7 833e 9c6f cd3e a79b 9abc
00000070: fd4b a43e f915 fb3d f6b1 28be 4205 c83d
00000080: 5415 8bbd 0353 80bd 3429 b33e dee4 b53e
00000090: 2123 943f ddec 13c0 965d ea3e 8bc9 9abe
000000a0: a36e 8040 f174 27bf 98fd 91c0 5c38 843d
000000b0: 2192 b13f f175 a13f 4024 d8be ce29 bfbf
000000c0: 0846 1abe a2dc 72c0 6dd7 08bf 0e64 0a3f
000000d0: c57f 143e 69f6 45be 7e71 253f 5a17 02c0
000000e0: 0b81 bcbf feb6 bbbe f76c 2cbf 2d2e c33e
000000f0: b404 ad3d 0d82 413e 9c1d 06bf 5f5a b040
00000100: 59ca 1040 b64d 2cbe 1fb6 b23e 6f55 1c3f
00000110: b3f8 52be 9fee 6f40 d0a4 41be aaef 773f
00000120: 5189 afc0 59ea 893f 8c62 bf3e 7203 98be
00000130: 6087 f4be a56f 46c0 02b1 173f 5d7b 06be
00000140: bbbc fc3f 53c7 76be d425 24bf afe9 38bf
00000150: 6549 e9bf b191 0bbf 817d 6b3f b149 e63e
00000160: 62b3 93be 3e73 7a3d 26b9 98c0 6ffc a8bf
00000170: 0044 83bf 4b61 87bf 45b2 ad3f 4b2d 843c
00000180: 12c3 663e b0b7 9bbe 0031 c33d 70eb 2b3e
00000190: 45c2 f2be 293c 533f 9bdc 3a3f 1d8e 203f
000001a0: c6e1 453f d81e 193f 9f5f 733e d359 8fc0
000001b0: 2c98 a83f c117 80bf 802b 34c0 cf46 ab3e
000001c0: a793 16c1 3f79 44bf 297b 8a3f 9a75 bd3f
000001d0: 7a16 5e3e 492c 4640 a303 82bc 2611 17c1
000001e0: 322f 203e f99b 953e e347 2740 db19 963f
000001f0: 3fc4 cdbf 7045 51c0 3922 1240 cfaf 993e
00000200: 5b9e 03be 8257 843d 12a0 a93e d6a7 d63c
00000210: 02f6 f13d df1c e240 52e8 1540 76fc 393e
00000220: 0466 523d 1417 5ebe 1914 9bbf db6f 8b40
00000230: 972c 58be 2466 da3e bd64 11c1 ba72 c13e
00000240: 3e5f 9bbd 23e4 543f 794e 5cbd 5386 9dc0
00000250: effa 04be 7080 aebe b69e 153f ac0c 68bd
00000260: b241 b63f 873f 1abd c807 ecbf 10c2 abbe
00000270: 33df 8b3f da30 ec3e ebbc 083f b8aa 32bf
00000280: 607e 6fc0 6013 463f 3953 15bf dee9 b6be
00000290: fc56 1e3f 52de 0f3f 9e7d 8a3e 1cf6 27be
000002a0: 73a8 0b3d 1a9f a9be 4667 a3bd 2781 f93e
000002b0: 13ca 983e db3d d13e af84 633e 04c1 5f3f
000002c0: 6e4c f9bf 8050 b840 4400 86bf 571c 35bf
000002d0: dafa dac0 ef77 bb3f e0fe 9140 2a4b 35bf
000002e0: 41da b2bd 1159 38c0 a659 a93f f184 583f
000002f0: 59aa 8d3f a889 5340 0081 973f 5634 e1bf
00000300: 913c 0340 b100 753d 1737 13bf ba58 d840
00000310: 8c80 1740 ec40 f13f 8cd6 cb3f 8862 2fc0
00000320: 454b 77bf 82bb 99bf fd39 733f c1ab a2be
00000330: 5b21 dcbe d0ea 8a3f 6a05 debf 02d0 89bf
00000340: 4bf2 37bf 28b2 f1bf cde5 3440 550c fd3e
00000350: 544d 9bbf 8995 fabe cd7b 62c0 b042 963d
00000360: 66b1 20bf e7f1 2fc0 defe 34c0 993f a940
00000370: 84c2 bd3f dca4 34bf d7e1 aec0 1d00 59be
00000380: 09e3 a0c0 59e6 71bf 35ac 973f f307 80c0
00000390: a824 86bf 8e45 db3f a6a3 83bf 271b 81c1
000003a0: efa7 0dbf ec25 c7be 0ef6 1e3f d6b6 0b3f
000003b0: ca77 283f 5f47 a4be 9b89 3f41 2ded 1e41
000003c0: 5935 dfbe ebd5 423f 929e 733f dc9d 43c0
000003d0: b8f9 9140 e367 3cbe cbac 4f3f 2164 39c0
000003e0: 4c28 3b3f 3275 013f 4f5c 293f 25a1 d3be
000003f0: 569d 88bf 000e 4c3e 01b2 573c b27f 4a3f
-0.21109056 0.21384606 -2.9864357 -0.02192851 0.18119907 1.4456779 -0.3300839 -0.95142406
0.18543872 -0.09324306 0.46341553 -0.31125396 -0.34492373 -0.1043234 -0.7564464 0.02758031
0.15003163 -0.26440158 0.09702451 0.35914448 -2.1173403 -0.2270194 -0.46705446 -0.4477862
0.12354044 0.25725558 0.40124214 -0.018873049 0.32089224 0.1226005 -0.16474137 0.09766628
-0.067911774 -0.06265833 0.34992373 0.35526174 1.157322 -2.311332 0.45774525 -0.3023189
4.0135055 -0.65412813 -4.5622063 0.06456062 1.387272 1.2614118 -0.42215157 -1.4934633
-0.15065777 -3.7947164 -0.53453714 0.5405892 0.14501865 -0.1933228 0.646263 -2.0326753
-1.4726881 -0.3666305 -0.6735377 0.38121167 0.08448163 0.18897267 -0.5238893 5.5110316
2.2623503 -0.1682652 0.34904572 0.6106786 -0.20602684 3.7489393 -0.18910527 0.96850073
-5.4855123 1.0774642 0.37379873 -0.2969013 -0.47759533 -3.1005642 0.5925447 -0.13132997
1.9745096 -0.24099474 -0.6412022 -0.7223157 -1.8225523 -0.5451918 0.9198838 0.44978097
-0.28847796 0.06114506 -4.772601 -1.3202037 -1.0255127 -1.0576566 1.3570029 0.016134879
0.22535351 -0.3041358 0.095308304 0.16789031 -0.4741384 0.8251367 0.7299287 0.6271685
0.7729763 0.5981269 0.23766945 -4.479715 1.3171439 -1.0007249 -2.815155 0.3345246
-9.411048 -0.76747507 1.0818835 1.4801514 0.21688262 3.096453 -0.015870875 -9.441687
0.15643004 0.2922056 2.6137626 1.172664 -1.6075515 -3.2698631 2.2833388 0.30016944
-0.12853377 0.06462003 0.33129936 0.026203077 0.118145004 7.0660243 2.3423047 0.18162712
0.05136682 -0.21688491 -1.2115508 4.357404 -0.2111076 0.42656052 -9.087094 0.37782842
-0.075865254 0.8316061 -0.053785775 -4.922647 -0.12986349 -0.34082365 0.584453 -0.05665271
1.4238799 -0.03765824 -1.8439875 -0.33546495 1.092749 0.4613102 0.53413266 -0.69791746
-3.7420883 0.77373314 -0.5833011 -0.35725302 0.6185148 0.5619861 0.27048963 -0.16402477
0.034096193 -0.33129197 -0.07978682 0.48731348 0.2984167 0.40867504 0.22218584 0.87403893
-1.947645 5.7598267 -1.0468831 -0.7074637 -6.8431215 1.4645976 4.5623627 -0.70817816
-0.08733035 -2.8804362 1.3230484 0.8457785 1.1067611 3.3052769 1.1836243 -1.7594097
2.0505717 0.059815113 -0.57505935 6.760831 2.3672209 1.8847938 1.592485 -2.7403889
-0.9659923 -1.2010348 0.9501036 -0.31771663 -0.42994198 1.0852909 -1.7345402 -1.0766604
-0.71854085 -1.8882494 2.826526 0.4942347 -1.2132974 -0.4894221 -3.5388062 0.073369384
-0.6277069 -2.7491395 -2.8280559 5.2890134 1.4824986 -0.70564055 -5.4650683 -0.2119145
-5.0277143 -0.9449211 1.1849428 -4.0009704 -1.0479937 1.7130601 -1.0284317 -16.138258
-0.5533437 -0.3889612 0.620942 0.5457586 0.65807784 -0.32085702 11.971095 9.932904
-0.4359539 0.7610766 0.95163834 -3.05651 4.5617332 -0.18399005 0.81123036 -2.8967364
0.73108363 0.5056945 0.66156477 -0.4133388 -1.0673015 0.19927216 0.013164998 0.791011

middle_layers.0.bias f4 [35]
00000000: dc05 363e 2773 2a3e 55eb c33e b45d 1cbe
00000010: 30b5 493e 6c2c 5dbf 9648 db3e b9e0 603d
00000020: c3f7 4dbd d6c0 033e 0674 02be 6c79 98be
00000030: 212c f0bd 83cc 3bbf 2c6d 8a3e ed48 963d
00000040: f79b 74bf ebdd 203e 2e7b 803e 7a8c 03bd
00000050: ec87 b93e 9857 ce3e 3ec9 0a3f 0c8c babd
00000060: ccd9 cabe 0947 3cbe 10fe e63e eb1a eb3e
00000070: d1db 17bf 52b3 29be 9704 babe c7e9 81be
00000080: fcac 923d c808 03bf 7d45 0b3f
0.17775673 0.1664549 0.38265482 -0.1527012 0.19698024 -0.8639591 0.42828816 0.054901812
-0.050285112 0.1286653 -0.12739572 -0.29780138 -0.11727167 -0.73358935 0.27036417 0.07338128
-0.95550483 0.15709655 0.2509398 -0.03211639 0.36236513 0.40301204 0.5421332 -0.09108743
-0.3961929 -0.18386473 0.4511571 0.45918974 -0.5931979 -0.16572312 -0.36331627 -0.2537367
0.071619004 -0.51185274 0.54402906

layer_out.weight f4 [1, 35]
00000000: d820 813f 2e35 bec0 0c1e bebf 1710 9940
00000010: 7c79 52bf 80b3 1b40 4703 8540 b39d 5c3f
00000020: df29 a43e 71bb a040 9bce 8abf 0036 16c1
00000030: 7dd2 29bf 7ea8 ccc0 7fd3 14bf 7fca 7b3f
00000040: aa2e 3c40 5a94 fa3e 56c6 09c0 f644 99c0
00000050: 9285 b440 906b 9ebf 7fa3 f9bf cd81 6bc0
00000060: 1a17 7e40 a52a 96c0 7333 9f40 40c5 c13f
00000070: 1268 99c0 45d3 55bf 6913 38c0 8836 cebf
00000080: b933 c9c0 262e 8740 117b fb40
1.0088148 -5.9439917 -1.485292 4.783214 -0.8221662 2.4328308 4.15665 0.8617813
0.32063195 5.022881 -1.0844301 -9.388184 -0.66336805 -6.395568 -0.5813522 0.9835586
2.9403481 0.48941308 -2.1527305 -4.789668 5.641305 -1.2376575 -1.950302 -3.6797974
3.97016 -4.6927056 4.9750304 1.5138321 -4.793954 -0.83525497 -2.8761847 -1.6110392
-6.287564 4.2243834 7.8587728
