in_model/April 24 - 15:31.pth (torch, 8290 bytes, 5 tensors)

layer_in.weight f4 [35, 2]
00000000: 5676 03be af01 0a40 acfe 30c0 ce85 863e
00000010: 6215 1fbe 4120 8cbf aacd afbe 1527 a5bf
00000020: 38bb d93e feff 393f 33d3 d53d 4dd1 3b3f
00000030: 2222 33be 59c1 92bf 00fa 9bbf 045e f43f
00000040: fc2f 32bd 90c0 c440 76dd d43f ff83 ba3f
00000050: 6ed6 533e 2527 b3c0 0a6d e4bd f52f e83f
00000060: a38f 49be 0b8a 91bf 368d 3c3e d05f 9f40
00000070: cf70 4f3e 126f 9b3f 082d d13d 35af 7040
00000080: 3a90 b93e 0755 c5c0 9057 eabc 688c b840
00000090: 9ca2 f9bd fb47 9cbe d526 983d 637d c23f
000000a0: 7423 6fbf 43bb 8bbf 8fae dcbf f323 d73f
000000b0: 5c56 c0bd 5d14 b7bf 70cb 4abf c1fd 55c0
000000c0: 298c 123e 61da 19bd cdd3 92bd 671c 9bbf
000000d0: fe95 86be 96c0 89c0 730d e9bc c85c 14c0
000000e0: 559a b6bf 45ef de3f 90e3 b3be e0ad 6fbf
000000f0: 1ad0 8dbf e507 db40 da4d 98be 1af3 aebf
00000100: 9923 b03f 836e cf3f 78cf 82be fdd0 35bf
00000110: c746 6fbe 680c 85bf
-0.1283811 2.1563528 -2.765544 0.2627396 -0.155355 -1.0947343 -0.34336597 -1.2902552
0.4252565 0.7265624 0.10440674 0.7336624 -0.1749349 -1.1465255 -1.2185669 1.9091191
-0.043502793 6.148506 1.6630085 1.4571532 0.20687267 -5.5985284 -0.1115361 1.8139635
-0.196837 -1.1370252 0.18413243 4.980446 0.20257877 1.2143271 0.10213667 3.7606938
0.3624285 -6.1666293 -0.028606206 5.7671394 -0.121892184 -0.30523667 0.074292816 1.5194515
-0.9341347 -1.0916523 -1.7240771 1.6807846 -0.09391472 -1.4303089 -0.7921667 -3.343613
0.1431128 -0.037561778 -0.07169304 -1.2118043 -0.2628631 -4.304759 -0.028448796 -2.318163
-1.4265848 1.7416769 -0.35134554 -0.9362469 -1.1079133 6.8447137 -0.29746896 -1.3667939
1.3760864 1.62056 -0.2554891 -0.71022016 -0.23366843 -1.0394411

layer_in.bias f4 [35]
00000000: 7019 f7bf dbc9 a53e 408c d03e 6c93 893f
00000010: 61fa 8d3f 1a50 76bf 633a 9bbf b58f 97bf
00000020: d152 16c0 9bea 0cc0 1542 acbb 7342 cbbf
00000030: 4e7b 463f bebc 873e aa1d 223f 5eaf 203f
00000040: b6bf 3e3f c48d 59be 887a c2bf fc2a c53f
00000050: 3a8d a2bf f3fb d2be e400 8c3f e335 ac3f
00000060: eff1 c43f d3b1 723f 731a 7cbf 8de8 0840
00000070: 9685 483f 34fe 52bf 7bef 21c0 214d a33f
00000080: 2340 d3bf 644e 8bbf 63dc 9ebf
-1.9304638 0.32380566 0.40732002 1.0748115 1.1092035 -0.96215975 -1.2127193 -1.1840731
-2.3488047 -2.2018192 -0.005256901 -1.5879654 0.775319 0.26511186 0.63326514 0.6276759
0.7451128 -0.21245486 -1.5193644 1.5403743 -1.2699349 -0.41207847 1.0937772 1.3453945
1.5386332 0.9480259 -0.9847786 2.1391938 0.78328836 -0.82419133 -2.5302417 1.2757913
-1.6503948 -1.0883298 -1.2411007

middle_layers.0.weight f4 [35, 35]
00000000: db8f ab3d fc9d 7ac0 644d 1b3e c5a6 76bf
00000010: 162c 4f3f fd38 13bf 5cac 86bf 1788 70bd
00000020: c4d2 5241 4711 d9bf 942d 9d3f 37c9 343e
00000030: 4ba3 4cbf 612e 8abd 3fa8 6e3f ca5b 8c3e
00000040: 452e a7be 4c20 44bf 27d4 65bf 4236 463f
00000050: cbeb 84bf 5245 d03d 4744 03be 2723 97c0
00000060: 837d 403f e391 a6be d158 dbbe 6eb8 5c3e
00000070: a833 3040 e030 92bf 459a 1341 e849 1d3d
00000080: af6e 34be 10be 6ebf 57a8 4cbf c024 d43f
00000090: 26cd 9abf 6be5 10bf bcb8 5bc0 b752 01be
000000a0: 6c60 363f 5fc8 f33d e4b2 8640 d340 43bf
000000b0: 598c 5340 7b04 db3e cb4c b03f 33fc 8bbf
000000c0: 5465 88bf 9d09 023d fa07 fbbe 96de 003f
000000d0: 1798 36bf e858 ed3e c558 b3be ed16 4c3e
000000e0: 4739 9440 f487 61c0 fa25 243f 70ed 2cbf
000000f0: 5059 90bf 8ec4 f43e 2aa6 49c0 85e0 893e
00000100: 7ecb d73c 0fab d7be 2d6c 8cbf baca 3e40
00000110: 49a3 0d3e ebb2 d83e 5385 bdbe 0b11 07be
00000120: 3f76 d0bd b9b5 833e f809 553d 920f ffbb
00000130: 501a 94be 630d 033e 2d8d b13e b584 6cbd
00000140: d0bf ebbe 9a37 69be 4e71 0d3e aefc 693f
00000150: 3f9e ff3e c999 ea3e 4bd6 70bf 9c2e 373f
00000160: 5b1c c7be faee b83e 5263 f23d 03ec 6ebd
00000170: 4d11 dbbd 184a 91bd 7145 0d3e 6e90 783e
00000180: a1cb 2ebe c3c3 bb3e d8b8 61bc e819 8ebe
00000190: 3b70 f43e 4760 01bd 1913 4dbd 6617 46be
000001a0: 22b7 5abc 9c7f 463d 7e6e 0e3f f938 8c3f
000001b0: 2987 c53f 3249 8dbe bbb4 bdbc cec7 133f
000001c0: 4e46 71be 95aa 42c1 9393 12c0 dbfe 88bd
000001d0: b98e 3fbe 436c a33f 3f57 a3bf e2f4 80bf
000001e0: 3db3 2ebf ddf6 973e 3354 34be 5bc4 123f
000001f0: 56bb 44bf 10fd 153f b3dc c0bf 8d8f 8a3f
00000200: e983 e040 12d4 67be 8591 7d3f 41e0 813e
00000210: eac6 53bd b225 04c0 fc71 403f d3be 1ec1
00000220: 147c 0a3f 0796 19c0 ec0f d73e f2fd 293f
00000230: b445 e540 88d4 c940 8a21 1bbf dbe3 b2c0
00000240: 50af 2bbd 39d1 9f3f 67b4 e83e 9524 8e40
00000250: 4f59 4abe 7df4 b240 66cb b03e a79a 9740
00000260: 9ab0 61c0 9357 5abf c6cf 0abd bfdf 97be
00000270: c9f3 9b3d 15f3 0cbf af68 503e 9dea 12bf
00000280: 5cd5 993d 6885 a93f e738 acc0 525c f03e
00000290: 0f54 abbe 6b89 6ac0 0493 f63d f5ed 19c1
000002a0: 3d97 22be bc9c 70be a01f ffbd 917c afc0
000002b0: 7d89 9340 6e54 aa3e d674 e73d dea1 4e3e
000002c0: ef9e 1abf 609c 7abf 7210 1940 f0e3 34bf
000002d0: 1625 f63e c3c9 ac3f b98e adbf 2b28 92c0
000002e0: 29f6 b8bf 4827 8f40 1a33 733e 999f 9dbd
000002f0: 1651 5ec0 7e6b e9bf 6054 78c0 fd3f 6940
00000300: 2806 77c0 fcbb 5a3f ae13 87bf 79c4 603f
00000310: 974b ebbf ac79 0740 5bcc 5b40 ee7f f9be
00000320: 8303 c6be 1cd0 ef3f b922 273e ee4d 8ebf
00000330: a1d1 403f 9847 83c0 11c9 4bbf db51 dcbf
00000340: 8d3b 8b3f e9fd 933f 1d3e 5640 769a 7940
00000350: b0d5 08bf da93 0bc1 506d 3b3e a30b 953f
00000360: 6626 e13e bbd1 d140 28ab 15be f0aa b740
00000370: 42c1 fb3e 8470 f03f eecf 42c0 fb92 adbf
00000380: 3c0e d13e 178a 31bf 0231 3a3f 5a28 f9be
00000390: a0c9 d33e fe03 f2be 6ff6 cd3d 0202 5940
000003a0: 98e7 e9c0 35fa 593e 5c8b 96be 6b06 21c0
000003b0: 479e 243e 4fca a5c0 b575 d33e 37d6 47bd
000003c0: 1c79 f7be 5938 25c0 d5db a540 291e 1ebe
000003d0: c6cf b63e 8684 ffbd f23b 31be 9f9a 05bc
000003e0: 9b9d bcbe ae7a 843c 7296 bc3e c1a4 d23e
000003f0: 7b6c e63d 30a5 d1bd bd89 093e a709 29bd
0.08377048 -3.9158926 0.15166241 -0.9634822 0.80926645 -0.5750883 -1.052135 -0.058723535
13.176456 -1.6958398 1.2279534 0.17654882 -0.79936665 -0.06747127 0.93225473 0.2741378
-0.32652488 -0.7661178 -0.89776844 0.7742654 -1.0384458 0.10169472 -0.12819014 -4.723041
0.75191516 -0.32533178 -0.428412 0.2155473 2.7531528 -1.1421165 9.225163 0.03840056
-0.17620347 -0.9325876 -0.79944366 1.6573715 -1.2093856 -0.56600064 -3.4331503 -0.1262921
0.7124088 0.11903452 4.209337 -0.7627079 3.3054411 0.42776856 1.3773435 -1.093634
-1.0655923 0.03174745 -0.49029523 0.5033964 -0.7132582 0.46356893 -0.35028663 0.1993062
4.631992 -3.523923 0.6412045 -0.675498 -1.1277256 0.4780621 -3.1507668 0.26929107
0.02634215 -0.42122695 -1.0970513 2.9811234 0.1383182 0.42324004 -0.3701578 -0.13190095
-0.10178804 0.2572458 0.05201146 -0.0077838385 -0.28926325 0.12798075 0.3467802 -0.057743747
-0.4604478 -0.22775117 0.13812754 0.91401184 0.4992542 0.45820454 -0.94076985 0.71555495
-0.3888882 0.36119825 0.1183535 -0.058330547 -0.10696659 -0.070942104 0.13796021 0.24273846
-0.17069866 0.36672792 -0.01377698 -0.2775414 0.47741875 -0.031585958 -0.05006704 -0.19344863
-0.013349326 0.04846154 0.5563735 1.0954887 1.5431873 -0.27594906 -0.023157468 0.5772675
-0.23561975 -12.166646 -2.2902572 -0.06689235 -0.18706788 1.2767414 -1.2761 -1.0074732
-0.68242246 0.2968053 -0.17610244 0.57330865 -0.7684835 0.5858927 -1.5067352 1.0825058
7.0161023 -0.22639492 0.9905017 0.25366405 -0.05170337 -2.0648007 0.75173926 -9.921588
0.5409558 -2.399782 0.42004335 0.66403115 7.1647587 6.3071938 -0.6059805 -5.5903144
-0.041915238 1.2485725 0.45450136 4.4419656 -0.19760631 5.5923448 0.3453018 4.7376285
-3.526404 -0.8528988 -0.033889554 -0.29662892 0.07614858 -0.55058414 0.20352434 -0.5738924
0.07511398 1.3243837 -5.381946 0.46945435 -0.3346257 -3.6646373 0.1203976 -9.620595
-0.15878005 -0.2349729 -0.12457204 -5.483956 4.610533 0.3326754 0.113015816 0.20178935
-0.60398763 -0.9789486 2.3916287 -0.70660305 0.4807517 1.3499073 -1.355918 -4.5674033
-1.4450122 4.473545 0.23749962 -0.076964565 -3.473699 -1.8235929 -3.8801498 3.6445305
-3.8597507 0.8544309 -1.0552881 0.87799793 -1.8382443 2.1168013 3.4343479 -0.48730415
-0.38674554 1.8735385 0.1632184 -1.1117532 0.7531987 -4.1024895 -0.7960368 -1.721248
1.0877548 1.1561862 3.347541 3.9000525 -0.5345106 -8.723597 0.18303418 1.1644176
0.43974608 6.556852 -0.14616072 5.7396164 0.49170882 1.8784337 -3.043941 -1.356048
0.40831172 -0.69351333 0.7273103 -0.48663598 0.41364765 -0.4726867 0.10056769 3.3907475
-7.3095207 0.21286853 -0.29403198 -2.5160167 0.16076003 -5.180946 0.4130074 -0.048788276
-0.48334587 -2.5815642 5.183085 -0.15441193 0.35705394 -0.12476449 -0.17308024 -0.00815454
-0.36838993 0.01617178 0.3683353 0.41141322 0.1125116 -0.10236585 0.13431449 -0.04126897

middle_layers.0.bias f4 [35]
00000000: 22f5 333f 93f0 d8be c80c c73d b116 f1be
00000010: 38cb 9dbe 7aaa f1be 6a62 7bbe 2704 e9bd
00000020: 3b85 9f3b e259 a0bd f205 fabe bb68 ac3c
00000030: e7aa 0dbe 84af aabe 6bd4 223f 965f 653f
00000040: 8edb 8cbf 79d7 aabd f3d5 1fbb de02 27be
00000050: dc5e 42be bc63 483d 6d4d ac3e 252b 9dbd
00000060: 5ea4 2ebc 660c 553e 939c 1d3d 544a 453e
00000070: 37db 71be efde 933c 8701 8f3d 9cfc 4bbe
00000080: 9277 2a3c 8891 2f3c 6286 e83c
0.7029592 -0.42371044 0.09719235 -0.47087625 -0.30819106 -0.47200376 -0.2454926 -0.11377745
0.004868177 -0.07829644 -0.4883266 0.021046033 -0.13834725 -0.33337033 0.63605374 0.8959898
-1.1004503 -0.083418794 -0.0024388998 -0.16309687 -0.18981498 0.04892324 0.3365282 -0.07674245
-0.010659305 0.20805511 0.0384794 0.19266635 -0.2361878 0.018050639 0.06982713 -0.19920582
0.010404484 0.01071585 0.028384391

layer_out.weight f4 [1, 35]
00000000: 35ed 9840 52ae 21c0 fd1b 3b3f c8aa 9fc0
00000010: d2a2 4ec0 87e7 8740 5593 b240 85ae e2be
00000020: a78e 10bf c8d7 a840 e493 20c0 0433 8a3f
00000030: 5681 6f3f 42b7 4fc0 05ba b1c0 2187 b03f
00000040: 0927 5440 2a8d 303f 3372 20bf ebb3 e1be
00000050: 0473 3c40 1e6f bf3f 8f37 a3c0 68b9 ffbe
00000060: ff16 bf40 715b 53bf 25b6 223f 32ac c73e
00000070: 0cc8 0cc0 3b43 cf3e 87c5 a440 3016 f13f
00000080: 514a bac0 ad03 173f 7466 0c3f
4.778956 -2.5262647 0.7308958 -4.9895973 -3.2286878 4.2470126 5.580485 -0.44273773
-0.5646767 5.2763405 -2.5090265 1.0796819 0.93556726 -3.2455602 -5.5539575 1.3791238
3.3148825 0.689654 -0.62674254 -0.4408258 2.94452 1.4955785 -5.100532 -0.4994614
5.971557 -0.82561404 0.6355918 0.38998562 -2.19971 0.4048098 5.149112 1.8834896
-5.821572 0.58989984 0.5484383
