in_model/April 25 - 12:38.pth (torch, 8354 bytes, 5 tensors)

layer_in.weight f4 [35, 2]
00000000: 90d1 8abf f0fb e6bf d72c ed3f 071b 60be
00000010: fddb c23e eccd 53be e634 0fbd 02ae 6539
00000020: 6a75 5f3e f634 05bf 31c8 91bf 882b 5340
00000030: 0670 c63d 46cb 953e 88a7 a9be 2dba e53f
00000040: 0a6f 34bf 1667 e7bd e0e7 11be af79 6ebe
00000050: 1d38 b840 b542 9abf 11ad 74bf 84b2 0cbe
00000060: 6732 aabf b222 22be 83fa 913f 4e27 ba3c
00000070: dad7 8640 fa89 51be 6cba 13bf b488 a53e
00000080: cd93 ccbf b825 d3bd d7a0 853f 268a 423e
00000090: 6a2c 033f 9139 213c 4115 d6c0 a8a4 613e
000000a0: 5b2b 1cc1 9c84 473e 09c5 71bf f605 93bd
000000b0: df24 3ebe 91b7 e43e 1039 2a3f b080 0d3d
000000c0: b332 be3f 95ad 0c3e 522b d4bd 519b 513e
000000d0: 266e d1bf 5c6e 92bd 5d59 fa3e 60fc e43e
000000e0: 39c2 db3e 156c 3e3e d0ce 3bbe bc84 2f3c
000000f0: 9148 0fc1 925b 63bf cbaf fe3e ca83 61bf
00000100: 1510 18be 18fe ddbe f791 58be 30d2 85bd
00000110: e3a3 263f f982 123e
-1.0845203 -1.8045635 1.8529309 -0.2188531 0.38058463 -0.20684022 -0.034962557 0.00021903965
0.21822134 -0.52033937 -1.1389219 3.299532 0.096893355 0.29256648 -0.3313563 1.7947441
-0.7048193 -0.11298959 -0.1424861 -0.23288606 5.75685 -1.2051607 -0.9557658 -0.13739973
-1.3296632 -0.15833548 1.1404575 0.02272382 4.213849 -0.2046279 -0.5770633 0.3233086
-1.5982605 -0.10309929 1.043971 0.18998012 0.51239645 0.009840385 -6.6900945 0.22035468
-9.760585 0.1948418 -0.94441277 -0.07178871 -0.18568753 0.446713 0.6649332 0.034546554
1.4859222 0.13738091 -0.10359825 0.20469405 -1.636174 -0.07149956 0.48896304 0.44723797
0.42921618 0.18595918 -0.18340611 0.010712799 -8.955216 -0.888116 0.49743494 -0.8809172
-0.14849885 -0.4335792 -0.21149431 -0.06534231 0.6509382 0.14307775

layer_in.bias f4 [35]
00000000: 6a7c cb3f 0dff ef3d 55d0 013f 4928 f33e
00000010: ca42 8ebe d656 1fbf 9317 353f 8b87 813e
00000020: 9f8c 43be 87e8 b8be 18a4 babe daee 35bf
00000030: 032e 14bf a8b4 96bd b996 abbd 7714 103f
00000040: 27c3 7b3d fa55 923f 8797 f3be 8263 5d3f
00000050: 4a1e c53f 9d26 92be 797e 053f c702 183f
00000060: 1c19 153e e112 083f 79d0 8cbe 8b10 03bf
00000070: aa71 563e 85ec a2be 24f9 e23f 9a6a ba3c
00000080: 99cc 3bbd 14c7 a7be c1bd 6b3f
1.5897343 0.11718569 0.50708514 0.47491673 -0.2778533 -0.62241876 0.70739096 0.25298724
-0.19096611 -0.36114904 -0.3645332 -0.71067584 -0.5788271 -0.07358676 -0.083783574 0.56281227
0.06146541 1.1432488 -0.47576544 0.8647996 1.5399868 -0.28545085 0.52146107 0.5937924
0.1456036 0.53153807 -0.27502802 -0.5119712 0.20941797 -0.31821075 1.7732282 0.02275591
-0.045849416 -0.32769072 0.92086416

middle_layers.0.weight f4 [35, 35]
00000000: f51b 2bbf 0c19 5d3d 8be3 e53d b7ee c3ba
00000010: 0f0c 6dbe 0739 863e 4aac 21bd 3780 3f3d
00000020: 518d 70be 1653 733e 182d e63c d889 783d
00000030: b775 8e3e 1178 86be 5dfd 433e a063 013e
00000040: c25b 413e 2a1f abbd cb0d b03e 517e 413e
00000050: 6d7d 7ebc f367 a9bd 816b dcbc baf3 7b3e
00000060: 7c0e 85bd 6c6b b1bd cd8b 5d3e db68 013d
00000070: c7e8 dfbd bf3c c9bd 9638 9cbe be6b 84be
00000080: 6349 c0bd 6095 be3d e397 413e 06f9 743e
00000090: fd22 11be 381e 56bc a858 3fbe ea45 8cbc
000000a0: ca98 8ebe 9dcc 8cbe d16c ee3d 3088 3bbe
000000b0: eaf7 893e 829f 323e f439 48be 9e89 3c3c
000000c0: 4ebc 2abe 9de1 e6bd 747c 89bd 174a 603d
000000d0: 7692 8b3d 30ff 91be ddca 843d 5b91 c53e
000000e0: 6d1c 7fbe 86ac d63b e49d 9abe 41cc 66bb
000000f0: 5ccb 49be a8cc 75be fce2 a3be 13c6 aa3d
00000100: 7811 06be a01a cd3e 2feb f83e 820a 9c3e
00000110: da40 923d ab4c 4e3e 8eb3 af3e e77b 3dbd
00000120: 483a f2bd 2034 7e3e 0bfd 323e e96d ad3c
00000130: 8cf4 7bbe 560e 4c3e b51d 613d f5e4 55bd
00000140: 56c9 7e3e 5215 723e 0e8c 23be b3c0 3e3e
00000150: 356a 663e 74e3 e13c 8539 f23d 558f 54bd
00000160: b011 003e 5386 113d a812 e63d 1d4d f6bd
00000170: 2c4c 5dbd 2e29 7dbe 1e03 393c 5792 15be
00000180: 4b10 bfbd b705 4f3e 9814 d33c 5216 91be
00000190: 1244 82bd f134 c23e bc63 28be 26d1 823e
000001a0: bdfe f33d b930 20be 351b 3ebe b416 443e
000001b0: 9740 9d3e b82a 6f3e ca2f 54bb a288 083e
000001c0: 2baa 13be bff7 3a3e 4c3b cbbd 4872 bc3e
000001d0: f337 babd d0fa 89bd 8ae5 1dbe 90df 8e3e
000001e0: c4ce 823d 9b6b 7c3d fc86 953d 4b29 99bd
000001f0: bde7 843c 8f95 2bbd b2ce 283e abac fb3d
00000200: 264c 003b 5259 dbbb 20f5 2e3e aec8 2abe
00000210: e3f3 2bbd 4775 bdbc 5de5 0d3e 2454 9a3d
00000220: 8dfa 503e a4e2 89be 091d 73be ca2a 413d
00000230: 1e94 c73d 56d5 f43d b92d ba3d 059c 453d
00000240: d6b2 87be 01cf 023e 8ea3 a13d b4ce 563e
00000250: 0932 1fbe ea7a 6d3e 036d a4bd 4e5d 773e
00000260: c0d3 58bd 5425 1d3e de0a 78be 0743 a13d
00000270: 6084 2e3e 35e1 233e 12c6 383e 4a10 9a3d
00000280: c327 3c3e 1c0e cabd f50c 2cbd 4ac3 893e
00000290: 84d5 513e b8a5 3d3e 475b 56be d3de a0bd
000002a0: 14a3 64be 04e2 783d a208 f8bc 7b6f 94bd
000002b0: d9c9 aabe f649 3a3e 4745 c73d ca76 a5be
000002c0: 5c8c 2ebe 3a0c 96bd 4404 803e df57 c4be
000002d0: 79ae 473e 5b26 2b3d 5c80 9a3e e5f7 97bb
000002e0: 0014 363e 904b 68be 141d 593e 0391 37be
000002f0: 096b 5ebe 11b9 763d 028d b53e 92e9 4c3d
00000300: a837 2f3e 9ad1 e9be 4560 93be d20b 72be
00000310: 1556 d03d 391e 05be ddfd 78be 61e3 ad3d
00000320: 69c8 903e 88ef 253e 5601 18be 927a 953c
00000330: 2d32 e43d 495e cbbc 6c7d cabf afa1 16be
00000340: 39d3 4c3e 7bbd 3b3e bd7a 94be a3f9 58c0
00000350: d21c 01bf c2b0 38be 8386 c23e 1ada 7bbf
00000360: a46f 12bd bf3c bbbe 3674 8f3f 6d95 823e
00000370: fbaa 80c0 31c2 013f fcdd 1e3f b52d 4ebf
00000380: f717 82bf c85d ae3d 2120 9e3f 0dd2 c7bf
00000390: fb6c a5bc 5369 3f40 b87c 8740 ac63 af3e
000003a0: ce5b 6fbe e9f7 a7be 3c24 00c0 9251 99be
000003b0: f260 5f40 81f5 cbbd fba1 b1bf 582f 283f
000003c0: 39e7 6540 22e0 a63e c5d5 143f 1a96 b03e
000003d0: db61 90be a8cc 59bf b853 27bd 47b3 703e
000003e0: ae62 72bc b51d cc3d 9849 b8bb f65f 473e
000003f0: 1c0f 373e 7f61 67be 35e1 e5bc f651 0b3a
-0.66839534 0.053978965 0.11225041 -0.0014948462 -0.23149131 0.26215383 -0.03947095 0.046753135
-0.23491408 0.23762164 0.028097674 0.060678333 0.27824184 -0.26263478 0.19139619 0.1263566
0.18882659 -0.083555534 0.34385523 0.18895842 -0.0155328335 -0.0827178 -0.02690673 0.24604693
-0.06496903 -0.08663067 0.21635361 0.03159414 -0.10933071 -0.098260395 -0.30511922 -0.2586345
-0.093889974 0.09305835 0.18905596 0.2392312 -0.14173503 -0.013068728 -0.18686163 -0.017123181
-0.27850944 -0.27499858 0.11641849 -0.1831367 0.26946956 0.1744366 -0.19553357 0.01150742
-0.16673395 -0.11273501 -0.06713191 0.054758158 0.068150446 -0.28515005 0.064840056 0.3858746
-0.24913187 0.006551328 -0.30198586 -0.003521696 -0.19706482 -0.24003851 -0.32009113 0.08338561
-0.13092601 0.40059376 0.4861693 0.30476767 0.07141276 0.20146434 0.34316677 -0.04626074
-0.118275225 0.24824572 0.1747934 0.021170573 -0.24605006 0.19927344 0.05495997 -0.052220304
0.24881491 0.23640946 -0.15971395 0.18628196 0.22501452 0.027574278 0.11827377 -0.051894505
0.12506747 0.035528492 0.11234027 -0.12026427 -0.05402772 -0.2472274 0.011292247 -0.14606605
-0.093292795 0.20217024 0.025766656 -0.28337342 -0.0636064 0.37931016 -0.16444296 0.25550193
0.11913822 -0.15643586 -0.18565066 0.19149286 0.3071334 0.2335614 -0.0032377117 0.13333371
-0.14420383 0.1825857 -0.09923419 0.3680594 -0.09092703 -0.06737292 -0.15419593 0.2790494
0.06387094 0.061626058 0.07301137 -0.07478579 0.016223783 -0.041890677 0.16485098 0.12288793
0.0019576638 -0.0066939974 0.17085695 -0.16678116 -0.041980635 -0.023127211 0.13857026 0.0753558
0.20408078 -0.26930726 -0.23741545 0.047159947 0.09745048 0.11954753 0.09090752 0.048244495
-0.26503628 0.12774278 0.07892524 0.20977288 -0.1554643 0.23191419 -0.08028605 0.24156687
-0.052936316 0.15346271 -0.24222896 0.078741126 0.17042685 0.16003878 0.18044308 0.07522638
0.18374543 -0.098659724 -0.042004544 0.26906806 0.20491606 0.18520248 -0.20933257 -0.07855
-0.22327834 0.06076242 -0.030277554 -0.07247826 -0.33357123 0.18192276 0.097300105 -0.3231719
-0.1704573 -0.07326551 0.25003254 -0.3834829 0.1950015 0.041784626 0.30176055 -0.0046377056
0.17781067 -0.22685075 0.21202499 -0.17926411 -0.21720518 0.060235087 0.35459143 0.050027438
0.17111075 -0.45667726 -0.28784385 -0.23637322 0.10172669 -0.1299981 -0.24315591 0.08490635
0.282779 0.16204655 -0.1484426 0.018246923 0.11142383 -0.024825232 -1.5819526 -0.14710115
0.2000245 0.18334 -0.28999892 -3.3902366 -0.504346 -0.18036178 0.3799325 -0.9837967
-0.035751 -0.36569783 1.120734 0.25504628 -4.0208716 0.5068694 0.6205747 -0.80538493
-1.0163563 0.08513981 1.2353555 -1.5610977 -0.020193567 2.9908035 4.2339745 0.3425573
-0.23374864 -0.32806328 -2.0022116 -0.29945046 3.490292 -0.099589355 -1.3877558 0.6569724
3.5922377 0.32592875 0.58138686 0.34489518 -0.28199658 -0.85077906 -0.040851325 0.23505889
-0.014794035 0.09966604 -0.0056240074 0.194702 0.17876858 -0.22595786 -0.028061489 0.00053146423

middle_layers.0.bias f4 [35]
00000000: 46e6 32be 3e48 10bc c1a6 a8bd 9dbd 703d
00000010: 5d9a b63d 2e76 efbd 473f 78be c209 1fbc
00000020: bc68 6b3d 5745 9dbd 78e2 e9bc 65db f1bd
00000030: d9d0 e83e fc25 a0bd 0191 013e dd4c 5ebe
00000040: 7e80 7a3c 964d 223e 182e 05bd 8322 2f3e
00000050: b8ab 67bd 3f38 c5bd 0a9c 313d a6a9 1dbd
00000060: 3a2a 1b3e 837c 503e 2546 05bd e1ea f6bd
00000070: 3e21 83bb 2d5a 1f3b 6555 02be 9d7e 663d
00000080: c63a f5bd a7e1 8bbc c0c0 8bbf
-0.17470655 -0.008806286 -0.08234931 0.05877458 0.08916161 -0.11692463 -0.24242888 -0.009706916
0.05747293 -0.07679241 -0.028550372 -0.11809424 0.45471838 -0.07819745 0.12652971 -0.21709009
0.015289424 0.15849909 -0.03251466 0.17103009 -0.056560248 -0.09629869 0.0433617 -0.038491867
0.15152827 0.20359997 -0.0325376 -0.12056518 -0.0040017655 0.0024315224 -0.12727888 0.05627309
-0.11974101 -0.017075373 -1.0918198

layer_out.weight f4 [1, 35]
00000000: c3ba 943d 9d0d c3be ca4f 523e ce0e a33e
00000010: 4297 c53e 001d 47be 9ca0 85bf 289f ed3e
00000020: 65a4 803e 8aaa 16be 2b74 83bf 7727 69be
00000030: 2532 64bf d8a1 45be 905b bebe 02e7 1dbe
00000040: 2454 aa3e 401f 9a3e a210 7dbe c15e 7e3d
00000050: 9cad bbbe d542 d43e 4c15 96be 83b6 38be
00000060: 0507 a33e 3d0b 6fbf 0ada ed3e 088d dcbd
00000070: 4b63 5a3e af01 5dbe be88 18bf fbff d53e
00000080: 0085 893e ec18 b3bc 4c02 713f
0.072621845 -0.38096324 0.2053825 0.31847233 0.38591963 -0.19444656 -1.0439639 0.4641049
0.25125423 -0.14713493 -1.0269827 -0.22768961 -0.89139014 -0.1930002 -0.37179232 -0.15420154
0.3326732 0.30101967 -0.24713376 0.062102083 -0.3665589 0.4145724 -0.29313123 -0.18038373
0.31841293 -0.93376523 0.46455413 -0.10769087 0.2132694 -0.21582673 -0.5958365 0.4179686
0.26859283 -0.02186247 0.9414413
