in_model/April 23 - 12:39.pth (torch, 8290 bytes, 5 tensors)

layer_in.weight f4 [35, 2]
000000 39 43 08 c0 71 28 0f 3e 8d 35 c9 be a6 a6 05 40
       -2.129103 0.13980271 -0.39298669 2.0882964
000010 f8 df b9 3f 60 d0 ed be 42 1e e7 bf 9f 33 6d bf
       1.4521475 -0.4644804 -1.8056109 -0.9265689
000020 7d bc c6 bf f7 29 fd 3d a7 36 bb 40 f8 bf 3e 3d
       -1.5526272 0.1236152 5.8504214 0.046569794
000030 44 ce 0c 41 61 74 ad 3e 24 65 53 40 bd 76 85 3f
       8.800358 0.33877853 3.3030481 1.0426861
000040 07 65 c0 c0 db 81 6b 3f 7c 16 01 40 04 28 8b bd
       -6.0123324 0.9199502 2.0169973 -0.06794742
000050 80 ec e0 bf 1c 28 49 3b f0 53 1e c1 34 cf a2 3f
       -1.7572174 0.0030694073 -9.895493 1.2719483
000060 1f 07 d0 bf de 19 29 be f4 a3 84 3f e7 66 03 3f
       -1.6252173 -0.16513774 1.0362535 0.5132889
000070 6c 58 1a 3f 9b 64 3b 3f 39 f7 db 3f 2b d6 2a be
       0.6029117 0.73200387 1.7184821 -0.16683261
000080 2f fa 6b 40 6b d9 fe 3e 87 a5 17 40 f4 7e b0 3e
       3.687145 0.49775252 2.369478 0.34471858
000090 8a 9f 5b bf 66 0f 42 bf 05 62 ad 3f 85 cd 45 3f
       -0.8579031 -0.75804746 1.3545538 0.7726672
0000a0 a9 36 cb 3f d8 02 95 3e ea 81 c7 3f e3 de dc 3f
       1.5876056 0.29103732 1.5586522 1.725552
0000b0 4a 8f ea 40 d2 5f 3a be bd a9 51 3f 54 b5 26 3f
       7.3299913 -0.18200615 0.81899625 0.65120435
0000c0 1f 8a ef 3f e2 e2 e5 be 1c 44 ac 3f 3f c3 81 3f
       1.8714026 -0.4489966 1.3458285 1.0137709
0000d0 db 1b a0 c0 77 cb 64 bf ea 52 de bf 95 e1 3a bf
       -5.0034003 -0.8937296 -1.7369053 -0.7300046
0000e0 f9 02 d4 bf 06 20 b6 3f a4 c8 c2 c0 2b ff ec 3d
       -1.6563407 1.4228523 -6.0869923 0.11572107
0000f0 60 82 31 c0 c3 0f a6 be ec 5e e6 bf 60 77 e5 3f
       -2.7735825 -0.324339 -1.7997718 1.7927055
000100 16 e2 dd 3d 46 bb 31 c0 85 25 5f bf 3f a0 ec be
       0.10834138 -2.7770553 -0.87166625 -0.46216008
000110 0d 37 b5 bf 22 97 27 bf
       -1.4157425 -0.65464985

layer_in.bias f4 [35]
000000 c7 fa d7 3f 3f df fd bf 42 30 56 bf 66 97 02 c0
       1.6873406 -1.9833754 -0.83667386 -2.0404906
000010 7a be a0 3f 9a c5 b3 bf 6e 7d 8f c0 31 b2 ea 3f
       1.2558129 -1.4044678 -4.4840612 1.833563
000020 af 02 97 3f aa d6 dc bf e2 23 b0 3f 52 72 94 40
       1.1797694 -1.725301 1.376095 4.638955
000030 ed 78 ad 3f 84 d0 dd 3f e9 53 f6 3f 51 40 91 bf
       1.3552529 1.7329259 1.9244357 -1.1347753
000040 09 80 8d 3f c0 c7 99 bf ac cf fa bf 55 a6 23 40
       1.1054698 -1.2014084 -1.9594626 2.557027
000050 ec 9d 9f bf 86 b7 e8 bf 46 5e 9b bd 9e ce 18 40
       -1.2470069 -1.8181007 -0.075863406 2.387611
000060 47 43 a7 bf ed e4 d9 bf 3f 4c 96 bf 6c 60 ea bf
       -1.3067406 -1.7022988 -1.1742018 -1.8310676
000070 1b 0b b4 3f 5e dd 97 3e 49 81 1a 40 fe b6 c2 3e
       1.4065889 0.29661077 2.414141 0.38030237
000080 6a e5 40 be b5 bb 05 c0 4b dd b7 3f
       -0.18837515 -2.0895817 1.4364408

middle_layers.0.weight f4 [35, 35]
000000 f8 14 ba 3d c1 d2 db 3e d1 0c bd be a7 98 71 3f
       0.09086031 0.4293423 -0.3692384 0.94373554
000010 9c ec ee bd 00 fe 19 c1 c6 46 0c c1 b2 1f 88 bf
       -0.116662234 -9.624512 -8.767279 -1.0634673
000020 24 5d 12 41 75 a6 1b be b5 d3 ce bd 44 ff e0 40
       9.147739 -0.15200217 -0.10098974 7.0311604
000030 59 74 2d 3f 0e 11 9c bf 05 30 8d bf ad 49 26 3e
       0.6775566 -1.2192705 -1.1030279 0.16239043
000040 1f 74 b1 bf 9a 4c 8b c0 ca 81 5b 3f 9a 8d 76 bf
       -1.3863562 -4.353101 0.8574492 -0.96309817
000050 a5 10 2b c0 06 64 94 c0 c3 51 09 c0 72 0e 19 bf
       -2.672891 -4.63721 -2.1456153 -0.59787667
000060 51 24 44 3e ed dc b7 be 07 45 81 3f 04 8e 4b 3f
       0.19154479 -0.3591074 1.009919 0.79513574
000070 3e 57 8d be 12 6d 22 40 f1 14 c5 be 03 1f 4b 3d
       -0.27605623 2.5379071 -0.3849254 0.049590122
000080 c6 8a 52 3f 3d 81 1f 3f 34 34 05 40 31 ae 1e 3e
       0.82243 0.62306577 2.0813112 0.15496136
000090 b2 39 1a bf 89 2d 98 be f6 58 3a be e7 87 1c bd
       -0.60244286 -0.2972224 -0.18197998 -0.038215544
0000a0 7e e5 eb 3f 3d d2 ad 3f 91 71 08 bd 42 5c 56 c0
       1.842941 1.3579785 -0.03331143 -3.349381
0000b0 35 bf 37 be ef 44 e9 bc 35 03 12 c0 af e2 d8 3d
       -0.17944033 -0.028475253 -2.2814457 0.105901115
0000c0 d2 ce 37 bc 72 48 84 3e 4f f7 cd bd f1 09 f8 3e
       -0.011218743 0.2583652 -0.10056936 0.48445085
0000d0 c8 36 49 40 87 4a 38 be f8 6c 9f bc d2 47 45 3e
       3.1439686 -0.1799718 -0.01946114 0.19265679
0000e0 48 f7 28 3f a6 24 28 3f d6 b5 38 3d 3c c2 fc 39
       0.6600232 0.6568092 0.045095287 0.000482099
0000f0 ce 04 38 3e 89 f0 22 be 2a 90 8e be 1d 2d 3c 3e
       0.17970583 -0.1591207 -0.27844363 0.18376584
000100 16 77 de be 2f b1 ec 3c 55 7b fc be 7b 81 96 bd
       -0.4345023 0.028893081 -0.49312845 -0.07348915
000110 e0 97 a8 be 4c 7f cf be 9c 81 17 3f 57 5c 77 bf
       -0.3292837 -0.40526807 0.59182143 -0.96625274
000120 26 2e 75 3e b9 21 a4 bf a0 f5 05 3d 9b db a0 40
       0.23943385 -1.2822791 0.03270495 5.0268073
000130 b9 e7 82 40 fa b6 74 3f 13 c8 89 c0 e5 5e db be
       4.0907865 0.955917 -4.305673 -0.42845836
000140 18 e3 6a 3c 8d 56 81 c0 83 ba 90 3d 1f de 86 3f
       0.01433637 -4.0418153 0.07066824 1.0536536
000150 14 37 26 3f 8f e8 f9 be 86 96 eb 3f 55 80 cb 3f
       0.6492779 -0.4881024 1.8405311 1.5898539
000160 a8 eb 87 bf 4d fe 4e 3f 54 db 62 3f c0 b3 89 40
       -1.0618792 0.8085678 0.8861592 4.303192
000170 13 75 67 40 43 69 5d 3f 56 2c ab be b1 58 a0 3e
       3.6165206 0.8648874 -0.33432263 0.31317666
000180 fb d6 ae bf 0e f7 83 bf dd aa 6a 3e 48 84 94 c0
       -1.3659357 -1.030977 0.22916742 -4.6411476
000190 da 7c 27 3f bf a7 54 c0 03 a1 66 bf d3 4d 33 bf
       0.65424883 -3.3227384 -0.90089434 -0.70040625
0001a0 04 38 15 c0 68 3f 4f 3f 75 69 6a bd 72 98 20 bf
       -2.331544 0.80956125 -0.057229478 -0.62732613
0001b0 fa 98 5f bf ea 16 3b 3f d9 86 d6 40 c9 d5 07 41
       -0.873428 0.7308184 6.703961 8.489694
0001c0 4e a1 36 3f bc d3 0e c0 b4 24 75 bf 22 d9 33 3f
       0.7133988 -2.2316732 -0.9575913 0.70253193
0001d0 0e 62 17 c0 bc bf fc 3d a4 a4 7b 3f 16 eb 74 3f
       -2.3653598 0.12341258 0.98298097 0.9567121
0001e0 e3 06 fb be 38 26 3f 40 b5 63 aa 3f f2 f0 3c bf
       -0.49028692 2.9867077 1.3311678 -0.73805153
0001f0 15 92 19 3f 68 4d 5a 3f c1 e5 3f 40 30 c5 ec 40
       0.5998853 0.8527436 2.998398 7.3990707
000200 a2 ba 2e 3f 2e 5f cb be 33 d7 b4 be 90 72 73 bf
       0.6825353 -0.39721054 -0.35320434 -0.95096684
000210 1f d6 81 bf 48 4a 38 3f 36 56 2a c1 67 2b 89 3f
       -1.014347 0.71988344 -10.646048 1.071637
000220 19 3c d4 3e 47 4d 86 bf 19 e0 21 bf b4 07 5d bd
       0.414521 -1.0492333 -0.6323257 -0.053962424
000230 fe be 00 c0 f2 7a b2 bf cf 1b 90 3f 38 eb 09 bf
       -2.0116572 -1.394377 1.1258487 -0.5387454
000240 c0 ae a0 bf d9 5a f2 bf 91 79 2b c0 11 ab 06 3f
       -1.255333 -1.8933975 -2.6792948 0.52604777
000250 6e b8 70 3f 6a 14 03 40 7f a4 93 bf 2a b9 98 40
       0.9403142 2.048121 -1.1534575 4.772603
000260 65 5d b5 bf a9 50 2e 3f 83 b3 29 3f 51 c3 22 3f
       -1.4169127 0.6809183 0.6628954 0.6357928
000270 6d 55 5f 3e 6e 23 40 bf 0a b9 56 bf c8 5d d2 3e
       0.21809931 -0.7505406 -0.838761 0.41087174
000280 65 2b a6 3f d2 4b 0b 40 ff b1 1c 3f 54 71 44 3f
       1.2981993 2.1765027 0.612091 0.76735425
000290 09 85 b9 3f 05 6b 40 3f d1 b2 9c be 17 63 12 bf
       1.4493724 0.751633 -0.30605176 -0.5718245
0002a0 92 30 74 be 82 48 17 3e c2 d2 61 c0 fb 18 1a c0
       -0.23846653 0.14773753 -3.5284886 -2.4077747
0002b0 02 70 04 bf ee 8e c9 be 8f bb ba bf 10 23 1b 40
       -0.5173341 -0.3936686 -1.4588488 2.424015
0002c0 f8 c7 ce bf 0a f6 07 c0 b4 c2 ef be 39 5d 21 40
       -1.6154776 -2.124392 -0.46828234 2.5213149
0002d0 e0 d0 a6 3f 25 bf 95 3f 2e e7 42 3f c8 af 09 bf
       1.3032494 1.1698958 0.76134 -0.53783846
0002e0 a3 90 c8 c0 54 c6 00 40 14 2c 25 bf 0b 6d 10 40
       -6.267656 2.012105 -0.6452038 2.2566555
0002f0 61 71 05 3f 59 24 7e 3f 1b 0b 8e bf c5 25 1a 3f
       0.5212613 0.9927421 -1.1097139 0.6021388
000300 92 93 a3 bf c1 09 e4 bd f1 77 9f 3e cb 02 01 c0
       -1.277941 -0.11134673 0.31146196 -2.0157955
000310 c0 28 bc c0 20 ba 9c 3f f4 45 f8 3e 38 e0 1e c0
       -5.8799744 1.2244301 0.4849087 -2.4824352
000320 c2 89 0e c0 8f 61 34 bf e4 3f 24 bf 35 e2 76 40
       -2.227158 -0.7046136 -0.6415999 3.8575566
000330 a0 eb 19 bf a0 4f 0e 41 55 49 e5 40 43 00 8e bf
       -0.6012516 8.89444 7.1652017 -1.109383
000340 7e 48 a9 be 68 50 d4 40 fb 75 4d 3e 56 3d d2 3f
       -0.3306312 6.634815 0.20064537 1.6424968
000350 aa 49 81 bf 47 f8 f2 3e 9b 3c a4 3e 89 ea c6 c0
       -1.0100605 0.47455046 0.32077488 -6.21613
000360 80 aa eb c0 2c 77 40 bf d2 b6 18 41 fb 49 5e be
       -7.364563 -0.7518184 9.544634 -0.21707909
000370 5e af 5f 3f e8 9b be 40 d4 80 3f 3f 73 94 31 bf
       0.87376964 5.9565315 0.7480595 -0.6936714
000380 1b 67 2f bf 62 42 28 bf 13 f6 77 bf 59 2f e5 c0
       -0.685167 -0.6572629 -0.96859854 -7.1620297
000390 61 2b 26 3f 97 8e e1 be 09 56 4b c0 11 b0 27 c0
       0.6490994 -0.440541 -3.1771262 -2.6201212
0003a0 01 80 11 bf a2 69 91 be 8f 4e 2b bf 91 d6 d8 be
       -0.56835943 -0.28400904 -0.66916746 -0.423512
0003b0 87 75 b9 3e 56 a0 52 3f 2e a3 cd 3d a3 0a 73 3f
       0.3622248 0.82275903 0.1004089 0.94938105
0003c0 d8 5b a9 3d c2 c8 6f 3f d7 35 89 be b7 30 2a 3f
       0.08269471 0.9366571 -0.2679889 0.6648058
0003d0 5e 54 dc 3f ce 85 83 bf e9 3c 88 3f ec c0 5f 3f
       1.7213247 -1.0275209 1.0643588 0.8740375
0003e0 33 0f a2 3f 91 68 59 bf 75 78 b0 c0 13 78 cc c0
       1.2660888 -0.8492518 -5.514704 -6.3896575
0003f0 09 0e 99 bf 89 c3 f7 3f 59 e6 7f 3f f5 a6 6b bf
       -1.1957408 1.9356548 0.9996086 -0.9205163

middle_layers.0.bias f4 [35]
000000 7e c9 12 bf df e9 80 3d a1 a2 e1 3e 19 f5 ba 3e
       -0.573387 0.06294607 0.44069389 0.3651512
000010 d1 d3 00 3f 2c 97 2a 3f 95 24 b8 be fb 46 36 bf
       0.50323206 0.6663692 -0.3596541 -0.7120206
000020 40 4f 04 bd 7b f7 63 3e fe c1 5c bc a5 9d 42 bf
       -0.03230214 0.22262375 -0.013473986 -0.76021796
000030 74 10 56 3f cf ec 09 be ac 4a 10 3f 5c bd 8f be
       0.83618855 -0.13469242 0.5636394 -0.28074157
000040 fe c8 a5 3f 10 45 c4 3e ea 0c 8e 3f ed 1c 0e 3c
       1.2951963 0.3833394 1.1097691 0.008673889
000050 7e 34 e9 3d e7 a3 81 3e 5f ad 00 3f 97 82 88 3b
       0.11386965 0.2532036 0.50264543 0.004165958
000060 ee 94 0a bd 50 13 a1 be 49 99 86 bf f2 4b cc 3e
       -0.033833437 -0.31460047 -1.0515529 0.39901692
000070 83 d9 06 bf 1b 49 bd be e7 02 0d 3e d4 22 ce bf
       -0.52675647 -0.36969838 0.13770638 -1.6104379
000080 f0 43 91 be d1 42 85 bf 43 ea 37 bf
       -0.28372145 -1.0411016 -0.7184183

layer_out.weight f4 [1, 35]
000000 e5 54 9a c0 a7 78 56 3f 8c 01 a6 c0 b1 36 8a 40
       -4.822863 0.8377785 -5.187689 4.319176
000010 78 3c e6 40 68 5e bf bf d7 2b a7 c0 3a a5 93 40
       7.1948814 -1.4950686 -5.2241015 4.6139193
000020 82 49 2e be 48 03 94 40 ca 7f a5 3f 2a d7 9e 40
       -0.17020229 4.6254005 1.2929623 4.963765
000030 85 8e 98 40 a3 e4 c0 be 4e 41 8c c0 12 14 9d c0
       4.7673974 -0.37674436 -4.382972 -4.9087
000040 da d7 89 c0 a6 d6 93 c0 f6 62 58 40 40 20 be c0
       -4.307599 -4.619952 3.38104 -5.941437
000050 63 e7 f7 bf 14 bb 21 40 96 fc a3 40 76 18 e5 be
       -1.9367489 2.5270433 5.1245832 -0.44745225
000060 b2 6e 83 be 09 af 99 be a0 dc 87 40 01 bb e3 40
       -0.2567039 -0.30016354 4.245682 7.1165776
000070 3f b2 d9 bf 0a f5 0c bf d7 99 29 c0 a0 48 8f c0
       -1.7007521 -0.550614 -2.6500146 -4.4776154
000080 40 7b 80 c0 78 31 b4 40 dc 28 8a 40
       -4.015045 5.6310387 4.3174877
