data/eigenestmodel.pth (torch, 68552 bytes, 8 tensors)

fcnn1.0.weight f8 [60, 4]
-0.11505649852728332 0.40682960141849517 -0.1788794956795386 -0.26150618219034694 -0.08758857260372573 -0.2705845056600006 0.4885964469604974 0.3699388329058643
0.17053033341593082 -0.10226146324474937 0.3964251762019723 -0.08591442890669942 0.11977931495201032 0.4694364427793587 -0.2309979761057876 0.2267821548287175
0.1523689548704415 -0.049302724348558535 -0.3639697530520277 -0.29794430155345364 -0.18928554683149257 -0.15962695008119265 0.001340605159838193 0.23849181406033154
0.4215717929944673 0.4261261138940948 -0.08781487610053827 0.17367876110603725 -0.5815864220210611 0.1487057465452242 -0.01967489828554195 0.06107480366706192
0.03589740693255287 0.4776844008533006 0.10448267088562166 0.29627234242343964 0.23132547175998214 -0.007819826418936526 -0.3499352611735087 0.03046969214891787
0.08444524586302167 -0.25045861328161184 0.3663393190334945 0.054345657473255427 0.29163220921416605 -0.16171675507076433 -0.424195001119063 -0.2668150943967167
-0.2743245229865954 -0.018996692921019465 -0.4021773159228051 0.2606163892508269 0.3754753102996468 -0.26196421890295774 0.491251163979498 -0.12375379683417265
0.04414818771694837 -0.39329380359143445 0.37183812956701445 -0.2528469182474552 0.07737610903569835 -0.26403062663584226 -0.007056870464166299 -0.06781483602289162
-0.3714016679601502 0.22012721283395092 -0.29929486766016 -0.2206166094675439 0.09063941982894023 0.5187475872006015 0.22964304290709328 -0.2995545077682684
0.655035473337492 -0.39707098996368706 -0.10329678324381267 -0.13144371543374944 -0.023062127839150626 -0.4267221811401376 0.09316428928975233 0.3154345636549655
-0.3796452512862122 0.43469981634789034 0.09929262660577197 -0.13208632768036288 -0.7119261626159067 0.2754281351300046 0.053077627926657454 0.12466015373994938
0.2257559112649238 0.29157605014140525 0.12916209619093658 0.45003916001761696 -0.1747729310114205 0.3864177163466605 -0.48979558372570636 0.20581730710730944
0.2000221961775583 0.151807571816088 -0.3286504704926806 0.3404879748427823 0.17552707032957166 -0.10903276442370502 -0.4801588098585428 0.4642899831489707
-0.27921930198717443 0.4830234441002988 -0.3275232625250876 0.354066971420031 0.5545853647666702 0.14983799305569723 0.1971876929009634 -0.035357276041447006
-0.5212126419469739 0.0391272106177601 -0.10406553515945657 -0.4337558436104973 -0.21366276398861261 -0.17574382025427615 -0.21095647416858587 -0.046570657520276004
-0.1418981787191791 -0.1837307541108175 0.4417966168009025 0.264232298407655 -0.24509455182300466 0.03686986675228815 -0.23392676609684726 -0.45936017409314384
-0.12301070660711 -0.22693689620623791 -0.48426929907514576 -0.14418175419949653 -0.18479105525384543 -0.1912819953904351 -0.3203369663590091 0.11550100042169514
0.010473135353488983 -0.34678309310599775 -0.3209007096664469 0.18925613401284752 0.46239358968091576 0.1514223852929754 0.42627683284504275 0.21487267225501133
0.01939260461862461 0.19121389211084597 0.18080511991973477 0.029628628481416508 0.11539510664420315 -0.055445997505735645 0.155106665535782 0.025441515822816896
-0.28323636718698975 0.1505936828925597 -0.128951182581512 -0.0075210282316191535 -0.1638386419740172 -0.07505207342083609 -0.36465741547109987 0.12045754253951374
0.27391681054341366 0.008665635928586697 -0.048525240115731456 0.11223614955892663 -0.42548530197233897 0.0019539455847213394 -0.0647676705001966 -0.01553660048084815
-0.12085228808201363 0.17032038888914428 -0.0868413111696914 -0.3897265958159544 0.10154163684200407 0.3341108740390059 -0.4660510727396841 -0.3448340480281975
-0.5328938711847366 -0.13791371530283286 0.43364064968958316 0.03418862761731506 0.29403727574822097 0.12133801253712886 0.3766507518880131 -0.36356864283324286
-0.07552115488196076 0.05759046404081253 -0.13650416071758842 0.2989323832824345 -0.1348665456889339 0.254988633138286 0.4696779330723774 0.486648615934369
-0.1871390271166391 -0.2550430145389716 -0.31800548511027027 0.08383401474403757 -0.3837247783088878 -0.395323910006445 -0.34035715157267077 0.4499991412402546
-0.25410079619886305 -0.23004013001760004 -0.4183056163760173 0.17350024492295996 0.6692033150756053 -0.36799874680471795 0.10916026475694757 -0.40737119711422903
0.09368729789169578 0.2300118298115677 -0.3999860924468715 0.026982136823051672 0.0990817658820981 0.18623888042936637 -0.3934105037819155 0.3636647858163629
0.03136660355634452 -0.34605273771085565 -0.29581494431181865 -0.47883670364817327 0.5306259984287203 -0.41156049025617997 0.3572032175450933 0.4262808025313148
0.14976172540302857 -0.21852781257939735 0.2263658543026678 0.0025714578886503747 -0.15548229841153527 0.3113539105001257 -0.06963596919847714 0.08799754578009195
0.039827531924588044 -0.3886095324865673 -0.45578884573319817 0.11558771671710494 0.0183601172004641 -0.22038092977109291 -0.13469362377044636 0.037587446422415016
00000000: b3f0 5dba 5774 bdbf 19c7 4806 7f09 da3f
00000010: 022e eff7 85e5 c6bf 1e66 0d6d 84bc d0bf
00000020: 4d19 d666 346c b6bf 424c a7ac 4151 d1bf
00000030: d2c6 2808 2a45 df3f 5b78 36ed 13ad d73f
00000040: c4aa 7f1e f0d3 c53f 6ffd 46a8 ce2d babf
00000050: f74d c6b3 075f d93f 88a6 68ee 7cfe b5bf
00000060: 6fc7 7470 dba9 be3f 4c6d 5226 3f0b de3f
00000070: 9e84 6878 5791 cdbf d222 2799 3207 cd3f
00000080: 4210 0c6f d380 c33f d08c 5ce9 343e a9bf
00000090: aedd 85ca 474b d7bf c2e7 ccf9 8411 d3bf
000000a0: 1495 9f40 823a c8bf 6058 14e9 a76e c4bf
000000b0: 00e9 5fd4 e7f6 553f f65c e056 e686 ce3f
000000c0: cbf2 f441 08fb da3f ac63 c976 a645 db3f
000000d0: 2740 f424 097b b6bf b6e8 7a0b 1b3b c63f
000000e0: 7e19 cc20 5b9c e2bf d9ca 1137 ca08 c33f
000000f0: c90d c112 a825 94bf 4824 b858 3245 af3f
00000100: 85b2 9219 2561 a23f 9d5a de97 6192 de3f
00000110: 7ed5 7356 60bf ba3f 4bc0 5a45 20f6 d23f
00000120: 3e6f f8b3 129c cd3f 407c d655 d703 80bf
00000130: ac46 9ddd 5665 d6bf 10f6 316d 7233 9f3f
00000140: a5cb 4821 349e b53f 39f2 4290 8307 d0bf
00000150: 9c37 9f78 1a72 d73f b8f3 0dab 31d3 ab3f
00000160: a33e 4224 1aaa d23f 2041 1f77 22b3 c4bf
00000170: 3db7 3bca 0226 dbbf d4d5 209e 7f13 d1bf
00000180: 70f7 ad71 888e d1bf c0cd 4f7b de73 93bf
00000190: 6d37 c5ec 45bd d9bf f191 285d f0ad d03f
000001a0: db50 8c98 c907 d83f ce43 3a92 05c4 d0bf
000001b0: f67c dab8 a870 df3f 009a 282e 54ae bfbf
000001c0: 6c0b d85c 979a a63f 1542 09c6 b92b d9bf
000001d0: 525a 7927 32cc d73f e619 31d7 a42e d0bf
000001e0: 5fd0 ccb1 ebce b33f e7c5 a2b6 e0e5 d0bf
000001f0: 34f5 b03d aae7 7cbf 60e4 e626 505c b1bf
00000200: 8465 6480 0bc5 d7bf fa6c 0ae6 202d cc3f
00000210: 9a81 1da9 a527 d3bf 680a 4f41 2a3d ccbf
00000220: 53ca e41f 2534 b73f caf9 3c8a 9499 e03f
00000230: 211b 8577 f164 cd3f 58fb 8eab e62b d3bf
00000240: 838a f6f3 0cf6 e43f 7c66 0571 9c69 d9bf
00000250: da6d d071 a871 babf 5cbe 86cd 25d3 c0bf
00000260: 609c 6133 999d 97bf 2461 1e8d 6a4f dbbf
00000270: db91 a767 9dd9 b73f 5745 bb73 1430 d43f
00000280: 6ec8 9698 1b4c d8bf 38a6 b22d 1fd2 db3f
00000290: 8777 01d8 3d6b b93f 1c65 d16c 34e8 c0bf
000002a0: 6144 3360 19c8 e6bf 5d06 3254 9da0 d13f
000002b0: 8b41 30a8 fd2c ab3f 0c6b 6d53 bae9 bf3f
000002c0: ad79 e1d7 91e5 cc3f 47de e997 2ea9 d23f
000002d0: b1ed 8231 6288 c03f 7b7a 8c0c 71cd dc3f
000002e0: 56c6 759b f55e c6bf 4973 935f 11bb d83f
000002f0: d7ef 7493 cf58 dfbf ee03 7db5 3858 ca3f
00000300: 3e42 87cb 539a c93f 4e1d 1e36 6e6e c33f
00000310: 5a30 a5fb 9b08 d5bf a562 2813 8eca d53f
00000320: ee68 50c9 ab77 c63f d06c 643d 92e9 bbbf
00000330: 69a3 4e04 ecba debf d90d 5f55 edb6 dd3f
00000340: 6399 9ca2 bade d1bf 1d2c e729 dbe9 de3f
00000350: c75d 4e21 24f6 d4bf 6ff0 b583 08a9 d63f
00000360: 256b 90ce 29bf e13f e8ad ef2f e42d c33f
00000370: 5577 1742 723d c93f 101d 8c50 591a a2bf
00000380: 7f91 6d22 c6ad e0bf ea55 f953 7b08 a43f
00000390: fe8d 26f6 09a4 babf eb61 b0de a7c2 dbbf
000003a0: 901e da2b 4d59 cbbf 0cad 3b04 c67e c6bf
000003b0: 687e b72a 9f00 cbbf 406f 01f6 1bd8 a7bf
000003c0: b8fc 7a32 b829 c2bf cf72 1646 7d84 c7bf
000003d0: 292c 2951 6546 dc3f 734c 0d96 2ee9 d03f
000003e0: 74f8 401e 425f cfbf 9862 d16f 9be0 a23f
000003f0: 94c2 05f1 4ff1 cdbf a327 3437 2866 ddbf
00000400: a075 ef31 a17d bfbf b013 bba9 440c cdbf
00000410: 9703 7fa8 44fe debf 68be 7b37 8c74 c2bf
00000420: d84c 74b9 3ba7 c7bf 44fd 41ad ed7b c8bf
00000430: 128e 8d9e 6680 d4bf 1c6a 773b 7991 bd3f
00000440: e076 a36e f072 853f fe8a ecb6 b131 d6bf
00000450: 08f5 5121 a389 d4bf 8687 1385 8b39 c83f
00000460: 19d0 6348 db97 dd3f 1d9a 5b08 cf61 c33f
00000470: a729 07a0 1e48 db3f ded7 119e f280 cb3f
00000480: 4a29 7caa a7db 933f 2117 9462 b279 c83f
00000490: 5b97 8046 9f24 c73f 907d 6999 f756 9e3f
000004a0: bfc0 27a1 888a bd3f 1064 f6f3 6a63 acbf
000004b0: e013 ef03 89da c33f b0bc ad39 570d 9a3f
000004c0: 30c8 866d 8b20 d2bf 94fd 805f a746 c33f
000004d0: 52eb fbeb 7881 c0bf 00f3 97a4 5ece 7ebf
000004e0: 00bb 8c24 aaf8 c4bf 48e8 d6d8 9c36 b3bf
000004f0: f64d 6c0e 8c56 d7bf 7c84 c335 4ed6 be3f
00000500: 22f3 c65f da87 d13f b76f 4cf7 49bf 813f
00000510: 01bd a7de 4cd8 a8bf 94d8 c81f 82bb bc3f
00000520: a397 39b4 263b dbbf 802a 4e8c b801 603f
00000530: 48ee a232 9d94 b0bf 006c a637 a7d1 8fbf
00000540: 4782 f5f0 2cf0 bebf e178 0ffa 0ecd c53f
00000550: b863 6a6f 3b3b b6bf c14c dad1 47f1 d8bf
00000560: fc30 6bf9 a1fe b93f 8712 4f93 1262 d53f
00000570: b5b0 ebe0 c7d3 ddbf 8804 b5d3 c211 d6bf
00000580: e245 9f72 770d e1bf 76a0 7218 28a7 c1bf
00000590: 4a82 28b6 c4c0 db3f 18e2 05fb 2b81 a13f
000005a0: cf2f c9b8 81d1 d23f a2cd 9b0b 0210 bf3f
000005b0: 64dc 57c1 0b1b d83f f678 b469 b544 d7bf
000005c0: c0c9 5fba 5a55 b3bf 28c7 3b4f 7f7c ad3f
000005d0: 6c65 06e5 f778 c1bf 0975 7a4a b521 d33f
000005e0: a57b 8795 4e43 c1bf 4490 0bd8 bb51 d03f
000005f0: 1eb8 8c08 340f de3f df3b 853c 4025 df3f
00000600: 68b7 a2f0 2bf4 c7bf 2229 a1ef 9f52 d0bf
00000610: 8cd2 9fad 335a d4bf c436 9e5f 2576 b53f
00000620: f518 605f f28e d8bf 657d 33a8 fc4c d9bf
00000630: aeb7 bd5c 69c8 d5bf f7b7 b632 c9cc dc3f
00000640: 88f2 63fc 2f43 d0bf 20ba 9879 f471 cdbf
00000650: 055c 84eb 84c5 dabf a263 e58a 4135 c63f
00000660: f9fb 1312 1d6a e53f 25b2 9f9d 4a8d d7bf
00000670: dc5e 2757 edf1 bb3f eb07 3ca4 5e12 dabf
00000680: 5cd5 7e08 e4fb b73f 32ed 5d13 0771 cd3f
00000690: 5d81 7a44 5f99 d9bf d0c0 ec8c 34a1 9b3f
000006a0: 3cf2 1730 6c5d b93f 4609 58f6 acd6 c73f
000006b0: 875b e93f a32d d9bf 9d70 72aa 4846 d73f
000006c0: e814 ec90 480f a03f 7633 ca61 ba25 d6bf
000006d0: 4a30 dfcd a1ee d2bf 37c6 92b3 42a5 debf
000006e0: 1414 b55f e3fa e03f 1b77 7ecf 0157 dabf
000006f0: 2275 58e2 6adc d63f 6537 7246 2f48 db3f
00000700: 9036 6668 642b c33f 3cc0 2528 b8f8 cbbf
00000710: 969d 946a 8ef9 cc3f 8009 1df1 bc10 653f
00000720: 1469 640d d8e6 c3bf a31a c5f3 38ed d33f
00000730: 502d 55b2 a9d3 b1bf 44f6 40d5 0187 b63f
00000740: a868 3136 4664 a43f dd64 3c84 fade d8bf
00000750: 2f90 93fa a42b ddbf 0489 1e17 2897 bd3f
00000760: 30f6 b49b fecc 923f 8cb3 033b 7135 ccbf
00000770: 2072 8902 a43d c1bf 98b4 3f6a a93e a33f

fcnn1.0.bias f8 [60]
0.3104079590407475 -0.2020930678873922 -0.10609058923804002 0.5070862762443142 -0.04024236335406939 -0.012329678767442398 0.4681091952029146 0.3832147926950842
0.4833220311832496 -0.055249635295938515 0.1378544311740217 -0.34862197356424063 0.10230570043767595 -0.10391091150189985 0.14277644112982796 0.22890657262892447
-0.43470635988773954 -0.42411859967431653 0.4063797120282957 0.22251019601751904 -0.4621294897739551 0.23500268627517643 -0.23598583773858398 0.48790104111336013
-0.18755644289834128 -0.4490130776670578 0.19613694067663437 -0.24504931755124043 0.311693488685105 -0.3276692251751594 -0.11893758116936609 0.13001992605587698
-0.2976185496428012 0.1336684532805562 -0.14922263120429613 0.4788501752240098 0.3679494711543443 -0.030273545649359416 0.29847828934181453 -0.3859308496328028
-0.03003599353807824 0.05980620108342016 0.4630319955315493 -0.3997869990691231 0.3255777963008558 0.34911848053962147 -0.45855886027576775 -0.4086715233020893
-0.04414147420394121 0.36372100902610327 -0.08274893287150265 0.22896721420616775 -0.31687716737840654 -0.27514732092011074 0.030748138221995402 -0.29253580471106616
0.07057306559295036 -0.26685829995792154 -0.3821337265487309 -0.48593891914795684
00000000: 2be1 1f58 b9dd d33f 5f8e a986 2fde c9bf
00000010: 16d5 30bb c028 bbbf 3408 97ff 0c3a e03f
00000020: e0f8 09a5 a59a a4bf c05d 9c78 4d40 89bf
00000030: 149e 1645 80f5 dd3f ec00 7e56 9786 d83f
00000040: 0993 5787 bfee de3f 1089 6c21 ae49 acbf
00000050: 3f24 c0c8 36a5 c13f 6406 c889 d24f d6bf
00000060: 30fe 92d5 b430 ba3f 4c24 99ce e799 babf
00000070: 565c a598 7f46 c23f 4ded a381 cf4c cd3f
00000080: e22f c59f 3ad2 dbbf 127f ce56 c224 dbbf
00000090: e8d7 3a0d 2002 da3f 56fd 75cf 367b cc3f
000000a0: d729 4691 8793 ddbf 7113 036a 9114 ce3f
000000b0: 4904 b4af c834 cebf f709 d149 c539 df3f
000000c0: 0c84 337a d901 c8bf c49a 0359 a1bc dcbf
000000d0: 7d2f dfe8 031b c93f c614 65aa c65d cfbf
000000e0: c3d5 113f c9f2 d33f 2c1c 8257 88f8 d4bf
000000f0: 1445 637d b172 bebf 9881 1e31 7ea4 c03f
00000100: ac85 59ac 2e0c d3bf fc66 ac41 0c1c c13f
00000110: 083a 6c28 ba19 c3bf ed57 9134 7ba5 de3f
00000120: d00e 4cf0 7b8c d73f b1e9 fd41 0700 9fbf
00000130: ec80 d2ae 441a d33f 362f 6c4e 17b3 d8bf
00000140: f2af cb67 c1c1 9ebf 00a9 801b eb9e ae3f
00000150: dad0 73f3 50a2 dd3f 1e8b 9735 1c96 d9bf
00000160: 869e da40 44d6 d43f 6433 160a f557 d63f
00000170: ac3a 0b43 0759 ddbf f9e4 d89a ac27 dabf
00000180: c0d0 3418 b699 a6bf aea7 a87b 3447 d73f
00000190: d845 76b8 082f b5bf 6d94 6f34 cc4e cd3f
000001a0: e851 af2b b747 d4bf e4c4 3b82 039c d1bf
000001b0: c030 4ea0 707c 9f3f 1728 8918 e8b8 d2bf
000001c0: 4d3f b390 1311 b23f 4e11 bfd5 3414 d1bf
000001d0: 0e6d 8e04 e174 d8bf 2005 668d 9f19 dfbf

fcnn1.2.weight f8 [60, 60]
0.12026047808803852 -0.2115014920471143 0.11433912650099441 0.10302273700527907 -0.10402860321762993 0.11344637508045466 0.1352036798473348 0.046764568922562366
-0.11942784223793225 0.09063839727277076 -0.056376513635754744 0.07486503810510325 0.052507633422846006 0.18344921432970268 -0.07350933305951697 0.08577988493556676
0.025055185357291537 0.08966039430150508 0.03164985194607412 -0.07965273544744744 -0.023636304705661967 -0.09887860631500214 0.10347949806087733 0.048361714708870136
-0.11662023649803764 0.008923885269321696 -0.11542720946434314 0.191334371096096 0.06270781152846233 -0.05197796199001564 0.08424239607091838 -0.001673703637769558
-0.023543916738714893 -0.12218483168352093 0.06383581215884959 0.13090733395524634 -0.02548488495959797 0.11885467434963452 0.030465347139003358 0.0013036306606269699
-0.02766570436089489 0.09334918580486998 -0.1202773701187278 0.09877267326322622 -0.054516095087764505 -0.02592107751010165 -0.11481186626978543 0.09730753447397897
0.12788854552378837 -0.03763982446107754 -0.01559401790963895 -0.029478885325692074 0.059877084785522255 0.02789933237371814 -0.10897539898787001 -0.060904153423990845
-0.10826593649774786 -0.05116308980764979 -0.08374378495634202 -0.009762462779467976 0.07887131759525748 0.16904056061747202 0.030723626427457865 0.06598447190366104
0.04595621954319237 -0.027325704915257043 0.008554153470736674 0.07259554605520599 0.07326205454428741 -0.015161025918726562 0.0042088843392402925 -0.013604427166805294
0.03986238352996996 -0.12877346104942822 0.0949781491369169 0.0269588554411506 0.10712657936737602 -0.15676197014717752 0.03489933656109041 -0.27617166242440705
0.02977762502586605 -0.09632349800246183 -0.18802166625296934 0.13765697168498658 -0.024573275093702537 -0.12383964529272039 0.06793045220686497 -0.0424506397962706
-0.013065480980306875 0.021775659511292983 -0.2644060003699233 0.015491289640476441 0.010945703061571749 0.031477577448828314 -0.09380435570618925 0.12445044649997987
-0.06877383648082946 0.03377697248484522 0.06995455243567253 0.012214102987224473 -0.03001197491606962 0.009817775857230149 -0.011687447958586578 0.09950192676942554
-0.10180661230596043 0.025891065409770986 -0.07509816859655319 0.043411842024757875 -0.12496236385686738 -0.1273836300197208 0.049286650841012414 -0.0385049701623201
-0.02252759682042367 0.09159900072420618 -0.11110611360376799 0.05097134765761819 -0.1517908060427035 -0.12223089529346202 0.07948721617959542 -0.12823556871919334
-0.09336071322271267 0.3797434266912129 -0.056961481780894316 -0.07358362296902418 -0.11429145012331324 -0.03758052440332557 0.10436737683524619 0.003504024391833501
0.13174650134844113 -0.07226901928290216 -0.1049789610922169 -0.0028114864719784582 -0.004731259124887602 0.0288183371815966 -0.05773267440968593 0.07202709644586765
0.09644571205130484 0.09229379823923345 -0.0367909418072931 -0.10703146979528406 0.004073361621886777 0.09963251572335727 -0.07545866433276284 0.05900867049679583
0.06209297285856061 -0.07765019926010773 0.14937599338407595 -0.10854861459659594 0.08601104391500346 -0.0027553300045921048 0.006233687772318385 0.10921561513398714
-0.06917076264138336 -0.12865921598830427 -0.12649355080257957 0.1281480702027351 0.12511098951220664 -0.06559431806435286 0.07000421833236795 -0.11102730081540356
0.09148011022366578 -0.10290592214178701 0.006809470972251618 -0.10951133081432964 0.02375187390120398 -0.025012284327978074 0.07219977269496333 -0.17090639909145305
0.05563758898803148 0.09958925228268234 -0.030244440829861954 0.0036190290633396458 -0.06446977279314695 -0.057292314796882 -0.011937190905073988 -0.02275642298242284
-0.02198342267754162 0.11713989879592093 0.09401403426287802 -0.08508011458853207 0.14210071098766244 0.120129351362246 -0.02141863848123612 -0.04623506057280362
0.07555718943299408 -0.09335824437822783 0.11956837954118577 0.13424324727690337 0.06392445357080817 0.017869628977162683 -0.16257326245113904 0.10543256203593851
-0.0281108222615591 -0.14197876052287164 -0.11704169522050062 0.17748900651743424 0.021282591847835153 -0.09254253337164288 0.06929924284867936 -0.07941374976035405
0.08201414398497821 -0.07690059790832798 -0.20812341730970896 0.12699490508952296 0.010690844574952701 0.10409593684119506 0.02792205798788228 -0.12241790701504467
0.1890119376911264 0.019608747186766112 -0.24905650392036527 0.04743201923159643 0.11011065664887548 0.008467091040467112 -0.007029206126485554 -0.12915757916577833
0.10486363074914119 -0.0859754203711446 -0.021186681939357528 -0.03907194392912201 0.13181402008391796 0.0018373940790535892 -0.06359582160740695 -0.12024164655165176
-0.12786505888870048 -0.09257752115437265 0.01895159165022603 -0.1874575095502094 -0.034424099431553556 -0.02011043918383984 0.10862181067923204 0.11230051314295662
0.0660886060780004 0.10575102557965838 -0.07486137983769683 0.14593002401788852 -0.11111345397219095 0.03525173159415934 -0.11729050251436515 0.006572274513982623
0.04809958760201165 -0.11769747713812254 -0.056152975330285564 0.10314505183251865 0.09434003083533932 0.1110836941576531 0.014328855374042397 0.01406609371375586
0.09574072204546928 0.06444998287077341 -0.10805234220020776 0.009233641697773437 -0.03402293750719401 0.07267688584927083 0.009005834673807226 -0.18226883131025562
00000000: 00b3 6304 64c9 be3f 3fe3 b21b 7b12 cbbf
00000010: 2798 f938 5445 bd3f f79c 2eb6 b25f ba3f
00000020: 7514 ab58 9ea1 babf 52ff d156 d20a bd3f
00000030: c71f 9fab 5a4e c13f 3894 448c 86f1 a73f
00000040: e1cd a4b4 d292 bebf 5664 0cf8 1334 b73f
00000050: 18f8 a7e4 61dd acbf 5074 46ea 5a2a b33f
00000060: 7cd6 aed0 47e2 aa3f 9af0 028c 437b c73f
00000070: 65ff 70f5 81d1 b2bf 68f1 73a8 abf5 b53f
00000080: 38b3 d106 11a8 993f 607c 45cd fbf3 b63f
00000090: d931 10ce 6834 a03f 50a2 c825 1f64 b4bf
000000a0: af20 d68e 1d34 98bf 5aa1 65bc 1b50 b9bf
000000b0: d25b fae3 a17d ba3f 392d 1bde ddc2 a83f
000000c0: 5794 cfe5 d2da bdbf 2077 149b af46 823f
000000d0: ffc7 b739 a38c bdbf d1ae 3a09 a57d c83f
000000e0: 24ee b77f 9e0d b03f 083e b8fd da9c aabf
000000f0: 9caf 0fe0 e890 b53f 806e cb98 056c 5bbf
00000100: 986d a681 e51b 98bf 7ae2 2550 8147 bfbf
00000110: 002e 8935 8b57 b03f 8479 124f 92c1 c03f
00000120: 5872 c6ad b518 9abf fbf3 4e8b 426d be3f
00000130: 1544 7ed6 4e32 9f3f 80d1 6bc3 d25b 553f
00000140: 22ab cdfd 6554 9cbf 7ae0 2374 bbe5 b73f
00000150: dcdb 1b6b 7fca bebf d66f 6779 2a49 b93f
00000160: d8e0 039b 88e9 abbf e25b bb10 0e8b 9abf
00000170: ce4a d27a 4f64 bdbf 965a 3886 25e9 b83f
00000180: 0062 47e0 a65e c03f f6cd 2cee 8645 a3bf
00000190: 6829 7ba7 c1ef 8fbf 1ae5 9581 b62f 9ebf
000001a0: b405 de91 35a8 ae3f a85c 8080 a491 9c3f
000001b0: 28b1 b8ce cfe5 bbbf 1610 4b46 d42e afbf
000001c0: f154 8700 51b7 bbbf daea f86a 0c32 aabf
000001d0: 8e78 a191 3b70 b5bf 280b ee92 57fe 83bf
000001e0: daff a921 e930 b43f 9657 c6ff 1ea3 c53f
000001f0: 64be e1aa 0376 9f3f edbb debc 5be4 b03f
00000200: bcbb f8d7 9287 a73f f000 ce03 45fb 9bbf
00000210: dcd7 360b d784 813f 7672 2428 9f95 b23f
00000220: 1c34 4e50 4dc1 b23f b039 f573 be0c 8fbf
00000230: 1958 6fc9 553d 713f b012 194e a3dc 8bbf
00000240: 1023 34a3 d768 a43f 3067 e615 a67b c0bf
00000250: e6ae 60ec 7c50 b83f 3a4f d429 1a9b 9b3f
00000260: 684c eac2 a56c bb3f acf2 84b7 c610 c4bf
00000270: 8a2c 5d6a 53de a13f 4877 8ce8 cbac d1bf
00000280: 2df9 8d96 067e 9e3f ddc3 c121 a8a8 b8bf
00000290: a47a bf0d 1811 c8bf 8409 ba5f be9e c13f
000002a0: dc41 8893 bc29 99bf 5f00 7b7a f4b3 bfbf
000002b0: a687 a1de e363 b13f 6e0f 3d1b 17bc a5bf
000002c0: 2cab 222c 13c2 8abf 78a1 ccc5 5b4c 963f
000002d0: 771e 1d25 07ec d0bf 1099 07b3 e5b9 8f3f
000002e0: 500d 7365 b36a 863f a469 663b d41d a03f
000002f0: b6fd faef 8f03 b8bf 93a4 b005 fcdb bf3f
00000300: f06f 8182 299b b1bf 8e50 5c20 374b a13f
00000310: 4ae3 eaa2 8ae8 b13f 8074 0a27 b503 893f
00000320: f4f5 028b 75bb 9ebf 6062 cf91 571b 843f
00000330: 4af1 0bb6 96ef 87bf 7419 5d51 f578 b93f
00000340: ffe2 5e86 ff0f babf 7035 c6fc 2f83 9a3f
00000350: ba97 1c32 a239 b3bf cdca 82b3 133a a63f
00000360: 4400 ff91 88fd bfbf de7f 7d56 1b4e c0bf
00000370: 68a8 fb92 193c a93f 1c47 2967 ecb6 a3bf
00000380: 349f 676e 7911 97bf 4ced 7438 0873 b73f
00000390: 1858 5044 7371 bcbf a9ed 719e ea18 aa3f
000003a0: d6b8 e491 e16d c3bf dba1 d821 864a bfbf
000003b0: 8002 f131 4659 b43f 569c eaea 056a c0bf
000003c0: 48d5 05da 7ce6 b7bf 779f a05f b74d d83f
000003d0: 5ee3 c22a 0e2a adbf c653 2c56 60d6 b2bf
000003e0: b2f6 7d58 3442 bdbf 9cc0 8e26 c13d a3bf
000003f0: 2ed5 4606 d2b7 ba3f f89c 5ac5 78b4 6c3f
00000400: 70b5 53c1 11dd c03f d684 55f2 3880 b2bf
00000410: 9dbc a8b4 e6df babf c0ce 684e 1d08 67bf
00000420: 105d 5db3 1561 73bf f056 e1de 8d82 9d3f
00000430: 771c 0019 238f adbf c52c a927 5e70 b23f
00000440: aa8b 198b aab0 b83f 38a6 0ffd 90a0 b73f
00000450: dae5 b327 43d6 a2bf ddde 6916 6a66 bbbf
00000460: 916a 36af 3aaf 703f 0e68 a63c 8481 b93f
00000470: a151 824f 4251 b3bf c3a8 ed6b 6236 ae3f
00000480: 7c55 7a6f a6ca af3f 9f9c 592a e2e0 b3bf
00000490: f130 32a7 c01e c33f d1ee b78d d7c9 bbbf
000004a0: cfb2 b5dc d104 b63f 8017 4d88 5892 66bf
000004b0: 196d d9d1 7e88 793f 0087 36f7 8df5 bb3f
000004c0: b255 62d3 2cb5 b1bf 9ad7 7fba e777 c0bf
000004d0: 220e edcf f030 c0bf 307b 48ed 2767 c03f
000004e0: bf9d 290c a303 c03f 15cb e30a caca b0bf
000004f0: f2ce 51e4 cbeb b13f b71e f701 496c bcbf
00000500: 9226 a591 3d6b b73f 14e8 29e2 0a58 babf
00000510: 99e6 0f72 3fe4 7b3f 6194 6340 ef08 bcbf
00000520: 505f 7f46 6952 983f bd67 bffc d19c 99bf
00000530: 76e5 802e af7b b23f 6a30 63c9 42e0 c5bf
00000540: 6c86 43b2 877c ac3f a853 9665 ae7e b93f
00000550: d410 0011 66f8 9ebf d9d6 0c6f a7a5 6d3f
00000560: 5224 ba4d 1781 b0bf debf ba14 6b55 adbf
00000570: d8e2 58a4 8672 88bf 390d efb1 754d 97bf
00000580: 2316 d185 d282 96bf 729e 6262 e1fc bd3f
00000590: 682a 86c2 4d11 b83f 029b b275 cfc7 b5bf
000005a0: f915 3729 5b30 c23f 68fa 6313 ccc0 be3f
000005b0: 97ff 347f c4ee 95bf 5673 2d32 1fac a7bf
000005c0: a2a6 9749 b757 b33f 699d 6a6e 53e6 b7bf
000005d0: 24de c387 089c be3f 9bae 61fa e12e c13f
000005e0: a454 805d 5a5d b03f b8bb 3180 6a4c 923f
000005f0: dd40 b75e 33cf c4bf 96ba e0dd a0fd ba3f
00000600: f4b6 1b59 15c9 9cbf 8d0f 962a 5c2c c2bf
00000610: 1c8e 3dcd 71f6 bdbf 232a 32b3 f5b7 c63f
00000620: 309f d78f 1acb 953f 49f8 5112 deb0 b7bf
00000630: 1e32 ac5d 98bd b13f 85cd 12a2 7554 b4bf
00000640: 2194 3902 e1fe b43f 2422 0ff1 c1af b3bf
00000650: 3c40 70c3 c9a3 cabf b91e 0f7a 5e41 c03f
00000660: 7040 87de 14e5 853f 4c21 6104 08a6 ba3f
00000670: 0173 9497 9997 9c3f f30a 13ab c756 bfbf
00000680: e2ee 770d 8b31 c83f 88e0 87bf 5014 943f
00000690: 1cd7 9861 15e1 cfbf fc11 c476 0249 a83f
000006a0: 447d 3f45 3630 bc3f e073 e3b8 3157 813f
000006b0: c0ae e126 a8ca 7cbf 1516 464d 3c88 c0bf
000006c0: 597d 9bc8 57d8 ba3f c900 c132 7c02 b6bf
000006d0: f242 2928 f6b1 95bf 5ac3 bbe2 3c01 a4bf
000006e0: 6015 b524 48df c03f 007a aede 961a 5e3f
000006f0: e84f f7d5 d047 b0bf 1c79 8e13 28c8 bebf
00000700: d031 1ddb e15d c0bf 4ee9 b311 29b3 b7bf
00000710: f024 61c9 0b68 933f 6231 7490 9bfe c7bf
00000720: b06b 811a 09a0 a1bf 8841 69ba d497 94bf
00000730: 20e6 7f94 a3ce bb3f 6fe4 45f7 b9bf bc3f
00000740: e244 bed1 2eeb b03f 5412 62cc 7f12 bb3f
00000750: 4ae7 228a 1d2a b3bf 52a6 54c4 d5ad c23f
00000760: ffc6 f46a ee71 bcbf 9808 a6d4 830c a23f
00000770: 123c 6e18 c006 bebf c0f4 9081 87eb 7a3f
00000780: c648 6757 82a0 a83f 0244 21ff 6b21 bebf
00000790: 57bc 3b31 15c0 acbf 9869 5dd0 b667 ba3f
000007a0: b433 2413 ab26 b83f 0aa7 8621 fb6f bc3f
000007b0: 89d7 c369 7258 8d3f af4a dd23 afce 8c3f
000007c0: dba9 14c6 7682 b83f 2061 a848 cb7f b03f
000007d0: 508f 017c 51a9 bbbf 905a eb68 16e9 823f
000007e0: 1483 d057 746b a1bf 83d2 e5cf f39a b23f
000007f0: 426f 2dab a671 823f 5862 c7c6 9554 c7bf

fcnn1.2.bias f8 [60]
-0.07591740659572899 0.13035700215223242 -0.045616557937621566 0.12113973125437909 -0.0417368710271351 -0.08402928919704514 -0.08022669090542445 -0.11350543913700947
-0.05642547607680998 -0.07635542636683866 0.028224228157871595 -0.004966806902645584 0.07088603902027091 -0.0633058179899036 0.00985467728118411 -0.07237133806579987
0.12209933620990705 -0.1115720721740649 -0.12118133118600433 -0.11794334223319443 0.10105471281686336 -0.06081135989526808 0.0894720950199197 -0.04101194842721259
0.06573557895653662 0.028683426788766363 0.07158066025176389 0.08088150738850709 -0.12652096731655407 -0.02236896597869799 0.09908068378254256 0.07603234645660051
0.12130930288221922 0.107259432963511 0.13854876390230642 -0.05313200291771126 -0.05726281842336023 0.12283793710041356 -0.08822974815975453 -0.08239983480179995
-0.024695281782079817 -0.0752244912725496 -0.017050271066503305 0.038209229616509605 -0.08799775377167297 -0.07771641218459836 0.10210498223804741 0.09398522587439051
0.08712588274403235 -0.07931669879621889 0.0818536628412081 -0.12207859721187117 0.034654849382899984 -0.02448601129109053 0.05313184103850953 0.09192563459741233
-0.11913612810876718 0.07935813513245524 0.15290362564278676 0.11867073704906211
00000000: 389a 86ba 526f b3bf 4733 86ca 89af c03f
00000010: a410 ffb0 0d5b a7bf 7bd9 fb6f 0303 bf3f
00000020: 03a5 3200 895e a5bf 42e7 0189 f182 b5bf
00000030: 5881 b485 bc89 b4bf 86f6 0245 b10e bdbf
00000040: 887f d2cc cce3 acbf 1f22 1e7b 078c b3bf
00000050: 9854 92e3 cfe6 9c3f dc07 6613 1358 74bf
00000060: 68c5 5563 9625 b23f 25c5 e961 cf34 b0bf
00000070: a022 1565 b02e 843f 080e 2992 ed86 b2bf
00000080: 2586 e2ef e641 bf3f 8c72 22c1 fc8f bcbf
00000090: dc62 545e bd05 bfbf 5529 aced 8831 bebf
000000a0: a5b4 a7be b8de b93f ce6f f3a3 aa22 afbf
000000b0: 80e1 03aa a4e7 b63f 94f0 7aa2 84ff a4bf
000000c0: a24c cd01 0cd4 b03f 46d7 fa2f 305f 9d3f
000000d0: 9fb2 ce32 1c53 b23f c9b6 1585 a6b4 b43f
000000e0: 5d02 71cc d631 c0bf e49d 4be5 e3e7 96bf
000000f0: 0ae7 8208 5a5d b93f 2820 7819 db76 b33f
00000100: 9266 9460 200e bf3f 6d0a c4ac 5a75 bb3f
00000110: f049 ee44 f7bb c13f 911a ce2d 1e34 abbf
00000120: b06b cf58 8d51 adbf efeb 8d9a 4e72 bf3f
00000130: f365 e18a 3996 b6bf 8b66 abd3 2718 b5bf
00000140: 0468 7a4e b849 99bf d8b3 df89 e941 b3bf
00000150: 8f69 7952 a075 91bf 4c6e 37ff 2890 a33f
00000160: b11f 9252 0587 b6bf 91ff b108 39e5 b3bf
00000170: 5798 7857 8d23 ba3f d00b 706f 6a0f b83f
00000180: da4f 05c1 e14d b63f d43f 5b63 194e b4bf
00000190: f0f6 f594 5cf4 b43f fe08 91fe 8a40 bfbf
000001a0: 21a6 7ec9 47be a13f 44a2 d166 dc12 99bf
000001b0: 7ef9 45bf 1834 ab3f e98a 423a 7088 b73f
000001c0: f9cc ff8d b47f bebf eec0 1093 d050 b43f
000001d0: 22ad c993 5892 c33f 2431 9e96 3461 be3f

fcnn1.4.weight f8 [60, 60]
0.027438920658934777 0.08577936702347912 0.046850852391647484 0.037589023707616916 0.1456742401149801 0.10057277212201775 -0.12485296053521543 0.05382608146180287
0.01582694953059255 -0.11309429730773421 0.11053857907329326 -0.024424760015089524 0.11395162225053244 0.043121838287468295 0.019975466532127617 0.02852811261964713
-0.07508661183143496 0.08143092689473087 0.08721444111327295 0.016336428961813587 0.055399642719900624 -0.07629874418061873 -0.07051089689307637 -0.061108715514755704
-0.015342323548416248 0.05338340588996666 0.050346183233042685 0.044356926170627246 -0.029815369041692297 0.00975268676293764 -0.0747405734071538 0.07667411554575984
0.2876607820079654 0.09926164729667389 -0.0863485387543772 0.1159626546713312 0.03199352446336462 0.0773367600032075 -0.05914108425467503 0.15461473199080394
-0.006126749978302334 -0.10624971329191013 0.07366201518400493 -0.057115078065118785 0.0491629273088539 0.017721690563612183 0.09479772987974822 -0.08161793458053612
0.04997742051477808 0.08212537106181814 0.020897651017935653 0.0861497705584642 -0.1175998826922964 -0.04070372076246428 0.013047559511594007 0.024997751610913766
0.007581259449072993 -0.002266407491078968 -0.0642524334812187 0.015079792682422877 -0.1251943112684598 -0.08496172347370183 0.06792623671895578 -0.058895767639633556
-0.44661083160272247 0.12245478161573825 0.0007761670411536581 0.049125220552216464 0.12765395548055397 -0.06653511449026671 0.07309127850917871 -0.08694998058792415
-0.11147393671646046 0.07198831727943533 0.06621682944540966 0.049807053897806264 -0.08537495982430417 0.11943667243675005 0.12365327591696934 0.025906265963772962
-0.7162916348328698 0.05925881715394049 -0.06249756489902866 -0.13543867949003335 0.1263372406575508 0.09764960340892752 -0.05644361004216714 -0.12858091250786774
-0.0049977750949821015 -0.031899859382220744 0.11592108365761847 0.10224549112321016 -0.054596801564549 0.04921843246133918 0.19788877627146506 -0.016179925412873563
-0.10102180504954154 -0.29856195034158056 0.023300476768114198 0.008676677143544234 -0.05494197238928922 -0.021831631475429047 -0.0647859540714704 0.04492581835583395
-0.03789660667310469 -0.12712274690077688 0.025895537903849398 0.08092393865986898 0.04001341622284763 0.12829826097426972 0.04070079424290304 -0.40672671008806105
0.09267953002404528 -0.11809194817021877 0.0014609299024832781 0.09276398299338019 0.10785800961312318 -0.022389771046590165 -0.43144766681274666 -0.05119090606246147
0.1489323823973146 0.06608189667902284 -0.11290100821640797 0.07740083535499324 0.07766243813672255 0.10420085638518096 -0.0375542193324236 -0.0315059891443072
0.02810954789124251 -0.016588359133401898 0.09732988683018046 -0.04779637633523452 0.11753631822967331 -0.03176244504099458 -0.0803563279911651 -0.21939834701109112
-0.02441003807105089 -0.06522927154343114 0.026121506981599096 -0.08691801198131477 -0.04465193522327483 -0.027506904813693764 -0.06665339389533556 0.04910139261266252
-0.12755006191226306 0.1283578654736138 0.03968157804780756 -0.07335574894227495 -0.09706901819344671 0.07298497302082865 -0.044678210977563866 0.024510711105718702
-0.09857752917127206 0.06834877793039269 -0.13760319356703826 0.19311784756612754 -0.022129469796486792 -0.07474187286511899 -0.035603032607333884 0.021666817893773605
-0.07527447482743586 0.09216844809647562 -0.20688568794847867 -0.07824589546761512 -0.12268646798607456 0.06582815640252726 -0.019559227240769018 0.08830152047771583
0.1382468588166381 -0.05019270217508576 0.05519017733465186 0.10776375090278507 -0.1042178958002449 0.1494661304100758 0.0254858908393061 0.008407765160601774
0.10584628452915398 -0.149281483834156 0.1457860611125254 -0.07731815524614781 -0.02524411782297777 -0.029147641328581563 0.04169801927340833 -0.03157496252150194
-0.05672776683376381 -0.09717007951409164 0.04436510988933781 0.08089446245318463 -0.017919032958776976 -0.028742435256663423 -0.11333252986553982 -0.128056713554486
-0.021162742034295415 -0.0976359717553521 0.12742025853311706 -0.06071711143999775 0.11422591022004759 -0.07403770657621152 -0.008977544002405177 -0.11325736553553495
-0.017684046473167223 0.03315741091097915 -0.09380606374449853 -0.009815563392585021 -0.038902309976887914 0.06700578263127863 0.11794389292278144 0.013445361849943398
-0.01577957218976435 -0.0419412252465432 -0.09775838006198849 0.06056921175699931 0.0816948624413687 -0.08373454190445533 -0.06233426900608238 0.04318791076036914
0.0998440595169354 0.09196523603784848 -0.04810831026810604 0.037151323888800256 -0.042398744768204155 -0.11386015034298774 0.04361402062485435 0.11289649898875387
-0.029372915474270955 -0.0407084348637165 0.00621650343144185 0.07160638744422163 -0.11115984612847654 -0.011882861925274282 -0.10321084807023947 -0.029956511376478288
-0.04398020962551107 0.1054452610034999 -0.014266199531843276 -0.13403544276625756 -0.12085060277051651 -0.11937697797665205 0.076279407762084 0.03692784381970098
0.07955255376894851 -0.09816061196575028 -0.10993535650393069 -0.09866567501296299 -0.021659515394987894 0.07560613112128836 0.05581508352045342 0.001082814082517286
0.10111095184291097 -0.11746689744088264 -0.12251853209390283 0.03875789774202431 0.025026424399521848 0.009259165443869437 0.06055060043518121 -0.0523920775615543
00000000: d17c 78cb f218 9c3f 9994 09f8 a2f5 b53f
00000010: b7aa 9fbd d5fc a73f 898b 0657 de3e a33f
00000020: 44ed 9418 74a5 c23f 0fd3 211f 23bf b93f
00000030: 37ba 4e16 5df6 bfbf acbd 1997 178f ab3f
00000040: 1071 849a f034 903f 7e02 4d74 bff3 bcbf
00000050: 3aec 109e 414c bc3f beea e8e5 cd02 99bf
00000060: 1766 e4fa ee2b bd3f a04b 60ca 1014 a63f
00000070: 704c e9dd 7274 943f 9738 df3a 7936 9d3f
00000080: 39f7 2e4e e038 b3bf 8155 e53f a8d8 b43f
00000090: 6207 5284 af53 b63f 1067 7f30 7fba 903f
000000a0: 6255 628b 575d ac3f f54b fb82 5088 b3bf
000000b0: 23da 2a8c 000d b2bf eedb 453d a449 afbf
000000c0: 80ae 14cf cb6b 8fbf b99b e4dc 1155 ab3f
000000d0: 38be ed94 f9c6 a93f 2f03 8276 f3b5 a63f
000000e0: d017 cf8b eb87 9ebf 9041 8f75 37f9 833f
000000f0: b1cf 77be 3222 b3bf e600 b832 eaa0 b33f
00000100: 4a39 c4c4 0869 d23f a2e4 e218 3669 b93f
00000110: 80e7 0116 f01a b6bf cbe6 5e81 baaf bd3f
00000120: b802 828a 7461 a03f 6c0c fe86 57cc b33f
00000130: 3297 727d bd47 aebf eead b060 6aca c33f
00000140: 96ea 99ec 5c18 79bf 4852 cc63 2e33 bbbf
00000150: c739 2c8a 83db b23f 38dd cb00 303e adbf
00000160: a72e ef19 e22b a93f c428 9a85 a225 923f
00000170: 308d 91fd a944 b83f 405c cab7 e9e4 b4bf
00000180: a57f 4cf5 a396 a93f 3ee3 e116 2b06 b53f
00000190: 6bb3 bd9e 3166 953f 1244 1b4f e90d b63f
000001a0: 0246 2da2 061b bebf 5b27 003b 1ed7 a4bf
000001b0: 92c6 28cb adb8 8a3f ddd2 91b6 0299 993f
000001c0: 2f14 57d6 860d 7f3f e209 b741 0091 62bf
000001d0: 0281 7df4 d872 b0bf 0034 3683 27e2 8e3f
000001e0: 2c8a 4500 5e06 c0bf 6b39 bb2f 0dc0 b5bf
000001f0: 968e 3f25 9d63 b13f 2024 c507 9627 aebf
00000200: c179 f198 4595 dcbf 6446 4752 3259 bf3f
00000210: 0027 6c07 f66e 493f f071 5cdf f026 a93f
00000220: 063c fffd f656 c03f a774 c5fc 7108 b1bf
00000230: 26db d12a 1cb6 b23f f151 039b 5a42 b6bf
00000240: d9b6 8d50 8e89 bcbf 60c4 688c d36d b23f
00000250: 2ab0 e90c 96f3 b03f d0ce 3367 4f80 a93f
00000260: 35bb 5724 22db b5bf 7814 0fda 6693 be3f
00000270: 444d 1bb8 bda7 bf3f 38b4 4d14 2c87 9a3f
00000280: 782d 406f dceb e6bf d804 5af3 2b57 ae3f
00000290: 9c55 a44a aeff afbf 92f5 82fd 0d56 c1bf
000002a0: 540e 7296 d12b c03f abd4 1b7d 90ff b83f
000002b0: b108 6646 2de6 acbf 7c39 0edf 5675 c0bf
000002c0: f012 5f09 8c78 74bf 9257 96a9 2d55 a0bf
000002d0: 2af2 390f 01ad bd3f 2aa3 89b0 c22c ba3f
000002e0: 7933 5faa 1cf4 abbf e24c 908b 2833 a93f
000002f0: 6c6b 2a5f 6b54 c93f f302 006a 7891 90bf
00000300: 23e4 dea4 90dc b9bf 1b03 2395 a31b d3bf
00000310: 8010 cd86 14dc 973f f547 8ee4 13c5 813f
00000320: 60f1 2dad 5a21 acbf 1038 d2fc 075b 96bf
00000330: c324 faf1 cf95 b0bf 0c2f 2b51 8400 a73f
00000340: 11aa 941c 2f67 a3bf 651d 42e4 8e45 c0bf
00000350: ad2f a321 5c84 9a3f 2df5 0166 6eb7 b43f
00000360: a51f 2874 a37c a43f 1e53 82d1 136c c03f
00000370: ac94 6308 bcd6 a43f ae39 8f77 cf07 dabf
00000380: b040 767e d8b9 b73f 53e0 4f1f 463b bebf
00000390: 6d58 c989 95ef 573f 6109 3461 61bf b73f
000003a0: 8f67 e61f 959c bb3f 8cdf a319 58ed 96bf
000003b0: 2f5c b9ac d69c dbbf 7121 c8c6 b135 aabf
000003c0: 521d db5f 3710 c33f ee13 1841 beea b03f
000003d0: 0493 f999 14e7 bcbf 0b64 8888 8ad0 b33f
000003e0: bec2 ec7f afe1 b33f 39b9 6346 e8ac ba3f
000003f0: 9a19 b87f 4e3a a3bf 1a80 0192 8d21 a0bf
00000400: 38ca 97d3 bfc8 9c3f 3099 e3ef 89fc 90bf
00000410: d4e7 db88 9cea b83f c64b 7442 c478 a8bf
00000420: 8c81 e332 dc16 be3f e256 62cd 2a43 a0bf
00000430: 08ab bf78 3b92 b4bf a6c3 9aba 3e15 ccbf
00000440: 1a4d d6ec f1fe 98bf 565c 0594 ddb2 b0bf
00000450: 6033 d5a8 98bf 9a3f 18a1 e442 4240 b6bf
00000460: 0262 f952 9edc a6bf bc22 5b22 c52a 9cbf
00000470: c2a7 f262 3210 b1bf eb3b eb56 d123 a93f
00000480: 7d0a 4278 8f53 c0bf 7b5f 32d1 076e c03f
00000490: 6c21 f0cf 2451 a43f 923f ae3e 71c7 b2bf
000004a0: a87e 98e2 83d9 b8bf 9a51 39a8 24af b23f
000004b0: 211f fcfd 0fe0 a6bf 282f 67fa 5519 993f
000004c0: d13d e97f 603c b9bf 15bf ee35 4e7f b13f
000004d0: fe08 1940 fb9c c1bf e203 c9eb 15b8 c83f
000004e0: 2405 3794 1ba9 96bf 2ef4 988b 4822 b3bf
000004f0: 10b4 5f89 8f3a a2bf cd6f 0c89 d32f 963f
00000500: 5f7f 9b1f 3045 b3bf c824 4cf6 5998 b73f
00000510: 0ae5 dfef 3a7b cabf 6463 144a ec07 b4bf
00000520: fb74 a95f 6168 bfbf c8a2 e732 1dda b03f
00000530: 8d27 5685 5507 94bf 948c a3ae ed9a b63f
00000540: 4733 b2b4 12b2 c13f 5002 ae9c dbb2 a9bf
00000550: 37f0 6c0d e341 ac3f 5d5e d2b9 6796 bb3f
00000560: 82b7 1e26 06ae babf fb47 fcc6 b421 c33f
00000570: 0630 a82e f918 9a3f 6588 2d23 1738 813f
00000580: 16b1 74fa bd18 bb3f 9da7 7bd9 a71b c3bf
00000590: 2e71 581e 1ea9 c23f 5754 2b64 1fcb b3bf
000005a0: e53e dd11 98d9 99bf 3314 0c19 e1d8 9dbf
000005b0: 30ae 2c5a 7159 a53f 30f7 cdee 972a a0bf
000005c0: 62fa a6fe 6b0b adbf 89a9 a969 23e0 b8bf
000005d0: 1cc6 1d10 06b7 a63f 2ef7 a9de 7fb5 b43f
000005e0: e8b4 22f2 5d59 92bf 8033 bd2d a86e 9dbf
000005f0: 8c6e 5855 5c03 bdbf 0cf8 5f92 2964 c0bf
00000600: b153 b993 afab 95bf 0038 9ac9 abfe b8bf
00000610: 72b1 9f99 4e4f c03f 587f e22f 5016 afbf
00000620: 613d c0c4 e83d bd3f 8569 6a98 22f4 b2bf
00000630: 181f 1c8f d162 82bf f498 0149 6ffe bcbf
00000640: 9c83 0d45 c41b 92bf 0423 f716 02fa a03f
00000650: 09f9 f297 ac03 b8bf b18e 1a9e 2e1a 84bf
00000660: 7ede 2dea 00eb a3bf 6e52 0b7d 4a27 b13f
00000670: 03c4 dd2a 9231 be3f 4959 6deb 3d89 8b3f
00000680: 24e8 ff29 8528 90bf 407e 93fd 5179 a5bf
00000690: abb3 4675 b106 b9bf 5818 487f ed02 af3f
000006a0: 80d8 6f5a f4e9 b43f 0372 067f a06f b5bf
000006b0: 9c35 9afd 46ea afbf 96c1 98d0 b91c a63f
000006c0: be3a 535a 618f b93f 62c7 26a1 088b b73f
000006d0: 52e0 8806 a7a1 a8bf 2e04 3692 7f05 a33f
000006e0: a07e 57cc 49b5 a5bf 4470 0a56 f025 bdbf
000006f0: e62d 76b0 9354 a63f 1856 fdf2 c8e6 bc3f
00000700: f091 66fd ee13 9ebf b86f d268 bcd7 a4bf
00000710: edac efee 7976 793f 7ef4 41d4 cb54 b23f
00000720: 0a0d c0bf f874 bcbf 28c4 d0ba 0a56 88bf
00000730: b6d9 0db1 066c babf e92a a872 ebac 9ebf
00000740: ff8c 06f4 9284 a6bf 2d39 87eb 75fe ba3f
00000750: 4379 6be3 9837 8dbf 68cd 97c9 1228 c1bf
00000760: e0eb 99aa 10f0 bebf a116 4e58 7d8f bebf
00000770: 3a47 b219 0c87 b33f 27ea 08d3 34e8 a23f
00000780: fe3b c060 8e5d b43f 4df3 25ca 0d21 b9bf
00000790: 8ec5 db38 b924 bcbf e91e 6b57 2742 b9bf
000007a0: 4021 1379 e92d 96bf 7203 8b64 ec5a b33f
000007b0: e40d b06c cb93 ac3f 80a1 9cc4 a6bd 513f
000007c0: a0c7 6e47 68e2 b93f 7505 df82 4f12 bebf
000007d0: 0f4b 7fe0 5f5d bfbf 8f04 873e 13d8 a33f
000007e0: 9fb9 53e9 86a0 993f 164a 2826 78f6 823f
000007f0: bc99 3e01 7d00 af3f c28a 6467 22d3 aabf

fcnn1.4.bias f8 [60]
0.07664782580442901 0.046591626302762916 0.08388698031704438 0.0782973467200616 -0.001462037364202583 0.09703206374205005 0.004001769729366718 -0.09102751395028902
-0.0784045291470466 0.12476175505827615 0.10642925793621553 0.018484579527787558 -0.05169894995500202 0.005401714910303548 0.1070246404281827 0.006194918835648322
-0.11146211895141994 0.0792703531846596 0.1029962528296396 -0.006020379154490153 0.08105516826177767 0.03178296055700535 -0.005560749686634896 0.10760697561602281
-0.05275656776645381 0.03811661590858825 -0.07516640288695448 -0.07677105594857575 -0.012052867054673025 0.057729165444456304 0.08945749908631434 -0.10885197593172623
-0.03874236195011074 0.08689275822344193 0.08172439540831847 0.11521735731744857 -0.08931213356280625 -0.00282065585287161 -0.10413836921745359 -0.05537865784195734
0.11054185196700061 -0.009837348055652822 -0.08340333301545722 0.046529078947035396 0.060582303650382065 0.01636819855090688 -0.0163536422921516 0.030548494870252588
0.004926038649921875 -0.031046982015387165 0.06978319267525278 0.010775316539669386 -0.01959194155695212 -0.0017993564990728696 0.0968820633166117 -0.017232190873139267
-0.0874696349156377 -0.10628827536144844 0.13426486515050456 -0.05788104473011198
00000000: 13b8 2321 319f b33f 8fc3 798e dbda a73f
00000010: 539b 05fd 9d79 b53f 7fb7 867f 4b0b b43f
00000020: fbc1 8baa 3af4 57bf 6d7c 6fe4 17d7 b83f
00000030: 7bee d1e1 2864 703f 84e2 7343 944d b7bf
00000040: e47a 8bb8 5112 b4bf d950 c4e9 62f0 bf3f
00000050: ab70 2ca6 f23e bb3f 1669 3522 9fed 923f
00000060: 21ab 96e6 4878 aabf b6f4 1cce 1b20 763f
00000070: 0f55 8182 f765 bb3f 40c8 cedc d75f 793f
00000080: 4ca3 a30b c888 bcbf 8971 78d6 0f4b b43f
00000090: a58b 8361 f65d ba3f f4b6 3f39 d3a8 78bf
000000a0: 2c2a db10 08c0 b43f 8f25 5330 db45 a03f
000000b0: 85b5 b960 dec6 76bf 26a0 1779 218c bb3f
000000c0: 7689 69aa e802 abbf cced 8565 0584 a33f
000000d0: 4c4d 28fa 1a3e b3bf d419 9496 44a7 b3bf
000000e0: c835 956e 2caf 88bf e4f7 375b ad8e ad3f
000000f0: dc29 f5c8 afe6 b63f 8753 bb1c b9dd bbbf
00000100: 744e 17f3 09d6 a3bf fb33 d492 9a3e b63f
00000110: e268 90d5 e3eb b43f 2b28 9c7d e27e bd3f
00000120: e3c9 c9f4 28dd b6bf fcf9 8514 581b 67bf
00000130: 7238 0cea cfa8 babf a9b8 a768 975a acbf
00000140: 489c 0987 784c bc3f f65b 6d81 9a25 84bf
00000150: e8c4 adbb eb59 b5bf 20f2 c7d0 a8d2 a73f
00000160: 5d1a cac9 a404 af3f a1df e135 d3c2 903f
00000170: 15d7 425b 02bf 90bf c497 a3c9 1a48 9f3f
00000180: d168 676e 532d 743f 0815 95b1 c7ca 9fbf
00000190: ffc5 59b2 4fdd b13f 18ab 2281 5e11 863f
000001a0: 874e 02f1 e80f 94bf 06ad 4f54 0c7b 5dbf
000001b0: 948b 834d 43cd b83f d149 f4c0 50a5 91bf
000001c0: b410 5bf5 6864 b6bf 7e2b a05a b535 bbbf
000001d0: d260 6952 972f c13f 6a29 5994 95a2 adbf
