data/nnDist.pth (torch, 6772 bytes, 7 tensors)

layerin.weight f4 [20, 3]
000000 81 c1 9c be 01 97 3d 3f 38 85 04 40 12 91 69 3e
       -0.30616382 0.7405854 2.070631 0.22809246
000010 b0 83 06 3f 0d 2c 83 bf c5 eb 42 be da 96 52 3e
       0.5254469 -1.0247818 -0.19035251 0.20565358
000020 af b1 90 3f c4 6f be be 7c 44 ad be 01 a1 a0 3f
       1.1304225 -0.37194645 -0.33841312 1.2549134
000030 9b 90 09 3d d3 a7 29 3d e5 a1 f0 bf 52 40 bb 3e
       0.033585172 0.041419815 -1.8799406 0.3657251
000040 34 73 01 be 81 5d a5 bf 64 33 47 3e 79 65 db 3e
       -0.12641603 -1.291916 0.19453198 0.42850855
000050 f8 54 ea bf e2 0d 10 3f 1e 6c 09 bf 1a 50 a4 bf
       -1.830718 0.56271183 -0.536806 -1.2836945
000060 08 74 bb 3e c0 f5 02 bf 59 d9 03 40 03 db 06 3f
       0.36611962 -0.51156235 2.0601408 0.52677935
000070 8b 2f 8c bd ca 58 cf 3f 8d 47 de bd 29 69 e5 3e
       -0.068450056 1.6198971 -0.10853491 0.44806793
000080 8c 8a 04 40 0a 92 15 be 3d ef 78 be 27 29 03 c0
       2.0709562 -0.1460649 -0.24310012 -2.0493867
000090 b0 73 e7 be d8 04 71 3e f9 e3 ec bf 45 f3 8c 3e
       -0.4520545 0.23537004 -1.8507072 0.2752935
0000a0 00 b1 14 3e 82 c1 f5 bf 7f f0 a6 bd 91 a1 17 3d
       0.14520645 -1.9199679 -0.0815134 0.037019316
0000b0 e1 1d 06 40 fa cc 82 3e b7 b7 a9 be d7 0f fe bf
       2.0955737 0.2554701 -0.33147976 -1.9848584
0000c0 2a 63 bb 3e c5 57 8d be 6a 6c 14 40 c5 52 02 3f
       0.36599094 -0.27606025 2.319117 0.50907546
0000d0 46 ac a3 be 89 dd f3 3f 72 60 95 3e 47 00 f4 3e
       -0.31967372 1.9051982 0.29175144 0.47656462
0000e0 27 12 e1 3f d2 46 dd 3e fd 67 e7 3d 7e 85 fe bf
       1.7583665 0.43218094 0.11299131 -1.9884489

layerin.bias f4 [20]
000000 aa 12 0a bf cd b8 92 3e c7 50 09 bf 70 36 8b be
       -0.5393473 0.28656617 -0.5363888 -0.2718997
000010 7e 6e 26 bf 00 ae d4 be 59 0d be bc 67 39 09 bf
       -0.6501235 -0.41539 -0.023199724 -0.53603214
000020 c7 b8 f6 3e 63 c4 89 3e 9b cc 82 be af 21 a7 be
       0.4818785 0.26907644 -0.25546727 -0.32642886
000030 bc a3 58 3e 6a 06 6f 3e e6 a9 4f be 66 16 f6 be
       0.2115621 0.2334229 -0.20279655 -0.48063964
000040 4c 66 c8 be 3c 62 f3 be a0 81 45 bf f2 50 6f be
       -0.39140546 -0.47535884 -0.7715092 -0.23370722

layers.0.weight f4 [20, 20]
000000 92 a8 1b bf 38 c4 5e 3e da 3e 02 be eb 46 16 be
       -0.6080409 0.21754539 -0.12719288 -0.1467549
000010 13 1a dc 3e 0c 55 8b 3e bc 7d 6a 3f 81 52 de 3e
       0.42988643 0.27213323 0.91598105 0.4342232
000020 e3 74 73 be 61 fc a5 be f8 8c f8 be f5 0b c2 3e
       -0.23775057 -0.32419112 -0.4854505 0.37899747
000030 2f 79 ac 3e b6 f4 2d 3f fe 84 c4 be b0 09 8d 3d
       0.33686206 0.67951524 -0.38382715 0.06886613
000040 67 c1 07 bf 23 42 fa be 96 a3 a7 be 8c b2 6b 3f
       -0.53029484 -0.48878583 -0.32741994 0.92069316
000050 43 6f 05 3f 67 ea 3a be a2 1c 82 bc 46 ce bb 3e
       0.52122897 -0.1825348 -0.015882794 0.36680812
000060 fb 18 d1 be 74 45 09 bf 8c dd 0d bf 37 c4 c3 be
       -0.4083937 -0.536216 -0.5541618 -0.38235638
000070 b0 5f 74 3e 08 3e 12 3f c6 78 3e 3f 17 3a 1f bf
       0.23864627 0.571259 0.74403036 -0.62198013
000080 b3 6a 03 bf 56 40 cf be e5 a4 d3 3e 1f 2f 95 be
       -0.51334685 -0.40478772 0.41336742 -0.29137513
000090 0e 37 28 3f 4a 34 0e 3f 34 30 24 3e 62 a7 e5 be
       0.65709007 0.55548537 0.16034013 -0.44854265
0000a0 91 06 85 3d ef dd f2 3c dc 85 9d 3d b6 c6 2f 3e
       0.06495393 0.029646842 0.07691547 0.17165646
0000b0 3a 70 c9 3d 5a cb 67 be 5d d4 e8 be 2d cd 51 3d
       0.09835859 -0.22636166 -0.4547452 0.05122106
0000c0 e6 2c 46 3c 52 72 09 bd 9b 1d 43 3e 44 21 cf bb
       0.012095666 -0.03355629 0.19054262 -0.0063211042
0000d0 5e b1 36 be 09 84 00 be b4 9a 82 3e 46 32 68 3d
       -0.17841098 -0.12550367 0.25508654 0.05668857
0000e0 46 e4 3d 3e ed 61 3c bd 80 52 f9 3c 7a 47 35 be
       0.1854411 -0.045991827 0.030434847 -0.17703047
0000f0 62 32 da be 60 89 be 3e 1f 4d e7 bc 39 a9 a1 bd
       -0.42616564 0.37214184 -0.028235016 -0.07893605
000100 73 63 8e 3e 17 c4 aa 3e 06 3e 2a 3f 90 ea b2 3e
       0.2781025 0.3335273 0.6650089 0.34944582
000110 40 14 89 bd d1 10 3e be ce 7c b2 be 41 09 e5 3e
       -0.066933155 -0.18561102 -0.34860843 0.44733623
000120 55 a2 ee 3e 04 7b 28 3f 59 55 a7 be 47 f0 aa 3e
       0.46608225 0.65812707 -0.32682303 0.33386442
000130 2c b4 06 bf a0 bb 6d 3c 5f 9c 0c bd f6 24 2a 3f
       -0.5261867 0.014510065 -0.034328815 0.6646265
000140 81 b6 a7 3d 71 5b 26 be 3b 3f 30 3e f8 53 cd bd
       0.08189107 -0.1624582 0.1721162 -0.100257814
000150 16 50 c8 3d af ec a0 3d df a1 75 be 0b 01 a9 3e
       0.097809 0.07857644 -0.2398753 0.33008608
000160 36 a5 cc bd 0d a1 16 3e 54 11 b0 3e ee ae a2 bc
       -0.09992449 0.14709873 0.3438822 -0.019858804
000170 9c 18 82 be 68 36 55 be b1 df 27 3e 8e d1 ad 3e
       -0.254094 -0.20821536 0.16393925 0.3394894
000180 90 1a 91 3e a3 1e af 3e 60 d0 ca 3e 08 e7 56 3e
       0.28340578 0.3420306 0.39612103 0.20986569
000190 8d 7e c6 3d 19 d9 70 be 2f f4 c0 bd 14 89 00 be
       0.096921064 -0.23520316 -0.09421574 -0.12552291
0001a0 ca 89 b7 3e 66 33 96 3e 27 d8 80 bd 5f a3 9c 3e
       0.35847312 0.2933609 -0.06291228 0.30593392
0001b0 91 de f8 bc bb 86 71 3d f2 22 36 3e 4d 6a 80 bd
       -0.030379565 0.05896638 0.17786768 -0.06270275
0001c0 76 af 0d 3e dc 3d b9 bd 84 c4 2f be f7 1a d7 3d
       0.13836464 -0.09045002 -0.17164809 0.1050319
0001d0 52 93 2d 3e 9b 45 1a 3d b6 41 0b 3e 3e 7e eb 3d
       0.1695073 0.037664037 0.13599285 0.11498688
0001e0 32 9c 11 be e4 60 8a 3e 92 b2 56 bd 32 a9 b9 bd
       -0.1421974 0.27027047 -0.05241639 -0.090654746
0001f0 67 51 08 3f ed d3 9e 3e 1e 7e 25 3f 7a 51 82 3e
       0.5324921 0.31021062 0.64645565 0.25452787
000200 69 26 c3 be cf 51 8e be de 76 2a be 03 93 b3 3e
       -0.38115242 -0.2779679 -0.16646907 0.350731
000210 02 d4 a1 3d 44 96 72 3e 15 1e f1 be 81 04 75 3e
       0.079017654 0.23690134 -0.47093263 0.239275
000220 c3 14 b8 be 4e a3 75 be d6 09 be be 95 a6 11 3e
       -0.3595334 -0.23988077 -0.3711688 0.14223702
000230 f2 8b a5 be 66 89 a6 3e ca 5c 0f be 6d ac 26 be
       -0.32333332 0.32526702 -0.1400024 -0.16276713
000240 2f 72 ce 3e 13 c3 b8 3e a6 e9 2a 3f ab 18 d0 3e
       0.4032149 0.3608633 0.6676277 0.4064382
000250 cf 01 ec be 95 ce dd be 28 10 0f bf 05 1c 18 3f
       -0.4609513 -0.43321672 -0.5588403 0.59417754
000260 f1 f3 ca 3e d2 a7 c3 3e 07 18 00 bf b8 fb b0 3e
       0.39639238 0.38213974 -0.5003666 0.34567046
000270 e6 93 e3 be 8b 77 a3 be c2 01 f6 bd fd 1e 3e 3e
       -0.44448775 -0.31927142 -0.12012054 0.18566509
000280 f5 5f ca be e5 76 82 3e 3b 81 57 3a d7 9a f3 bc
       -0.39526334 0.25481334 0.0008220856 -0.02973692
000290 0c ef d6 3e 31 c9 85 bd 35 9d 13 3f 11 d8 51 3e
       0.41979253 -0.06532515 0.57661754 0.20492579
0002a0 84 98 11 be 71 3c b6 be 00 f7 61 be c0 73 39 3e
       -0.14218336 -0.35592988 -0.2206688 0.18110561
0002b0 9a cc 2e 3e 55 90 c4 3e 85 f6 8b be f2 fc 5d bd
       0.17070237 0.38391367 -0.27336517 -0.054196306
0002c0 c5 41 e5 be a5 c7 a2 be 87 dd 03 bd a7 ea c3 3e
       -0.4477674 -0.31792942 -0.032193687 0.38264963
0002d0 da 05 7c 3e 9c d7 bb 3a a9 65 97 bb 1a 9d 0b 3e
       0.24611607 0.0014331224 -0.004620273 0.13634148
0002e0 64 fa 81 3e 16 f9 84 3e c9 e2 59 bd 0c 05 87 3e
       0.25386345 0.25971287 -0.053194795 0.26371038
0002f0 82 01 d6 bd 71 23 bc bd e6 86 b3 3d 38 8a 42 3e
       -0.10449506 -0.091864474 0.08765964 0.18998039
000300 30 d7 09 3e 8f 1e 68 3d 0c 7e 01 3c 1f 72 81 3e
       0.13460994 0.056669768 0.007903587 0.2528238
000310 2a 17 64 3e 46 7e 11 3e a1 7c d5 3d 20 53 68 3c
       0.22274461 0.14208326 0.10424162 0.014179975
000320 c5 fb f1 3e 1f 6a 5b be 6a eb 9f 3e b2 0c ca 3e
       0.47262397 -0.214272 0.31234294 0.3946281
000330 3b d8 8c 3d 48 f2 32 3e 72 dc f2 be 2d 3b 0b 3e
       0.0687718 0.17475235 -0.4743381 0.13596793
000340 4d 59 ab 3e 0c 62 9f 3e 74 fd ef 3e 74 5b 7a be
       0.3346657 0.3112949 0.46873057 -0.24448949
000350 24 8a 0a bf 6b bc dc be bc 48 e3 3e 73 2c 0c 3d
       -0.54117036 -0.43112502 0.4439143 0.034222078
000360 99 49 ea 3e a0 42 aa 3e 60 3f 20 3f 7c df d2 bd
       0.45759276 0.33253956 0.625967 -0.102965325
000370 9a 13 dc bd f1 c6 a7 3d 39 8f 92 bd 1f 78 30 be
       -0.10745926 0.08192242 -0.07156224 -0.17233323
000380 2e 3e ec be 07 66 ba bc 42 a0 c9 be 0a 8b eb 3d
       -0.4614119 -0.022753729 -0.3938008 0.11501129
000390 7b ab 06 bd 92 c9 83 3e 6a 44 59 3e f6 02 a2 3b
       -0.03287838 0.25739723 0.21217504 0.0049442006
0003a0 46 2f f5 bd 43 00 de bd 83 ef c6 3e dd 4f 70 3b
       -0.11971907 -0.10839894 0.38854608 0.0036668696
0003b0 8b 46 54 3d 1a cf bf bd 6d 79 84 3c 99 d7 b3 be
       0.051825088 -0.09365673 0.016171182 -0.35125425
0003c0 5b a7 2b 3f d0 11 eb bd 9a cb 25 3e ca a5 84 3e
       0.6705224 -0.11478007 0.16190949 0.25907737
0003d0 5a 18 14 bf 26 1f f1 be ab 77 a0 bf b7 1c 88 be
       -0.5784966 -0.47094077 -1.253652 -0.26584408
0003e0 15 30 aa 3e bf ae 04 3f 18 1e 96 3f aa 56 f5 be
       0.3323981 0.5182914 1.1727934 -0.47917682
0003f0 11 2b f4 be 6d bf 08 bf 1d 93 89 3f 77 6c 02 bf
       -0.47689107 -0.5341709 1.074802 -0.50946754

layers.0.bias f4 [20]
000000 99 4b 17 3d 9b 54 11 3e 3b 91 aa bc 7c fe 04 3e
       0.03693733 0.1419243 -0.020821204 0.12987703
000010 1d 2d 38 bc 4d 7c 98 be 0e bb b4 3d b4 4b 52 bc
       -0.011241225 -0.29782334 0.0882474 -0.012835432
000020 04 60 df bd 51 f9 88 be 90 4f 20 be 27 c5 30 bd
       -0.109069854 -0.26752713 -0.1565535 -0.04315677
000030 82 05 a7 3c 21 83 59 3e 29 78 13 bd 66 55 18 be
       0.020388369 0.21241428 -0.036003266 -0.14876327
000040 ac f7 a3 bb 35 b6 fb 3b 30 8e 31 bc 8e 5b 8b be
       -0.00500389 0.007681633 -0.010837123 -0.27218288

layers.2.weight f4 [20, 20]
000000 78 77 01 bf 37 c9 f4 3e da c7 2c 3f 20 7d 5b bf
       -0.5057292 0.47809765 0.6749245 -0.857378
000010 65 35 34 be 13 2d 81 bd 13 b6 1b bd 92 c1 bc bd
       -0.17598493 -0.06307425 -0.038015436 -0.09216608
000020 5d 16 00 bf 31 e4 75 b9 ed b2 c2 3d d8 f4 8a 3e
       -0.50034124 -0.00023450029 0.09506784 0.27139926
000030 ea aa 6c 3f e1 68 e4 3d cf 84 aa 3c d9 d7 57 bf
       0.92448294 0.111528166 0.020815281 -0.8431373
000040 b5 3e 0f be 39 4d 20 3e 74 a7 1f be 1c dc 93 3d
       -0.13988765 0.15654458 -0.15591222 0.07219717
000050 57 02 24 bf 0e 6d e1 3e 6c db 13 3f 39 4e ff be
       -0.6406607 0.44028515 0.57756686 -0.49864367
000060 de 1a 86 3d 12 82 61 be b5 b4 7b be f1 41 52 be
       0.06548093 -0.22022274 -0.24580653 -0.20532967
000070 aa b3 0b bf 31 bc 8c be 4f b0 c5 bb 35 d1 6c be
       -0.5457102 -0.2748733 -0.0060329805 -0.23126681
000080 84 5a 07 3f e1 ca bc 3d 2e 41 2d be d2 38 1f bf
       0.5287249 0.092183836 -0.16919395 -0.62196076
000090 cb 20 1b be 4e ce 85 be 6a 9e df bc 0e 6d f6 3d
       -0.15149228 -0.2613396 -0.027297217 0.12032519
0000a0 19 65 a3 3e 9d 83 3b be f7 e8 24 bf 82 33 26 3f
       0.3191307 -0.18311925 -0.64417976 0.64922345
0000b0 a9 77 1f 3e 21 85 10 3e 49 4d d6 bd c8 0a 7f bc
       0.1557299 0.14113285 -0.1046396 -0.015566535
0000c0 19 15 b7 3d 97 32 ae 3d 83 25 4c bd b5 14 01 be
       0.08939571 0.08505743 -0.04984046 -0.12605555
0000d0 28 c7 f5 be eb 03 88 be 70 09 08 be d1 5e e3 3e
       -0.48003507 -0.2656549 -0.1328485 0.44408277
0000e0 cd 9e b1 3e 1d 3f 86 3e e8 07 9b 3d f0 79 86 3b
       0.34691468 0.26220027 0.07569867 0.0041038916
0000f0 db 5d 6e be 0d b7 05 bf dc ec 0a 3f 0b 8d e0 be
       -0.2327799 -0.5223244 0.5426767 -0.43857607
000100 10 ce 55 be c4 58 ba be 9b ca 13 3e 54 51 39 3e
       -0.20879388 -0.36395848 0.14432757 0.1809743
000110 3f 94 f1 bd 80 1e fd be 8e a4 9c 3c 4d 53 a4 3e
       -0.11795854 -0.49437332 0.019121435 0.32094803
000120 5d 5e ba 3d 4c b1 5a bd f6 bd ad be 18 cf f9 be
       0.091000296 -0.05339174 -0.3393399 -0.48790812
000130 dc ed 34 3e a0 0f 1f be c5 6d de 3e 36 7d 13 be
       0.17668861 -0.15533304 0.43443123 -0.14403233
000140 f3 26 20 be 46 d1 85 bf d9 32 21 be 9e b1 2e 3e
       -0.15639858 -1.045449 -0.15742053 0.17059943
000150 58 6e 37 be 6e 79 ab bc 51 3d 40 3f 62 09 3e 3f
       -0.17913187 -0.020931926 0.7509356 0.7423307
000160 9d 9c 14 3f 50 3d 8a 3c 44 74 e9 be 58 24 cc be
       0.5805147 0.01687494 -0.45596516 -0.39871478
000170 85 03 46 be 44 3e 65 bf 6e 44 41 bf 6e 1d 56 bd
       -0.1933728 -0.89548135 -0.7549504 -0.05227416
000180 26 f6 54 3f 94 10 c3 3c 42 2e 2c 3f 88 b2 77 3d
       0.8318809 0.023811616 0.67258084 0.060472995
000190 33 83 72 3e 59 32 55 bf 53 87 7d be 76 55 a1 3d
       0.23682861 -0.8327995 -0.24758653 0.078776285
0001a0 ba d8 57 bd 8c e9 01 be 46 b6 31 3f d8 a0 4d 3f
       -0.05269692 -0.12686747 0.6941875 0.80323553
0001b0 59 73 35 3f 9d 3a 06 3e 21 3d b5 be b2 0e 04 bf
       0.7087913 0.13108297 -0.353982 -0.51584923
0001c0 d0 40 4f be 47 c0 53 bf 03 27 06 bf 7b 5d 00 3c
       -0.20239568 -0.82715267 -0.5240328 0.0078347875
0001d0 ec 37 ab 3e 3f a0 80 be ff 78 3a 3f 86 7d fc 3d
       0.33441103 -0.25122258 0.72840875 0.12328629
0001e0 6f c2 b5 3d 0a 48 0c 3f 01 b7 21 bf ff ca 08 3f
       0.08874976 0.5479742 -0.63169867 0.5343475
0001f0 11 31 8a 3e 37 e7 46 3f b9 6a 16 be da 6c de be
       0.2699056 0.77696556 -0.14689149 -0.43442422
000200 e5 71 a4 bd 9a c2 38 3f 8d 1f 9a 3e 49 27 2c bf
       -0.08029536 0.7217194 0.30102196 -0.67247444
000210 fd 8f 8f be bd 8e 0c 3f b1 c0 4e 3f 9f 96 82 3e
       -0.28039542 0.549053 0.80762774 0.2550554
000220 72 92 08 be 40 63 dc 3e 14 90 5a bf 25 72 f3 3e
       -0.13337114 0.43044472 -0.85376096 0.47548023
000230 dd 4b 3d 3e 52 0f 64 3f 2d 4e 7f 3d f1 c5 5e 3e
       0.18485971 0.89085877 0.062330414 0.21755196
000240 c1 af b8 bc 7d 47 58 3d ef c3 a7 be 6f 81 76 bf
       -0.022544743 0.05280255 -0.32766673 -0.9629125
000250 93 3c 37 bf aa da 57 3e f1 c8 1d 3e 49 41 d4 3d
       -0.71576804 0.21079507 0.15408684 0.10364015
000260 85 72 4d 3b 7c 0f 78 3f a3 66 2d 3f 59 77 88 bd
       0.0031348777 0.9689863 0.67734736 -0.06663389
000270 4c 79 34 bf 17 92 8a 3c 93 f9 43 bf 61 d8 d2 bc
       -0.70497584 0.016915364 -0.76552695 -0.025737943
000280 3e a8 c1 be 11 51 17 bf 09 6e b5 3e 01 05 d0 be
       -0.3782367 -0.5910807 0.35435513 -0.40628818
000290 78 dc 2d be 2b 5f b3 be dc 3a 46 3e 7a 0f ad 3d
       -0.16978633 -0.35033545 0.1935839 0.084502175
0002a0 9c 42 4c be c6 3a 00 bf 0d 3b 40 be 79 ad df 3d
       -0.19947284 -0.5008968 -0.18772526 0.10921759
0002b0 72 3a aa 3e 8d 10 f5 be 50 3b 5a be f3 e7 83 be
       0.33247715 -0.4786419 -0.21311688 -0.257629
0002c0 01 5c 49 ba 71 5c 80 be 43 0f 18 3e af 82 8e be
       -0.0007681251 -0.25070527 0.14849572 -0.2783408
0002d0 80 65 52 3e 4c 2e dc 3e 0c a7 00 bf 16 4c 07 3f
       0.20546532 0.43004072 -0.50254893 0.5285047
0002e0 21 d0 99 3d 95 d3 82 3e 60 fa a7 3d 70 f9 f2 bd
       0.075104006 0.2555205 0.08202052 -0.11863983
0002f0 0a 61 23 3e 54 fe 13 3f 3d b7 41 3e 3f 72 27 be
       0.15954986 0.5780995 0.18917556 -0.16352175
000300 9a b4 ab be 31 04 97 3d 47 0e 90 3e 91 1e 75 3e
       -0.33536226 0.07373846 0.28135893 0.23937441
000310 4d d6 cd 3d 65 80 b5 3e 3a ac ec be 0e 5c 98 3d
       0.1005064 0.3544952 -0.46225148 0.07439433
000320 49 d0 59 3d 29 c4 89 3f 99 2d f8 bd 33 cb bd bd
       0.05317715 1.0762988 -0.12118072 -0.09267273
000330 d5 65 ac 3e 92 68 51 3d 2b 10 49 bf 57 34 48 bf
       0.33671442 0.051125117 -0.78540295 -0.78204864
000340 11 f9 24 bf 6c 02 6e 3e 7c 8d 3f 3e 9b 5d 0f 3e
       -0.64442545 0.23243111 0.18706316 0.14000551
000350 87 f5 50 3e 80 85 58 3f 93 4f 0e 3f a1 c3 dc 3d
       0.20406161 0.84578705 0.5559017 0.10779501
000360 43 c6 47 bf f0 da 90 bd 8f 8a 54 bf 63 86 24 be
       -0.780369 -0.07073009 -0.83023924 -0.1606689
000370 8c 64 42 3f 3c 60 dc be 0f bc a1 be ec e3 07 3f
       0.7593467 -0.4304217 -0.3158879 0.53082156
000380 12 41 96 3e b5 3e 55 bd 67 7a 60 3e 3a d4 11 3e
       0.2934652 -0.052061755 0.21921693 0.14241114
000390 fa 00 1b 3f 75 16 71 3e b9 d7 1e be da 16 a4 bd
       0.60548365 0.23543723 -0.15511979 -0.08012171
0003a0 ab cc 3d bf 4e 58 27 be cd d0 13 3e ad 60 2c 3f
       -0.74140424 -0.1634228 0.1443512 0.67335016
0003b0 07 06 53 3e d1 f8 64 3e 50 78 90 be 21 8d df 3c
       0.20607768 0.22360541 -0.2821679 0.027288975
0003c0 72 20 77 3c 0f 61 89 bf f9 ef 47 be 5f ba d4 3e
       0.015083419 -1.0732745 -0.19525136 0.4154844
0003d0 3f f6 ab be 26 fc a7 be 2c 8e 76 3f 48 c8 80 3f
       -0.33586308 -0.32809561 0.9631069 1.0061121
0003e0 3a e9 31 3f 61 d5 7b bc e3 c6 b9 be 89 10 1f bf
       0.694965 -0.015370698 -0.3628455 -0.62134606
0003f0 45 45 f7 be c3 a8 33 bf 57 c9 41 bf 94 14 6f bd
       -0.48295036 -0.70179385 -0.75697845 -0.058369234

layers.2.bias f4 [20]
000000 ee 7a f4 bd ed e1 85 be b6 09 48 3e a8 a4 98 3e
       -0.119375095 -0.2614893 0.19534954 0.29813123
000010 8e 6e 25 be 6b 3c 88 be 72 1c 25 bf ac 45 88 3c
       -0.16155455 -0.26608595 -0.6449653 0.016634785
000020 ee d4 a4 3e f4 12 8f be 15 ac 00 bb 48 1f ff 3d
       0.32193702 -0.27944148 -0.001963382 0.12457138
000030 e3 c9 2e be c8 28 6e be 92 44 95 bc 8c ef 60 bd
       -0.17069201 -0.23257744 -0.018221173 -0.05491595
000040 fa 70 ac be cc 60 fc bd 12 b1 92 3e 87 7e bc be
       -0.33679944 -0.1232315 0.2865072 -0.36815283

layerout.weight f4 [1, 20]
000000 21 26 6f bf 13 50 b8 bf 4b c7 c9 3f d5 b3 00 c0
       -0.93417555 -1.4399437 1.5763944 -2.010976
000010 90 86 b3 bf 94 92 c2 bf 41 83 a3 3f fe 94 d0 3f
       -1.402544 -1.5200982 1.277443 1.6295469
000020 33 c3 03 c0 66 d6 d3 3f 17 19 b4 3f 37 b2 ad 3f
       -2.058789 1.6549804 1.4070157 1.3570012
000030 98 7b ad bf f7 a6 80 bf 0d 15 da bf e9 f8 a0 bf
       -1.3553343 -1.0050954 -1.7037674 -1.2575961
000040 92 b6 9c 3f 35 24 b2 3f ce c0 81 3f d3 c7 ca 3f
       1.2243216 1.39173 1.0136964 1.5842232
