data/nnDist.pth (torch, 9854 bytes, 5 tensors)

layerin.weight f4 [40, 3]
0.19985987 0.0950512 -2.033272 0.22292311 -0.58268976 1.7838556 -0.3318993 -0.2866406
2.4107578 -0.2779468 0.26224056 -1.9254407 0.35288066 -0.43490866 -2.1256979 0.3244102
0.028186718 2.077035 0.24385995 -0.32092184 -3.5738082 -0.24006432 0.57112354 2.471367
0.45925003 0.4339429 -2.2161207 0.054168724 0.19402584 2.322853 -0.44062507 -0.05187955
-2.1798341 -0.31947184 0.41393974 1.5698472 -0.43064603 0.45920992 -0.5504074 -0.13379519
0.25377288 -2.0799625 -0.5460398 0.028918574 1.5369347 -0.28981876 -0.46879405 -2.2987952
0.38622418 -0.1011402 2.4460385 0.23722388 -0.23490933 -1.6448318 -0.32459694 0.22791535
-2.5626504 0.4064001 0.44855222 -1.9402579 -0.09004879 -0.20387073 2.1024432 -0.34200373
0.5716429 -0.90844274 0.18313266 -0.05790094 2.6820745 0.32817757 0.25029024 -1.4933463
0.36054868 0.37892747 2.8496394 -0.31298468 -0.6308609 1.1831567 0.47451472 -0.1918584
-1.8497827 0.42231977 0.12729456 -2.327409 0.28078702 0.12673636 1.7958846 0.064442985
0.10099518 -2.4122741 -0.22868884 -0.09906329 1.53448 -0.37926117 -0.07342017 -2.3662248
0.042856313 -0.4018259 2.1005418 -0.07115782 -0.48315257 -2.394263 -0.52151835 -0.5599742
-2.3933263 -0.07883855 0.07283651 -1.9602602 0.28446308 0.14649867 -2.3464754 0.060093
0.07422525 2.194468 0.29910192 0.060720906 -2.3733075 -0.27575463 -0.41021216 2.1541197
00000000: 11a8 4c3e 34aa c23d 2121 02c0 f545 643e
00000010: 282b 15bf 6155 e43f b4ee a9be 8fc2 92be
00000020: db49 1a40 0b4f 8ebe 6544 863e d774 f6bf
00000030: c6ac b43e 59ac debe 6f0b 08c0 1819 a63e
00000040: d5e7 e63c 24ee 0440 6cb6 793e de4f a4be
00000050: 46b9 64c0 6cd3 75be 2735 123f e02a 1e40
00000060: d222 eb3e c42d de3e ecd4 0dc0 06e0 5d3d
00000070: b6ae 463e a0a9 1440 9c99 e1be a77f 54bd
00000080: 6782 0bc0 d091 a3be e9ef d33e c1f0 c83f
00000090: a37d dcbe 901d eb3e 80e7 0cbf 9b01 09be
000000a0: 85ee 813e 1b1e 05c0 44c9 0bbf a5e6 ec3c
000000b0: 47ba c43f 2063 94be c605 f0be 761f 13c0
000000c0: 2dbf c53e 9822 cfbd e58b 1c40 d1ea 723e
000000d0: 128c 70be d989 d2bf 9231 a6be a462 693e
000000e0: 7702 24c0 ad13 d03e a3a8 e53e 5f5a f8bf
000000f0: 806b b8bd 7dc3 50be 6e8e 0640 1d1b afbe
00000100: 3057 123f b48f 68bf 2187 3b3e 8929 6dbd
00000110: 1ca7 2b40 e406 a83e 0b26 803e f925 bfbf
00000120: d699 b83e c802 c23e 7e60 3640 873f a0be
00000130: 1a80 21bf ae71 973f 98f3 f23e 8776 44be
00000140: aec5 ecbf 4c3a d83e 8159 023e 45f4 14c0
00000150: 51c3 8f3e 2dc7 013e 8cdf e53f affa 833d
00000160: 90d6 ce3d b362 1ac0 682d 6abe b2e1 cabd
00000170: d769 c43f 852e c2be 505d 96bd 3a70 17c0
00000180: 1a8a 2f3d 20bc cdbe 476f 0640 31bb 91bd
00000190: c65f f7be 9b3b 19c0 3a82 05bf 785a 0fbf
000001a0: 422c 19c0 1b76 a1bd 4f2b 953d cee9 fabf
000001b0: 25a5 913e bf03 163e a72c 16c0 1424 763d
000001c0: 6803 983d 2a72 0c40 e323 993e 7cb6 783d
000001d0: 45e4 17c0 b62f 8dbe 5407 d2be 19dd 0940

layerin.bias f4 [40]
-0.55926925 -0.7231854 -0.025662381 -0.5321525 0.003897261 0.07854623 -0.24660818 -0.85659564
-0.24005672 0.043991175 -0.15179747 0.48837978 0.30356008 -0.50367266 0.7620222 0.6736759
0.60979766 -0.62307733 0.30714217 -0.07098397 0.5381801 -0.5406837 -0.16770378 -0.6580628
-0.3773597 0.38541204 0.14746416 0.13226661 0.6589313 0.76332563 -0.045815084 0.16473979
-0.5110266 0.76607674 0.70694655 -0.4277485 0.081490524 0.47995132 0.1222175 -0.38128
00000000: 452c 0fbf ae22 39bf ea39 d2bc 253b 08bf
00000010: 3169 7f3b d9dc a03d db86 7cbe da49 5bbf
00000020: 6ed1 75be 1730 343d cc70 1bbe ea0c fa3e
00000030: 3a6c 9b3e b1f0 00bf e313 433f 0676 2c3f
00000040: b31b 1c3f ff81 1fbf bd41 9d3e 0b60 91bd
00000050: 2cc6 093f 3f6a 0abf 8aba 2bbe ce76 28bf
00000060: 4a35 c1be ba54 c53e d800 173e e670 073e
00000070: b9af 283f 4f69 433f 99a8 3bbd 8cb1 283e
00000080: a4d2 02bf 9b1d 443f 73fa 343f da01 dbbe
00000090: 81e4 a63d 2ebc f53e 2b4d fa3d 2237 c3be

layers.0.weight f4 [40, 40]
0.33406293 -0.35993838 -0.42073506 -0.007661874 0.4149558 -0.2876938 0.25388643 -0.2911637
0.29254064 -0.48134473 0.1770298 -0.33509216 -0.13371362 0.20894016 0.016415132 0.33800268
0.12172984 0.2285332 0.2829905 0.3492063 -0.19454992 -0.039222825 -0.4020429 0.07850583
-0.23924387 -0.14320095 0.20544893 0.14464496 0.039191283 0.34807 -0.022081917 0.28796715
-0.528522 0.34636578 0.06493781 0.18615164 0.5807444 -0.3033488 0.37013865 -0.23836267
0.702406 -0.4024517 -0.6045471 0.19382602 0.3030153 -0.35856912 0.99559104 -0.45224145
0.36828047 -0.50722444 0.18979803 -0.31544304 0.08474829 0.47526452 -0.26199627 0.42050633
-0.33250302 0.58506244 0.88239884 0.14193884 -0.48823828 0.046711046 -0.81917703 0.28779355
-0.55189365 -0.18744045 0.1014189 0.18918946 -0.27655703 0.46596077 -0.09025237 0.3442879
-0.7420914 0.3624042 0.39819816 0.46909237 0.7063595 -0.39183363 0.3966533 -0.18302858
0.34841937 0.25741634 -0.07776202 0.24202716 0.011014788 -0.13279043 0.16693188 -0.027892131
-0.0056921123 -0.08486055 0.003035449 -0.15992378 -0.074393526 0.11887045 -0.12163808 -0.07866632
-0.12533262 0.26397884 -0.15601094 -0.07097091 0.008447416 0.09363272 -0.15869814 0.2961375
-0.020796258 -0.03327921 -0.117686324 -0.028130598 0.00868589 -0.22806346 0.018240644 -0.047092795
0.24649154 -0.25894088 -0.18141212 0.23950665 -0.08654574 -0.19963548 -0.11184746 0.053029064
-0.67952704 0.6337627 0.56543094 -0.24034761 -0.31425467 0.49490246 -1.0985693 0.31843305
-0.45951432 0.91258764 -0.34105238 0.57738453 -0.079263955 -0.32788607 0.2780124 -0.71981204
0.2606861 -0.637606 -0.97538304 -0.38829935 0.74856704 0.024978258 1.1318637 -0.3270561
0.6534939 0.23537198 -0.14716715 -0.476191 0.40953642 -0.36640185 0.034489885 -0.36852396
0.77091 -0.5917905 -0.33589917 -0.46252328 -0.57702243 0.3837234 -0.55234313 0.15305267
0.0051024705 0.055043146 0.1259342 -0.17242822 0.098762974 0.06313118 0.0060671903 -0.02492887
-0.09169147 0.080503225 -0.079177804 0.0023554843 0.13819638 -0.15191583 0.17574668 -0.09453752
-0.1298414 -0.17955115 0.08086712 0.059837535 -0.031571914 0.08946122 0.025655758 -0.101210594
-0.030883629 0.15868185 -0.04387369 -0.017205786 -0.12915154 -0.08739752 -0.04790489 0.099868014
0.14653687 -0.16265866 0.10941138 -0.018919038 -0.08804346 0.09011389 -0.14921564 0.122154534
0.22896619 0.15705626 -0.0025068675 0.0896804 -0.031109907 0.18030587 0.03811708 0.09855671
0.22265056 -0.17198417 -0.048599415 -0.07451617 -0.22236064 0.10577669 -0.10682094 0.013217952
0.18050435 0.42900157 0.014012667 0.12895884 0.08034718 -0.1090413 -0.08740107 0.16893141
-0.028744427 -0.07747671 0.041994255 0.21239315 0.00880044 -0.0065019294 0.038078073 -0.013374592
-0.006679495 -0.11772528 -0.08963905 -0.059616607 0.2030581 -0.0396539 0.24415347 0.069231026
-0.79122084 0.62558526 0.57356966 -0.29160112 -0.5258793 0.44052553 -1.0012896 0.380981
-0.4115979 0.74551487 -0.27493283 0.4751456 0.10395001 -0.50946194 0.17470188 -0.7010778
00000000: 4c0a ab3e d849 b8be 966a d7be 7510 fbbb
00000010: 1675 d43e 9a4c 93be 67fd 813e 6913 95be
00000020: e3c7 953e d172 f6be 4d47 353e 3391 abbe
00000030: 39ec 08be 69f4 553e 0779 863c b00e ad3e
00000040: 7f4d f93d 9b04 6a3e 21e4 903e 2bcb b23e
00000050: 1838 47be 1da8 20bd 91d8 cdbe aac7 a03d
00000060: 58fc 74be 45a3 12be 3461 523e cf1d 143e
00000070: 0a87 203d 3b36 b23e 23e5 b4bc 6e70 933e
00000080: 384d 07bf db56 b13e 1dfe 843d 899e 3e3e
00000090: aaab 143f 8950 9bbe d082 bd3e 5815 74be
000000a0: e1d0 333f 260e cebe 99c3 1abf 547a 463e
000000b0: d224 9b3e 5f96 b7be 0edf 7e3f 318c e7be
000000c0: 428f bc3e 76d9 01bf 6a5a 423e c081 a1be
000000d0: 8390 ad3d df55 f33e 6024 86be 9b4c d73e
000000e0: d63d aabe a7c6 153f e4e4 613f 6a58 113e
000000f0: 5efa f9be 1554 3f3d 96b5 51bf ad59 933e
00000100: e748 0dbf 64f0 3fbe b6b4 cf3d e2ba 413e
00000110: e298 8dbe 6992 ee3e 3cd6 b8bd 8146 b03e
00000120: b4f9 3dbf 0b8d b93e a1e0 cb3e e02c f03e
00000130: fad3 343f 6b9e c8be 2416 cb3e d86b 3bbe
00000140: 0664 b23e 13cc 833e b241 9fbd f8d5 773e
00000150: 5f77 343c 37fa 07be 31f0 2a3e 0a7e e4bc
00000160: e684 babb 5ecb adbd 62ee 463b 0fc3 23be
00000170: a25b 98bd 5a72 f33d 631d f9bd cf1b a1bd
00000180: 3257 00be 3c28 873e 55c1 1fbe 3259 91bd
00000190: 0867 0a3c 83c2 bf3d c481 22be 569f 973e
000001a0: ea5c aabc c84f 08bd 8705 f1bd 2472 e6bc
000001b0: 434f 0e3c 7889 69be 676d 953c 60e4 40bd
000001c0: 4768 7c3e e693 84be 19c4 39be 3b41 753e
000001d0: e53e b1bd 3e6d 4cbe 4810 e5bd 0135 593d
000001e0: 7cf5 2dbf 463e 223f 15c0 103f af1d 76be
000001f0: fde5 a0be db63 fd3e eb9d 8cbf a809 a33e
00000200: 7645 ebbe 589f 693f 6b9e aebe 79cf 133f
00000210: 2455 a2bd afe0 a7be a457 8e3e 9a45 38bf
00000220: a678 853e 263a 23bf b4b2 79bf 2ccf c6be
00000230: 17a2 3f3f 349f cc3c e9e0 903f e673 a7be
00000240: 604b 273f 5a05 713e fcb2 16be 4fcf f3be
00000250: c2ae d13e 0699 bbbe 4445 0d3d 2caf bcbe
00000260: 5c5a 453f 957f 17bf fafa abbe dacf ecbe
00000270: beb7 13bf 6577 c43e 5c66 0dbf d7b9 1c3e
00000280: a032 a73b ec74 613d e5f4 003e 0691 30be
00000290: 3e44 ca3d ec4a 813d 48cf c63b a137 ccbc
000002a0: bdc8 bbbd e0de a43d f927 a2bd 785e 1a3b
000002b0: 5a83 0d3e d38f 1bbe f0f6 333e e39c c1bd
000002c0: 25f5 04be 42dc 37be a99d a53d 3418 753d
000002d0: 8d51 01bd 7237 b73d 062c d23c 8047 cfbd
000002e0: aaff fcbc 7f7d 223e e6b4 33bd 26f3 8cbc
000002f0: 4d40 04be 79fd b2bd eb37 44bd 9a87 cc3d
00000300: c30d 163e fe8f 26be 1313 e03d 19fc 9abc
00000310: 2150 b4bd a28d b83d fccb 18be 282c fa3d
00000320: 1d76 6a3e 5bd3 203e 424a 24bb 5caa b73d
00000330: 34da febc 1aa2 383e a820 1c3d 1ad8 c93d
00000340: 82fe 633e 9e1c 30be 2e10 47bd ef9b 98bd
00000350: 82b2 63be 73a1 d83d f0c4 dabd 1c90 583c
00000360: 22d6 383e 18a6 db3e 6395 653c c90d 043e
00000370: 108d a43d 0c51 dfbd 55ff b2bd 5bfc 2c3e
00000380: 6f79 ebbc 1cac 9ebd 2b02 2c3d 977d 593e
00000390: b82f 103c 230e d5bb c1f7 1b3d 1b21 5bbc
000003a0: aadf dabb f419 f1bd ae94 b7bd 8b30 74bd
000003b0: 76ee 4f3e 216c 22bd 5e03 7a3e ffc8 8d3d
000003c0: 738d 4abf 5b26 203f 76d5 123f be4c 95be
000003d0: 07a0 06bf 908c e13e 422a 80bf f10f c33e
000003e0: f6bc d2be 10da 3e3f ffc3 8cbe 4946 f33e
000003f0: bee3 d43d 196c 02bf 0de5 323e d679 33bf

layers.0.bias f4 [40]
-0.0451641 -0.047355678 -0.16082451 0.1137049 0.13306582 -0.09239822 0.12822999 -0.005405495
-0.19930941 0.12390824 0.31408122 -0.43823555 -0.039005626 0.14421552 0.027125223 -0.078370646
-0.07097358 -0.08819976 0.053110033 -0.102448314 -0.01229949 0.051557403 -0.038213767 0.05164637
0.20892482 0.14506485 0.048878532 -0.013786091 0.08747893 0.04259658 0.025985733 0.11004888
-0.0103850085 0.09635061 0.0837275 -0.16336232 0.12083347 -0.11438745 0.1828887 0.0036436243
00000000: fefd 38bd 07f8 41bd 2eaf 24be 1dde e83d
00000010: 6842 083e 473b bdbd b94e 033e 9420 b1bb
00000020: c417 4cbe 9ac3 fd3d 41cf a03e 6960 e0be
00000030: 5dc4 1fbd 3cad 133e b735 de3c ca80 a0bd
00000040: 995a 91bd 13a2 b4bd e889 593d 6cd0 d1bd
00000050: cd83 49bc db2d 533d 0a86 1cbd 258b 533d
00000060: 63f0 553e e18b 143e db34 483d 0edf 61bc
00000070: 2728 b33d c079 2e3d 08e0 d43c 4f61 e13d
00000080: e225 2abc 7853 c53d 5379 ab3d 7448 27be
00000090: 8a77 f73d f843 eabd 2d47 3b3e dfc9 6e3b

layerout.weight f4 [1, 40]
0.9152982 -1.2810019 0.55392176 1.1236707 -0.9463757 1.0590843 1.1435612 -1.0154488
0.44724867 0.8577129 -0.4637008 0.60611403 1.3116529 -0.6107607 1.2335626 -0.6147335
0.513405 -1.4272327 0.96286964 1.019179 1.2033046 0.78573555 0.9344434 1.1420568
1.3826904 -0.49402773 1.8451523 0.5434938 1.338727 0.8898075 1.9860475 1.623392
-1.090399 1.2493418 1.1172515 -1.3328773 1.4479665 0.5240459 -0.96341777 -0.61853445
00000000: fc50 6a3f dff7 a3bf d1cd 0d3f 71d4 8f3f
00000010: ae45 72bf 1390 873f 3760 923f 3afa 81bf
00000020: c7fd e43e 1393 5b3f 316a edbe 4a2a 1b3f
00000030: 3ee4 a73f d05a 1cbf 61e5 9d3f 2d5f 1dbf
00000040: 836e 033f 90af b6bf a07e 763f 7574 823f
00000050: e305 9a3f f725 493f af37 6f3f eb2e 923f
00000060: 00fc b03f 34f1 fcbe f32d ec3f 6922 0b3f
00000070: 685b ab3f 6dca 633f ce36 fe3f 4fcb cf3f
00000080: 3292 8bbf 6fea 9f3f 1902 8f3f b99b aabf
00000090: f756 b93f df27 063f 8ca2 76bf 4658 1ebf
