data/nnDist.pth (torch, 6836 bytes, 7 tensors)

layerin.weight f4 [20, 3]
0.062499676 0.41115984 1.293473 0.38850117 -0.17453353 2.0483499 -0.45449305 0.10205383
-1.7252678 -0.13131638 -0.69677085 1.9615535 0.2883908 0.350682 2.0286674 -0.09540453
-0.44640917 1.9570858 -0.4065276 0.008238233 -2.790537 -0.24319689 -0.12295358 -1.6998659
0.34954813 0.43668178 -1.9747909 -0.009301254 -0.3248466 -1.7913728 -0.087755784 0.5152269
1.5392095 0.30360118 -0.36718246 -1.465074 0.063164264 0.22731198 2.2164204 -0.113661595
-0.38135687 -2.0763943 0.16137439 0.013428037 2.0996828 0.55874604 -0.44877502 -1.7071822
0.15515783 0.35932517 1.8029324 -0.6510478 -0.6469201 1.6148281 -0.5623007 0.47889757
0.96269894 -0.4797069 -0.37489 -0.22322309
00000000: a9ff 7f3d 8b83 d23e 8690 a53f a0e9 c63e
00000010: ebb8 32be 2a18 0340 50b3 e8be 9901 d13d
00000020: 93d5 dcbf cd77 06be 935f 32bf 2f14 fb3f
00000030: f5a7 933e 978c b33e b0d5 0140 7363 c3bd
00000040: be8f e4be ca81 fa3f 6324 d0be a7f9 063c
00000050: 2998 32c0 9b08 79be 16cf fbbd 3595 d9bf
00000060: f9f7 b23e c194 df3e f3c5 fcbf 4964 18bc
00000070: 4b52 a6be b44b e5bf 4eb9 b3bd e9e5 033f
00000080: d104 c53f 9d71 9b3e 57ff bbbe 8b87 bbbf
00000090: 445c 813d 79c4 683e d5d9 0d40 69c7 e8bd
000000a0: 3541 c3be a5e3 04c0 543f 253e 4501 5c3c
000000b0: 3461 0640 fb09 0f3f d7c5 e5be f284 dabf
000000c0: b2e1 1e3e 78f9 b73e 7dc6 e63f 12ab 26bf
000000d0: 8e9c 25bf b0b2 ce3f f0f2 0fbf 1032 f53e
000000e0: 7073 763f 259c f5be 95f1 bfbe 9894 64be

layerin.bias f4 [20]
-0.52172405 0.009848643 -0.0027646762 0.06854565 0.303655 0.20192789 0.3927057 -0.090978496
0.365082 0.6065154 0.64420825 -0.61615986 -0.7413925 -0.22195114 0.42745018 0.08580728
-0.35701662 -0.17592515 -0.010925442 0.53344864
00000000: b58f 05bf 345c 213c 922f 35bb a961 8c3d
00000010: ab78 9b3e 2fc6 4e3e b910 c93e ef52 babd
00000020: 07ec ba3e 9844 1b3f d5ea 243f a7bc 1dbf
00000030: e6cb 3dbf 2947 63be c0da da3e babb af3d
00000040: e2ca b6be b925 34be a000 33bc 1790 083f

layers.0.weight f4 [20, 20]
-0.28771585 -0.07475331 -0.16037221 0.1810206 0.34522596 0.42630738 -0.04164473 -0.41016442
0.20547095 0.34840736 0.25715664 -0.31962636 -0.2572829 -0.25223577 0.41616133 -0.1538692
0.03137228 0.061382778 -0.14500624 0.1866997 0.18803544 -0.020393457 0.03025029 0.014957738
0.1662648 0.12066041 0.11043377 0.06109974 -0.09375038 -0.106710374 0.15275921 -0.2552137
-0.0064410763 0.2395216 -0.24437554 -0.17782737 -0.18360081 0.12797013 0.14764948 -0.0029725279
0.086388506 0.327044 -0.49399787 0.7970937 0.5461616 0.63510096 -0.23696521 -0.64244694
-0.30134454 -0.27387092 0.3633571 -0.5119091 0.28362757 -0.561776 0.31593698 -0.28870454
0.6163424 0.3818304 0.3649787 0.15502359 0.26281077 0.31799272 -0.544955 1.7629007
0.54901093 0.7631479 -0.32929024 -0.65968025 -0.64515567 -0.4738156 0.162992 -0.36922717
0.6641208 -0.80632555 0.48211277 -0.67190903 0.42268518 0.67828697 0.5175226 0.13724595
-0.052774895 -0.103280514 0.30297595 -0.23124173 -0.30251828 -0.46896783 0.09084393 0.2590846
0.34759375 0.12401298 -0.1203676 0.24085571 -0.24101534 0.3493562 0.10649693 0.05944708
-0.2335062 -0.24415681 0.08639715 0.115786605 -0.13225503 -0.066710815 0.5014339 -0.8064002
-0.4204024 -0.76347107 0.4024807 0.24859285 0.4826501 0.3269635 -0.12198378 0.1528104
-0.20036985 0.6394257 -0.4055394 0.25839293 -0.45585358 -0.36334002 -0.107932016 -0.07329798
-0.015040946 0.08465661 0.042837612 -0.36739162 -0.21098739 -0.52497816 0.31903023 0.44028923
0.4955807 0.18060338 -0.02572768 0.3258988 -0.041457307 0.27347237 -0.13773626 0.097897254
-0.26761696 -0.23856908 0.12817474 0.086025976 -0.35315764 -0.26328236 0.55704176 -0.7048191
-0.4480789 -0.9127108 0.3139399 0.4340131 0.33229488 0.54988813 -0.27835613 0.49050614
-0.25353405 0.5951288 -0.5999718 0.19971013 -0.46081984 -0.35742185 -0.36994687 -0.107220046
0.24419723 -0.005733221 -0.15391938 0.01704663 -0.09492319 0.026976336 -0.038281072 0.18776391
-0.36419362 -0.013819581 0.18324211 -0.2496933 0.18363492 0.16566466 0.17369458 -0.3041182
-0.08124154 0.2906564 0.012221464 0.08407354 -0.21985063 -0.25096545 -0.03302408 -0.518889
-0.25499958 -0.81584543 0.33252805 0.28806627 0.33931074 0.3281815 -0.32026812 0.21572435
-0.05522199 0.38841307 -0.007679323 0.31757626 -0.28348553 -0.22506334 0.08694854 0.026763955
-0.28470784 -0.26916218 0.35795584 -0.26088196 0.14451918 0.08289828 0.20053735 0.27148584
0.17125954 0.260287 0.3683087 -0.12628135 -0.2947021 0.15306461 0.18653661 0.07675466
-0.2704251 -0.12734719 0.053422425 0.44627687 -0.37327376 -0.26488918 0.39262867 -0.5099839
-0.49101764 -0.8641622 0.446 0.5628348 0.32842633 0.20422347 -0.016674457 0.40200123
-0.20824827 0.5518161 -0.26389465 0.48790663 -0.3696366 -0.4856009 -0.09838079 0.16362661
0.29013768 0.06501315 -0.2894279 0.33530262 -0.045488514 0.3089823 -0.01149932 -0.09692104
-0.10711151 -0.28352493 -0.12163968 -0.07285526 0.19666566 -0.24817708 -0.11647044 -0.3314999
00000000: 7e4f 93be 4318 99bd 9d38 24be 775d 393e
00000010: 75c1 b03e f644 da3e aa93 2abd 1201 d2be
00000020: fa66 523e 7362 b23e 09aa 833e 11a6 a3be
00000030: 96ba 83be 0c25 81be 1913 d53e e38f 1dbe
00000040: 3880 003d 826c 7b3d 847c 14be 352e 3f3e
00000050: 5d8c 403e 2e10 a7bc 75cf f73c 4d11 753c
00000060: 5241 2a3e ce1c f73d 1a2b e23d b943 7a3d
00000070: 3300 c0bd f88a dabd e96c 1c3e 5fab 82be
00000080: aa0f d3bb 2645 753e 953d 7abe 6118 36be
00000090: da01 3cbe 9a0a 033e 6d31 173e bece 42bb
000000a0: 75ec b03d 5072 a73e 4aed fcbe 550e 4c3f
000000b0: 3fd1 0b3f fa95 223f 02a7 72be 6777 24bf
000000c0: d549 9abe cf38 8cbe f109 ba3e 7a0c 03bf
000000d0: a237 913e 8dd0 0fbf 7ec2 a13e 15d1 93be
000000e0: 9ec8 1d3f 467f c33e 7dde ba3e 81be 1e3e
000000f0: 228f 863e f1cf a23e 2c82 0bbf bba6 e13f
00000100: fb8b 0c3f a95d 433f bb98 a8be cee0 28bf
00000110: ec28 25bf f597 f2be 60e7 263e 580b bdbe
00000120: d203 2a3f 5a6b 4ebf 7cd7 f63e 3b02 2cbf
00000130: 316a d83e 37a4 2d3f 5c7c 043f 348a 0c3e
00000140: 7d2a 58bd bc84 d3bd aa1f 9b3e a2ca 6cbe
00000150: ade3 9abe 8d1c f0be 620c ba3d bda6 843e
00000160: cff7 b13e 84fa fd3d 4a83 f6bd e1a2 763e
00000170: bacc 76be d1de b23e 101b da3d c87e 733d
00000180: 401c 6fbe 3e04 7abe fdf0 b03d 8721 ed3d
00000190: dd6d 07be ae9f 88bd f95d 003f 3e70 4ebf
000001a0: fc3e d7be d772 43bf f311 ce3e 208f 7e3e
000001b0: ea1d f73e c367 a73e a2d2 f9bd 547a 1c3e
000001c0: c12d 4dbe 67b1 233f dca2 cfbe 144c 843e
000001d0: a465 e9be b407 babe 760b ddbd 401d 96bd
000001e0: 4d6e 76bc 7260 ad3d 7e76 2f3d c11a bcbe
000001f0: 140d 58be f864 06bf ee57 a33e 976d e13e
00000200: c1bc fd3e 18f0 383e dbc2 d2bc 35dc a63e
00000210: 23cf 29bd 9204 8c3e bc0a 0dbe 5b7e c83d
00000220: 1705 89be 744b 74be 3d40 033e 632e b03d
00000230: 14d1 b4be f2cc 86be 4a9a 0e3f 066f 34bf
00000240: 996a e5be 6aa7 69bf bbbc a03e f736 de3e
00000250: 8e22 aa3e 78c5 0c3f b284 8ebe 9f23 fb3e
00000260: 37cf 81be 5c5a 183f c097 19bf d080 4c3e
00000270: 94f0 ebbe ffff b6be ad69 bdbe 2f96 dbbd
00000280: d70e 7a3e bedd bbbb 0b9d 1dbe 60a5 8b3c
00000290: 1767 c2bd 7afd dc3c 9dcc 1cbd 2f45 403e
000002a0: 9677 babe 866b 62bc d2a3 3b3e 9aaf 7fbe
000002b0: cb0a 3c3e ffa3 293e fedc 313e 61b5 9bbe
000002c0: f761 a6bd ead0 943e 893c 483c c02e ac3d
000002d0: 8620 61be 8b7e 80be 4244 07bd e9d5 04bf
000002e0: 4e8f 82be 3fdb 50bf 1e41 aa3e 6c7d 933e
000002f0: 23ba ad3e 6807 a83e 2ffa a3be d8e6 5c3e
00000300: 7430 62bd 14de c63e d5a2 fbbb 5b99 a23e
00000310: 0425 91be 0177 66be 1312 b23d 1540 db3c
00000320: 3ac5 91be a0cf 89be fd45 b73e 5292 85be
00000330: d6fc 133e 93c6 a93d aa59 4d3e 3100 8b3e
00000340: a95e 2f3e 5644 853e f592 bc3e e64f 01be
00000350: 32e3 96be f8bc 1c3e 7403 3f3e 8c31 9d3d
00000360: 2975 8abe 4d67 02be 79d1 5a3d 677e e43e
00000370: bd1d bfbe 8e9f 87be a006 c93e 4e8e 02bf
00000380: aa66 fbbe bc39 5dbf 1d5a e43e f115 103f
00000390: 7f27 a83e f51f 513e df98 88bc 1bd3 cd3e
000003a0: 093f 55be d243 0d3f 331d 87be e6ce f93e
000003b0: 0241 bdbe aea0 f8be de7b c9bd bc8d 273e
000003c0: ed8c 943e 9d25 853d e52f 94be c9ac ab3e
000003d0: 2a52 3abd ee32 9e3e a567 3cbc 8a7e c6bd
000003e0: 485d dbbd 2e2a 91be 391e f9bd 2335 95bd
000003f0: b962 493e 2222 7ebe 0e88 eebd 5bba a9be

layers.0.bias f4 [20]
0.3411594 -0.11336758 -0.089258574 0.079319194 0.11111254 -0.1557772 -0.07734247 0.10112607
0.02864061 -0.0012722028 0.2939758 -0.091438666 0.11854175 0.015627844 -0.21651366 -0.001583833
0.15101387 0.38217565 -0.26006058 -0.06152435
00000000: 72ac ae3e 432d e8bd 33cd b6bd 1a72 a23d
00000010: f98e e33d 0f84 1fbe bb65 9ebd 2f1b cf3d
00000020: b69f ea3c 0bc0 a6ba ff83 963e 3244 bbbd
00000030: 04c6 f23d f705 803c c2b5 5dbe 9e98 cfba
00000040: 61a3 1a3e 87ac c33e a926 85be f500 7cbd

layers.2.weight f4 [20, 20]
0.077206925 0.26685134 -0.8488268 -0.13959086 0.28701985 1.3180611 0.3560114 0.98882467
0.06560166 0.417606 0.2783693 0.6039812 0.2825503 0.62955827 0.3031527 -0.29174486
0.026756091 0.2184961 0.71645653 -0.076175585 0.3240088 0.04800758 0.7809404 0.012879683
-0.5694524 -1.3171302 -0.625827 -0.89001065 0.19395834 -0.47300905 -0.23096336 -0.62925875
0.007203586 -0.6424202 -0.7256568 0.5070516 -0.0075784354 -0.17734884 -0.5661964 -0.00090928253
0.77179503 0.56119514 -0.67535573 0.4196373 -0.060422104 0.69837654 -0.40976083 0.7324156
0.122434996 -0.004219632 0.16213717 0.9205784 0.50247043 0.52100086 -0.36772543 -0.18393359
-0.40476003 0.5390338 -0.3064648 -0.5403193 -0.40549907 -0.09779248 -0.5025298 -0.17751038
0.4336044 1.174408 0.51184785 0.9696844 -0.17028673 0.6375089 0.473243 0.54530114
-0.26681018 0.6731065 0.41099602 -0.4160183 -0.015840493 -0.123717606 0.7623754 -0.12706646
-0.08256176 0.59655195 -0.09660822 0.62358224 -0.09530219 -0.57821035 -0.42947307 -0.3074121
0.5804779 -0.8485216 0.30314082 -0.03565055 0.3269972 -0.21197017 -0.0055958536 0.31748903
-0.4027839 -0.08113282 -0.059697974 -0.7123729 0.70900446 0.9644182 -0.66985005 0.13843
0.14392349 0.53045803 0.06656602 0.8733366 0.48915488 -0.060766913 0.49975115 0.34151265
0.32221588 0.119813696 -0.14562395 -0.3843525 -0.17931055 0.7203939 -0.0021659585 -0.43359032
0.4386093 0.08665326 0.8030762 -0.058197994 -0.5751075 -1.2616479 -0.5506544 -0.9397392
0.33980322 -0.25817734 -0.4753208 -0.8107696 -0.0059746127 -0.76816297 -0.42848775 0.41325572
-0.12818977 -0.021082565 -0.67042774 -0.2302023 0.44139728 0.27913174 -0.6595504 0.41627494
-0.054755446 0.7681551 0.008361212 0.40858987 0.40606898 -0.034023266 0.28702012 0.29025194
0.35079998 0.3634759 -0.08490561 -0.02134881 -0.5696112 0.55982375 -0.63004506 -0.3759271
-0.23441193 -0.09406832 -0.7000162 -0.15609096 0.45499796 0.93400574 0.35807395 0.9830539
-0.22402371 0.44146955 0.23319899 0.45788604 0.13592693 0.6538615 0.33515236 -0.48436219
0.03286235 -0.038898576 0.69950616 0.025721142 -0.042665266 0.17328575 -0.71904683 0.17032807
0.2175468 1.3916254 0.527504 0.7110147 -0.21870531 0.5325394 0.39291215 0.70204896
0.06159364 0.3697605 0.30363166 -0.40658382 0.012115758 0.12447652 0.84498346 -0.0069851
0.38999727 0.15534194 0.56236786 0.19560252 -0.43927917 -1.2831186 -0.6475443 -0.95609975
0.13819195 -0.38679186 -0.41717562 -0.37529987 0.13796763 -0.73224574 -0.6479987 0.25285178
-0.09021699 -0.14044239 -0.8164571 0.22770846 -0.37076706 -0.47663713 0.22163954 -0.44449016
-0.05404036 -0.24077527 0.14586106 -0.2782077 -0.20762812 0.2529772 -0.2969498 -0.12653102
-0.4361721 -0.033191767 -0.08669779 0.06253907 0.37615097 -0.33554116 -0.04007971 0.62075263
0.30957696 -0.66280997 -0.118091606 -0.74946904 0.21662058 0.442198 0.3269583 0.3050529
-0.60776466 0.6269616 0.08853328 0.36293718 -0.55589515 0.32086515 0.13085027 -0.27066576
00000000: aa1e 9e3d bda0 883e b74c 59bf e8f0 0ebe
00000010: 44f4 923e 3ab6 a83f 2047 b63e 9d23 7d3f
00000020: 2a5a 863d 74d0 d53e 6c86 8e3e 839e 1a3f
00000030: 6faa 903e bb2a 213f d536 9b3e 955f 95be
00000040: 972f db3c 71bd 5f3e b269 373f f201 9cbd
00000050: 7be4 a53e 99a3 443d b6eb 473f 4e05 533c
00000060: a2c7 11bf b997 a8bf 3336 20bf bdd7 63bf
00000070: 049d 463e 3e2e f2be a981 6cbe 1a17 21bf
00000080: 0f0c ec3b a675 24bf a5c4 39bf 22ce 013f
00000090: 8654 f8bb ef9a 35be 3ff2 10bf eb5c 6eba
000000a0: 5c94 453f 7caa 0f3f 1de4 2cbf b3da d63e
000000b0: 2b7d 77bd cec8 323f 2ccc d1be 977f 3b3f
000000c0: 33bf fa3d d744 8abb 4907 263e 07ab 6b3f
000000d0: e7a1 003f 5060 053f 8246 bcbe 1659 3cbe
000000e0: b53c cfbe 1efe 093f f4e8 9cbe 5e52 0abf
000000f0: 939d cfbe 6c47 c8bd cba5 00bf 48c5 35be
00000100: 6501 de3e 0053 963f 7608 033f 3d3d 783f
00000110: a55f 2ebe c933 233f e84c f23e db98 0b3f
00000120: 589b 88be b550 2c3f 126e d23e 5a00 d5be
00000130: ecc3 81bc a85f fdbd 092b 433f b61d 02be
00000140: 2416 a9bd a1b7 183f 88da c5bd 16a3 1f3f
00000150: cb2d c3bd 9805 14bf e5e3 dbbe 1e65 9dbe
00000160: 339a 143f b638 59bf 4635 9b3e 5006 12bd
00000170: 2d6c a73e b50e 59be 6c5d b7bb ec8d a23e
00000180: b139 cebe f728 a6bd dd85 74bd 125e 36bf
00000190: 5181 353f 1ce4 763f 4b7b 2bbf 98c0 0d3e
000001a0: ae60 133e 19cc 073f c453 883d fd92 5f3f
000001b0: 8272 fa3e bae6 78bd 62df ff3e bfda ae3e
000001c0: 7bf9 a43e e260 f53d 721e 15be dac9 c4be
000001d0: 2f9d 37be bc6b 383f c1f2 0dbb 8dff ddbe
000001e0: 6691 e03e 4477 b13d 6796 4d3f 0561 6ebd
000001f0: 3f3a 13bf ae7d a1bf b0f7 0cbf c092 70bf
00000200: b0fa ad3e d22f 84be 3f5d f3be 998e 4fbf
00000210: afc6 c3bb 54a6 44bf bf62 dbbe 4196 d33e
00000220: 2e44 03be 58b5 acbc 27a1 2bbf 27ba 6bbe
00000230: d3fe e13e 5bea 8e3e 4cd8 28bf fd21 d53e
00000240: 3f47 60bd d0a5 443f 77fd 083c b132 d13e
00000250: 46e8 cf3e fb5b 0bbd 4df4 923e e79b 943e
00000260: 0e9c b33e 8319 ba3e fee2 adbd b3e3 aebc
00000270: 0ad2 11bf 9c50 0f3f a24a 21bf 8479 c0be
00000280: ae09 70be e4a6 c0bd 4334 33bf 4fd6 1fbe
00000290: 7ef5 e83e 001b 6f3f 7855 b73e 6ca9 7b3f
000002a0: 7966 65be 4c08 e23e b7cb 6e3e 0a70 ea3e
000002b0: 6e30 0b3e 7863 273f 1799 ab3e 52fe f7be
000002c0: ac9a 063d 1d54 1fbd d612 333f 25b5 d23c
000002d0: c6c1 2ebd d271 313e 7413 38bf 7b6a 2e3e
000002e0: 97c4 5e3e c820 b23f 810a 073f 0f05 363f
000002f0: 49f4 5fbe 8154 083f c82b c93e 7bb9 333f
00000300: 9d49 7c3d 4051 bd3e 9c75 9b3e c12b d0be
00000310: 2c81 463c 8ced fe3d d650 583f 44e3 e4bb
00000320: b9ad c73e f511 1f3e 57f7 0f3f 074c 483e
00000330: 33e9 e0be 3b3d a4bf 77c5 25bf f4c2 74bf
00000340: 3182 0d3e 9509 c6be 0b98 d5be 4e27 c0be
00000350: 6347 0d3e 7574 3bbf 3ee3 25bf ca75 813e
00000360: afc3 b8bd 21d0 0fbe 5503 51bf 682c 693e
00000370: 2ed5 bdbe c809 f4be 7af5 623e 3794 e3be
00000380: 6d59 5dbd cb8d 76be 9a5c 153e 3d71 8ebe
00000390: 779c 54be 3a86 813e ce09 98be 5991 01be
000003a0: f351 dfbe 17f4 07bd 9c8e b1bd 7c14 803d
000003b0: dc96 c03e 0dcc abbe 9f2a 24bd a5e9 1e3f
000003c0: df80 9e3e eaad 29bf 03da f1bd 34dd 3fbf
000003d0: c9d1 5d3e c767 e23e 1467 a73e e52f 9c3e
000003e0: 7796 1bbf 8e80 203f f050 b53d e7d2 b93e
000003f0: 254f 0ebf 7048 a43e 9dfd 053e b494 8abe

layers.2.bias f4 [20]
0.12689355 0.14721897 0.7248731 -0.15500921 -0.15079996 0.51475984 0.24373686 0.62578696
-0.21997109 -0.058248144 0.27861288 -0.39550647 0.15334238 -0.20957978 -0.19490959 -0.22922745
0.017932784 -0.3583455 -0.28139445 0.13866982
00000000: 62f0 013e 92c0 163e 4991 393f bcba 1ebe
00000010: 4e6b 1abe 4dc7 033f 2896 793e 9333 203f
00000020: 1a40 61be 9b95 6ebd 59a6 8e3e d37f cabe
00000030: c905 1d3e 159c 56be 6196 47be 9aba 6abe
00000040: c6e7 923c 1079 b7be ef12 90be 76ff 0d3e

layerout.weight f4 [1, 20]
-1.1185926 1.2685095 -1.3243145 -1.3281279 -1.1028231 -1.3718145 1.2863424 -1.5110811
-1.9808288 -1.329858 1.6361637 2.1881127 1.4137522 -1.4961435 -1.3421874 -1.3601632
-1.3017001 1.9103938 2.3271794 1.3921965
00000000: 0b2e 8fbf 855e a23f 2383 a9bf 1800 aabf
00000010: 4f29 8dbf 9e97 afbf dea6 a43f 1b6b c1bf
00000020: cc8b fdbf c938 aabf d06d d13f 0a0a 0c40
00000030: d5f5 b43f a181 bfbf cccc abbf d419 aebf
00000040: 1c9e a6bf c987 f43f 82f0 1440 7f33 b23f
