data/nnInbcs.pth (torch, 6848 bytes, 8 tensors)

layerin.weight f4 [20, 3]
00000000: 2314 a13e d45e c93e cc37 43be f36c 0dbe
00000010: 785a 3cbd 80ab 31bc b00e 9cbe 5d34 3a3e
00000020: c070 0abf 1a34 053d 775c 933c 7fee cb3e
00000030: a588 8e3e 1c42 e6bc 2705 3ebd 895f 993e
00000040: b9d4 1b3e c632 953e 9814 013f 3d17 a8be
00000050: bbb3 4c3e 96ae 0e3d c67c 933e d09a 23be
00000060: 3cdc babe 100f 20be ccca d8be 0526 c53e
00000070: 753c 3abe a6a7 da3d 69e0 073f eeb0 12be
00000080: 5e02 423d a733 11be fdcb 84be a9f7 b3be
00000090: 380e 95bc 50ae 323e b7b7 80be a847 cb3e
000000a0: d719 8dbe 8498 cb3e 7f2e 0e3f a649 053e
000000b0: 55ce 9a3a b8f5 103f 56f7 e43e d3db b5bd
000000c0: 14df 97be 4527 393e 19b2 93be b7cc b2be
000000d0: 4564 c13e 2c35 e13e 4d63 2cbd a19e 6ebe
000000e0: b806 96be 18b9 94be d331 df3e 60fa fdbe
0.31460676 0.3933016 -0.19064254 -0.13811092 -0.045984715 -0.010844111 -0.30479956 0.18184038
-0.5407829 0.03252039 0.017988427 0.39830396 0.27838627 -0.028107695 -0.046391632 0.299557
0.15217866 0.291403 0.5042205 -0.3283023 0.19990437 0.034834467 0.28806132 -0.15977025
-0.3649615 -0.15630746 -0.42342222 0.3850557 -0.18187125 0.10676508 0.530768 -0.14325306
0.04736554 -0.1417986 -0.2593688 -0.35149887 -0.018195257 0.17449307 -0.25140163 0.39703107
-0.27558777 0.39764798 0.555397 0.13016376 0.0011810759 0.5662494 0.44719952 -0.08879819
-0.29662383 0.18081386 -0.28846815 -0.3492181 0.37771812 0.4398588 -0.042086888 -0.233027
-0.29302 -0.29047465 0.435927 -0.49605083

layerin.bias f4 [20]
00000000: e798 c9be cb96 09be ec0a 713d 078e 093e
00000010: 48b6 bcbe 55ee 0a3f 2009 a2be cf76 e23e
00000020: c649 66be 4420 d0bc ac97 87be 1d85 e93e
00000030: 92e1 74be 4202 0ebf 8250 1d3e ef61 68be
00000040: 1465 0f3e 6a2b b83e c519 933d c48f 33bd
-0.39374468 -0.13436429 0.058848307 0.13433085 -0.3685782 0.54269916 -0.31647587 0.4423127
-0.2248908 -0.02540601 -0.26482904 0.4560937 -0.23914173 -0.55472195 0.15362743 -0.22693609
0.14003402 0.35970622 0.071826495 -0.043838277

layers.0.weight f4 [20, 20]
00000000: 145d 443e 0d58 2a3e 4db8 033e 5c09 d7bd
00000010: 8693 61bd 8719 28be fc54 43be ed5f b7bd
00000020: 41a4 6cbe 22c2 42be 6669 b13d 173a 4dbe
00000030: 32b3 5b3e dd31 663e 0e4e cbbd da33 033e
00000040: 6248 49bd c596 5ebe 6d86 ad3d 68ee babd
00000050: cc90 473e b680 9b3d 0ea0 23be a102 05be
00000060: 43d8 65bc dbaf 41be 41f4 1abc 397b 3f3e
00000070: 6079 09be 12e0 4ebe e608 373e cb32 cabd
00000080: 91a7 fc3d ab3d cf3d aecb 0f3e 6216 11be
00000090: 8aa3 54be e9b2 03be 1d5d 563d 0870 373e
000000a0: 272f 71be a39a 563e 9014 13bd 89a3 e4bb
000000b0: e4d6 403e 9a4c 07be 7529 4e3e 52b0 41bc
000000c0: 8a15 36be 6ca4 053e 4305 043e ec26 4b3e
000000d0: adc8 7b3c e93d 81bd f661 b43d d719 ad3d
000000e0: be9f 5abe 671c 2e3e 4317 533e b220 5b3e
000000f0: 36c5 3b3d e88e 2fbe aa3d aebd adf7 0b3e
00000100: 2b1d 96bc 34be 4bbe fcae ae3d 1a2d 68bd
00000110: 394e 683c 971d cdbc e512 313e ac0f 05be
00000120: 8aa9 013e 9494 453e 0b7a cd3d 4929 ebbd
00000130: 1faa 02be 074e 52bd 486c 27be cece 5abe
00000140: d80f 483e 4f73 36be 40ea c13d 8348 34be
00000150: 9fd0 133e 8fdb cf3d 2a1e a63d cb12 efbd
00000160: 9540 9abd ad7d 55bd 5833 413e 4dbc 623e
00000170: e508 81bd 2a9a fcbd 0a42 763d e62b 203e
00000180: 0cf6 45be 6fb5 443e 6fa8 133e 7859 283e
00000190: 8cd5 2a3e 7f22 5a3d cd70 aabd 6c78 8b3d
000001a0: 91ec cd3c b120 08be f2a6 34be 6c71 76be
000001b0: cc05 44bc fe7d dcbd 2481 7d3c cc37 ce3d
000001c0: 46c1 663e 0ad3 0cbe 3498 a93d 3e49 05be
000001d0: 1eb2 33be 79ea e1bc f300 97bd 804e d53d
000001e0: 1359 23be c42f 60bd 1adb 133e aba6 093e
000001f0: c07f 63bd 9f97 a13d 3f7c 2b3e 9ca7 0fbe
00000200: fb00 43be 437c a03c 35a5 043e cc11 80bd
00000210: fa62 193e 2d42 57bd a518 123e 2035 05be
00000220: e9da 8b3d f18b 12bd fbdf 63be 4cb9 4fbd
00000230: c003 3cbe 679c 013e 5b5d ec3d 573a 16be
00000240: 887a 813d d09a b13d b7a9 03be 5193 9bbd
00000250: ffcf c23d 70f5 20bd 5aa0 6fbd 5f5e c6bd
00000260: ebf1 a1bd b2bb 31be 78ee ecbc 235e 3cbe
00000270: f779 203e d795 38bc d3ee a43d cbde 92bd
00000280: 1d31 5c3c fb36 f6bc 9479 7abd b72b 523d
00000290: 8990 fd3c 22c7 513e e95a 29be 5e60 2cbe
000002a0: 7a4f 513e 5666 87bd 230a 553e 90ec d23d
000002b0: c146 283e a66e 523d 8cbe 5abe 6a3b 3a3e
000002c0: c95d 49be 498e 30be 707b 2b3e 9fd5 2bbe
000002d0: b7ab 943d b2f5 a3bd 03e3 fb3c e9a7 abbd
000002e0: 5a8a 03bd cef4 383d e66a 61be 9b75 393e
000002f0: ce3d 71be 9d16 343d 0018 173e 61d1 553c
00000300: c867 963d 5659 3fbe ced5 1b3e 963f 153e
00000310: f3d8 f13d fbf7 09be 5a29 a9bd 5f31 f53d
00000320: 73df df3b 29e7 a5bb 6c03 c93d 1c72 c43d
00000330: cc0e 753d 45e3 02bd 631d 48be 6c72 03be
00000340: dc61 93ba 365d cbbc c141 c23c 490f 713c
00000350: 1eb6 7e3c eedd cd3d eac0 993d 6b2c 313e
00000360: 251d 3ebe 65a9 8b3c b516 4fbe e458 15be
00000370: a4ca e33d cc8d 49be 2165 48be d571 39be
00000380: a165 863e eb63 403e 425d 623d 3c72 253d
00000390: 1f55 1c3d a0f5 23be 9595 75bc c47e 9cbd
000003a0: 0336 babc d25f 8e3d d9a4 733c f422 573e
000003b0: 3dc7 93bd 185f 0dbe d0fa f5bd a65b d6bd
000003c0: 3795 03be c021 e63d 027f 5ebd 6341 4ebe
000003d0: 9720 763e d880 933d df4b 3d3e 064b d1bc
000003e0: 2159 1fbe 9c99 39be 96b2 5abe f2c1 bdbd
000003f0: c3df 00be f5dc efbd ded7 eb3d feeb a6bd
0.19176131 0.16635151 0.12863274 -0.10499832 -0.05507233 -0.16415988 -0.19075388 -0.08953843
-0.23109533 -0.19019368 0.08662681 -0.20041691 0.21455076 0.22479959 -0.09926997 0.12812749
-0.049141295 -0.21737202 0.08472905 -0.09127504 0.1948883 0.07592909 -0.15979025 -0.12989284
-0.014028612 -0.1891474 -0.009457649 0.1869935 -0.13425207 -0.20202664 0.17874488 -0.09872969
0.12336648 0.10119184 0.14042541 -0.14168695 -0.2076551 -0.12861218 0.052334893 0.1791383
-0.23553143 0.20957427 -0.03590828 -0.0069775027 0.18831974 -0.13212815 0.20133002 -0.011821823
-0.17781654 0.13051003 0.12892632 0.19839066 0.015367669 -0.063106366 0.08807747 0.08452194
-0.2135 0.17003022 0.20614342 0.21399191 0.045842372 -0.17144358 -0.08507855 0.136687
-0.018324455 -0.19896775 0.08529469 -0.056683637 0.014178806 -0.025038524 0.17292364 -0.1299426
0.1266233 0.1929496 0.100330435 -0.11482484 -0.12760209 -0.051343944 -0.163499 -0.21367952
0.19537294 -0.17817424 0.09468508 -0.17605786 0.14435051 0.10149299 0.08111222 -0.11673506
-0.07531849 -0.052121807 0.18867242 0.22142144 -0.063005246 -0.12334092 0.060121574 0.15641746
-0.1933214 0.19209836 0.14419721 0.1644038 0.16683024 0.053255554 -0.08322296 0.06810078
0.025137218 -0.13293721 -0.1764181 -0.24066705 -0.011964273 -0.107662186 0.015472684 0.10069236
0.22534665 -0.1375238 0.082809836 -0.13016221 -0.17548415 -0.027577626 -0.07373228 0.10415363
-0.15951948 -0.054733053 0.1443905 0.13442485 -0.055541754 0.078902476 0.16746615 -0.14028782
-0.19043343 0.019590503 0.12953646 -0.062533945 0.14979163 -0.052553345 0.14267214 -0.13008547
0.06828863 -0.03577799 -0.2225341 -0.050713822 -0.18360806 0.12657319 0.11541244 -0.14670692
0.06322199 0.08672106 -0.1285771 -0.07596458 0.09512328 -0.039296567 -0.058502533 -0.096859686
-0.0790747 -0.17356756 -0.028922305 -0.18395285 0.15671526 -0.011266193 0.080533646 -0.07171401
0.013439444 -0.030055514 -0.061151102 0.05131122 0.030952709 0.2048612 -0.16538586 -0.16833636
0.20440474 -0.06611316 0.20804648 0.10299027 0.1643324 0.051375054 -0.2136175 0.18186727
-0.19664682 -0.17241777 0.16746306 -0.16780709 0.072593145 -0.08005847 0.030747896 -0.08381636
-0.032114364 0.04515534 -0.22013435 0.18111269 -0.23558733 0.04396688 0.14755249 0.013050408
0.073440135 -0.18686423 0.15218279 0.14575037 0.11808958 -0.13473503 -0.0825984 0.119723074
0.006832057 -0.005062957 0.09815106 0.09592077 0.059828565 -0.031955022 -0.1954246 -0.12836617
-0.0011244374 -0.02482472 0.023712995 0.014713117 0.01554635 0.10052095 0.075074986 0.173021
-0.18565805 0.017048547 -0.20223506 -0.1458469 0.11122635 -0.19682997 -0.19569828 -0.1810983
0.26249412 0.18788116 0.05526472 0.040392146 0.038167115 -0.16011667 -0.014989276 -0.07641366
-0.022730833 0.0695187 0.014870846 0.21009427 -0.07215736 -0.13805807 -0.12010729 -0.10466699
-0.1284989 0.11236906 -0.054320343 -0.2014213 0.2403587 0.07202309 0.18485974 -0.02554847
-0.15561344 -0.18125004 -0.21357188 -0.09265508 -0.12585358 -0.11712066 0.11515783 -0.08150481

layers.0.bias f4 [20]
00000000: f93c c0bd f5cf ff3d d6a3 24be 4584 083c
00000010: dd1a 22bd f247 e1bd 8a84 2cbe 4657 413e
00000020: 777d 0f3e 71f9 003e 6420 383e 9da2 bc3d
00000030: 65cf 5cbe d23b aebc 2ebf f6bc 1c2f 3fbe
00000040: f5e6 663e 28c8 57be 8490 a13c adc3 69be
-0.093866296 0.124908365 -0.16078123 0.008332317 -0.0395764 -0.110000506 -0.16847435 0.18880948
0.14012705 0.12595154 0.17981106 0.092107035 -0.2156349 -0.021268759 -0.030120458 -0.18670315
0.2254904 -0.21072447 0.01972223 -0.2282855

layers.2.weight f4 [20, 20]
00000000: 1489 2dbe f505 cbbd a732 e2bd 650f fdbd
00000010: 3de7 33bd d7b6 4abe 8fb9 753d c0f5 b6bd
00000020: e9ba d9bc 6c70 42be 0205 04be 16ef 0d3d
00000030: 6f58 e4bd 5bdb 10be beee 133e d791 0cbe
00000040: ecdc 1a3e f369 393d 4bc8 abbd cd15 55be
00000050: 8eaa 9fbd 3c4e ad3d 03e1 403d aa59 383e
00000060: 5039 393e 6a3e 323e 188d b8bd 5ea0 37bd
00000070: dd5a 5abe feff 4a3e 1fce 3abe 658f 033b
00000080: 7399 123e 4b97 3e3e 9c4a 563e 253f 953d
00000090: 657d ed3c 73e8 00bd b8cf 1d3e ac57 21be
000000a0: fc0f 213e 7d38 e53d 2c30 e53d 2868 25be
000000b0: b1a8 333e f0aa 593e ecb5 53be 35c0 a7bd
000000c0: 5dd1 be3d ab46 6abb 05ed f5bd 8a15 4a3e
000000d0: 015d f5bd 8f31 2abe a00e 453d 851c 3fbe
000000e0: 7087 2a3d 25a4 d8bd 7471 4f3e 4d42 3c3d
000000f0: 9acb 2cbe 5451 d43d 83ae 3f3e 1585 4bbe
00000100: 060f b93d f910 12bd c434 363e 93d9 573d
00000110: 2d3f 20be 724d c0bd 81f9 fb3c a9e9 f9bb
00000120: 7595 2f3e 23e3 283e 49bd d53c 1ff5 4f3e
00000130: 91b3 16be bf09 2c3e 33db 123e 24bc e3bd
00000140: be50 07be 7dbc 31be 5495 193e d3e9 5a3e
00000150: 393c 4c3d e2ea ed3d a4e6 ddbc 9c40 46be
00000160: 488d 3e3d c430 3abc 27a9 b2bc bcb0 9ebd
00000170: 3e33 54be 6396 47be 0a07 be3d aed1 c43d
00000180: 6853 93bd 38ec e5bd b9d6 53be ddf4 3fbe
00000190: 0dbb f83d 8e08 b23d 255f 4ebe fb3e 253e
000001a0: 3164 303e d235 15be a5d4 c03d 9baf 89bd
000001b0: 5695 02be 4de5 20bd dca1 543e 4b05 a83d
000001c0: 1f37 1f3e ba97 673e db07 60bd b138 513d
000001d0: 9b5d 1fbc c98f 3f3e 32b3 e93d d35c 223e
000001e0: defa 21be e22c 36be d1c8 42be 599d 033e
000001f0: ee27 12be e0a9 c9bd fd45 32be 2910 18bd
00000200: 88eb d73c 9a8c 07be 9283 3f3d e4a6 033e
00000210: c663 a43d 478f 05be c7d0 0c3d 829c 3cbe
00000220: a771 c5bd 702c 323d 8dd7 58be a9b3 fbbd
00000230: d17b 2d3e 5d3e 253e 3acb dc3d 4bcf 7abd
00000240: 30b6 1a3e f49b 55bd f528 55be 3332 09be
00000250: bab5 56be 1f1d 89bd 6d11 593e 3a61 593d
00000260: 759f a8bd 0a67 cfbd 04af d3bd bec6 3abe
00000270: 47e5 c6bd d8fe a23d 5b15 e73d a7ef ddbb
00000280: 3df0 2d3e 47f2 ffbd fa95 443e aede 183e
00000290: 4995 4f3e d38b ddbd 1789 0a3e 66a6 1fbe
000002a0: 0dd1 533e 0292 533c a552 dfbd 43e0 4f3c
000002b0: 7b63 303e 4791 4abe f461 583e e1b5 193e
000002c0: ff9c e9bd 22a1 08be ce7c 533d 62dc 39be
000002d0: a892 acbc fdd2 353e 0fd2 0a3e b462 a9bd
000002e0: 5291 53bd 194d c9bb c232 5cbd 2e6d 093e
000002f0: c403 18be 1b2f 1e3e 0f00 69be d882 56bc
00000300: b351 27be cccd 003e 83ab 0bbd d01e 3f3e
00000310: fc0d 343e a541 633c cd48 64be 948d 48be
00000320: 88d0 2fbe 8bff 163d d256 333e 09f1 043d
00000330: b995 9ebd 4c98 ca3c f39c a2bd f772 eb3d
00000340: 7847 44bd c0f1 7dbd aa38 f6bd a973 683e
00000350: 4a19 593e 37a2 1fbe f251 1cbe e62f 7b3d
00000360: 83c4 a23d 212b 1ebe b952 41be 296e 103e
00000370: 14f9 2a3e 708f f13d 9b9a 713d 6084 0cbe
00000380: 97ad 993d f1f4 1d3e bdce cd3d 5d23 163e
00000390: f33f a13d d83b 16be cdcb 643e dcf3 4f3e
000003a0: 28f8 bfbd 48ed 323e db01 b63c 8028 4fbe
000003b0: f982 bb3d a4a4 52be 922b 03bc 5e43 52bc
000003c0: 1e4e 3dbe a171 d93d 11da 56be f62c 303d
000003d0: 7840 2fbd e685 e9bd 5761 073b 16a5 55be
000003e0: 56f9 573e 6db5 dbbd 0548 63be e4e2 d03d
000003f0: 29f2 4fbe c0a5 efbd f3f7 28be dac1 95bc
-0.16946822 -0.099132456 -0.110448174 -0.12356452 -0.043921698 -0.1979631 0.059991416 -0.08933592
-0.026578384 -0.18988198 -0.12892535 0.03465184 -0.1114968 -0.14146177 0.14446542 -0.13727508
0.15123338 0.045267057 -0.08387812 -0.20809098 -0.077962026 0.08462188 0.047089588 0.18002954
0.18088269 0.17406622 -0.090112865 -0.044830672 -0.21323724 0.19824216 -0.18242691 0.0020074483
0.14316349 0.18612401 0.20926899 0.072874345 0.028990457 -0.03147168 0.1541127 -0.157561
0.15728754 0.11192415 0.11190829 -0.16153014 0.1754482 0.21256614 -0.20674866 -0.081909575
0.093172766 -0.0035747688 -0.120080985 0.19734779 -0.1198063 -0.16620468 0.04810965 -0.18663223
0.04163307 -0.10578183 0.20258123 0.045961667 -0.16874543 0.103670746 0.18718915 -0.19874986
0.090360686 -0.035660718 0.17793566 0.05269773 -0.156491 -0.093897715 0.030758621 -0.0076267314
0.17146857 0.16492896 0.026091235 0.2030835 -0.14716937 0.16800593 0.1434143 -0.11119869
-0.13214394 -0.17357059 0.1499837 0.2137826 0.04986212 0.11617066 -0.027087517 -0.19360584
0.046521455 -0.011364166 -0.021809174 -0.07748553 -0.20722672 -0.19490962 0.09278686 0.09610306
-0.07193643 -0.11226696 -0.20687379 -0.18745752 0.12145052 0.08693038 -0.20153482 0.16137306
0.1722572 -0.14571312 0.09415559 -0.06722947 -0.1275228 -0.03928118 0.2076487 0.082041346
0.15548371 0.22616473 -0.05469499 0.051079456 -0.009726907 0.18707193 0.11411132 0.15855722
-0.15818354 -0.17790559 -0.19021918 0.12852992 -0.14273044 -0.09846854 -0.17409511 -0.037124787
0.026357427 -0.13237229 0.046756335 0.12856632 0.08026843 -0.13042937 0.034378793 -0.18419078
-0.09640818 0.04349941 -0.21175976 -0.12290127 0.16941763 0.16137071 0.1078095 -0.061232846
0.15108562 -0.05215068 -0.20816405 -0.13398056 -0.2096776 -0.066950075 0.21198054 0.053071238
-0.08233539 -0.10127075 -0.10336116 -0.18239877 -0.097117 0.07958764 0.1128337 -0.0067729536
0.16986175 -0.124973826 0.19197837 0.14928696 0.20271792 -0.10817685 0.13528858 -0.1559082
0.20685215 0.012913229 -0.10904435 0.0126877455 0.17225449 -0.19781981 0.21131116 0.15010788
-0.11406898 -0.13342717 0.051632695 -0.18150476 -0.021066025 0.17756267 0.13556693 -0.08270779
-0.05165226 -0.006143224 -0.053759344 0.13420555 -0.14845186 0.15447657 -0.22753929 -0.013092719
-0.1633976 0.12578505 -0.034099113 0.18664098 0.1758346 0.013870631 -0.22293396 -0.19585258
-0.17169392 0.0368648 0.17513588 0.03245643 -0.07743401 0.024730824 -0.07940092 0.11496537
-0.04791972 -0.06199813 -0.120225266 0.22700371 0.21201053 -0.15589224 -0.15265635 0.061324976
0.07947638 -0.1544614 -0.18879212 0.14104523 0.16696578 0.11794937 0.058985334 -0.13722372
0.07503813 0.15425469 0.10049198 0.14661928 0.078735255 -0.14671266 0.22343369 0.20307869
-0.09373504 0.17473328 0.022217682 -0.20230293 0.091558404 -0.20570618 -0.008005993 -0.012833444
-0.1848683 0.10617376 -0.20981623 0.043011628 -0.04278609 -0.11402492 0.0020657384 -0.20863757
0.21091208 -0.107279636 -0.22195442 0.10199526 -0.2030722 -0.11701536 -0.16500835 -0.018280912

layers.2.bias f4 [20]
00000000: ac89 4abe bf2b e9bd fcf3 143e c3d4 1f3d
00000010: 9017 703e 12bd 3bbd 2668 37be 6495 003e
00000020: 2fe8 253d bbfd 4f3e 8710 cd3d 2afb 39be
00000030: 86bc 42be a7a3 e33c 91ee 6b3e 3808 2dbe
00000040: f2ff 9ebd ccba b33c 0cec ac3d a574 4ebe
-0.1977908 -0.11385297 0.14546198 0.039021265 0.23446488 -0.04583461 -0.17910823 0.12556988
0.04050463 0.20311634 0.10012918 -0.18162218 -0.19017228 0.027787996 0.23040225 -0.16897666
-0.077636614 0.021939658 0.0844346 -0.20161684

layerout.weight f4 [2, 20]
00000000: 40e6 003d 4158 13bc 09aa eebb fe70 043e
00000010: 5423 693d 7bf6 31be d4d0 953c c7ab 243e
00000020: 5463 8e3d ae60 eebd f409 eebd effc 0d3e
00000030: 2dc9 27bd 3ff6 17be 4c09 f53d 7675 183e
00000040: b39e 133e cb57 683e c247 00bd 872a 25bc
00000050: 7b72 023e fcc0 3a3d 83a7 4ebd fdd0 7bbe
00000060: 265e 8fbd 7606 51be 7098 d0bd 40da d13d
00000070: e65b cdbd 3685 123e 3f5a e13d cfed 42be
00000080: 4217 40bd f45a aeb9 cfbf 703e 3f23 a43d
00000090: 2505 473e 2486 343e a2aa 6b3c 5ba8 323e
0.031469584 -0.008993209 -0.0072834534 0.12933728 0.056918457 -0.17379181 0.018288054 0.16081153
0.06952539 -0.11639534 -0.11622992 0.13866018 -0.04096334 -0.14840029 0.11964664 0.14888558
0.14416008 0.2268974 -0.031318434 -0.01008094 0.12738983 0.0455942 -0.05045272 -0.24591441
-0.07000379 -0.20412621 -0.10185325 0.10246706 -0.10027294 0.14308628 0.11003541 -0.1903603
-0.04689718 -0.00033255632 0.23510669 0.08014535 0.19435556 0.17629296 0.014383944 0.17447035

layerout.bias f4 [2]
00000000: ef18 2bbe a222 b03c
-0.1670873 0.02150089
