data/nnInbcs.pth (torch, 6848 bytes, 8 tensors)

layerin.weight f4 [20, 3]
000000 65 11 9e bc 21 46 63 3e 0c 06 8a be b0 21 b7 be
       -0.019295404 0.22194721 -0.26957738 -0.3576789
000010 8a de 71 be 9c 90 0b 3f 7d 49 14 bf 7f 5d 96 3e
       -0.23620048 0.5451753 -0.57924634 0.29368207
000020 e0 8c 38 3d 96 29 03 3e fd fe 87 be 45 53 99 3e
       0.045056224 0.12808833 -0.26561728 0.29946342
000030 ef be d6 be 11 de f3 3e 68 4f 8b 3d d5 d4 4f 3e
       -0.41942546 0.4763036 0.06802255 0.20296033
000040 09 69 10 3d 7c 6c da bd 3c 39 70 bd f4 98 85 3e
       0.03525642 -0.10665223 -0.058648333 0.26093256
000050 74 89 65 3e 6f 20 fa bd 55 20 06 bf 48 d4 83 3e
       0.22415715 -0.122132175 -0.52393085 0.25747895
000060 f6 11 8b be 8c 63 a0 3e fd 0a c2 be 85 69 f2 3e
       -0.2716214 0.31325948 -0.37899008 0.4734613
000070 e4 73 c7 3e da 62 15 be c8 ce 87 3e 74 ce ed 3e
       0.38955605 -0.1458849 0.2652495 0.46446574
000080 f9 06 7c 3e a3 0e a7 3e 19 51 ea be 58 b3 83 3e
       0.24612035 0.32628354 -0.45764998 0.25722766
000090 95 6f 03 3f 7c 07 5c be d3 d2 4e bb d8 66 36 3e
       0.51342136 -0.2148723 -0.0031558766 0.1781267
0000a0 05 6f 02 bf 1b f8 a8 be bd 4d a5 3e 7a 73 e3 be
       -0.5095065 -0.3300179 0.32285872 -0.4442404
0000b0 0c 86 8a 3d c3 3c 01 3f ba bd ee be ea 67 bf 3e
       0.06763849 0.5048334 -0.46629125 0.37383968
0000c0 13 00 d5 bd 43 fc a5 bd e9 a9 2b be 71 f8 16 3e
       -0.10400405 -0.08104756 -0.16764034 0.1474321
0000d0 05 b6 81 3e 3a 35 05 bf e6 55 e6 bb 7a c2 8c be
       0.25334182 -0.5203434 -0.007029283 -0.27492124
0000e0 d4 0a ac 3d 0d ad b9 bd 92 ce 08 be 69 3f 81 3e
       0.08400503 -0.0906621 -0.1336005 0.2524369

layerin.bias f4 [20]
000000 ab 54 52 be cd 46 b0 3e 2b 04 95 be 2c 62 cb be
       -0.20540111 0.34429017 -0.29104742 -0.39723337
000010 87 41 37 3e ee 41 07 bf 3b 15 40 3e e4 34 01 3f
       0.1789609 -0.52834976 0.18758099 0.5047133
000020 96 1c 5d 3e 3d 4d 00 bf b4 fe 88 be 04 38 da be
       0.21592936 -0.50117856 -0.26756823 -0.42620862
000030 50 28 02 3f 50 6b c4 3e 7b 44 08 3f a1 8c 29 3e
       0.5084276 0.38363123 0.5322949 0.16557552
000040 3e ba be be b4 f6 cd 3d cf a3 82 bc e5 c2 e2 be
       -0.37251467 0.100568205 -0.01594725 -0.44289318

layers.0.weight f4 [20, 20]
000000 b9 e4 50 3d 2e 63 12 3e 6d 47 0c 3e 41 d4 22 3e
       0.050999377 0.14295647 0.13699122 0.15901281
000010 12 01 11 be 94 29 16 3d 79 e8 97 3d 6e dc 47 be
       -0.14160565 0.036660746 0.074173875 -0.19517681
000020 76 78 14 3e 04 0a 48 3d 62 fe 3d 3e b0 d3 41 be
       0.14499077 0.048837677 0.1855407 -0.18928409
000030 2c b1 35 be 5a 79 82 bd b9 8d 3f 3d 0c d7 11 be
       -0.17743367 -0.06370802 0.046766017 -0.1424219
000040 74 c1 d0 3d 06 66 14 be 0f b1 02 3e f2 40 82 bd
       0.10193148 -0.14492044 0.12762855 -0.063600436
000050 24 a5 e0 3d 11 9e 00 bd f9 e0 fc 3d 2a 9c a1 3c
       0.10968998 -0.031400744 0.12347598 0.019727785
000060 b1 ea 5c bd 9f 0d 3a bd f1 23 c5 bd e6 1f c9 bd
       -0.053934757 -0.045423146 -0.09625996 -0.09820537
000070 2e 05 40 bb d6 51 74 be a5 d9 1a be 73 23 85 bd
       -0.0029299962 -0.23859343 -0.15122087 -0.06500902
000080 42 bb 7a 3b ac 32 70 be fc 8c cf 3c 57 b3 0c 3e
       0.0038258587 -0.2345683 0.025335781 0.13740288
000090 43 b7 2c 3d 94 67 34 3e 27 51 53 3e da 36 3a bc
       0.04216696 0.17617637 0.20636426 -0.011365617
0000a0 b1 ce 55 be 64 8f df bc ee c0 b4 bd ae ae 26 3e
       -0.20879628 -0.027290054 -0.08825861 0.16277573
0000b0 7e cc 2a 3e 03 77 41 bc cb c8 08 3e 65 32 ef 3d
       0.1667957 -0.01180816 0.13357846 0.11679534
0000c0 0e 14 7b bd ff 80 60 3e 5b 7d f5 bc 09 2a 22 3e
       -0.061298423 0.21924208 -0.029967 0.15836348
0000d0 17 7e 8d bd cb 4d 06 be e5 2d 3b be 22 f1 e9 bd
       -0.06908815 -0.13115613 -0.18279226 -0.114229456
0000e0 55 76 17 be 4a 1c b4 3d da 3c 8c 3d 38 ee 22 3e
       -0.14791234 0.08794458 0.06847544 0.15911186
0000f0 19 42 07 be 0a ba 9d 3b 10 8c 08 be 0b 00 42 3e
       -0.13208808 0.0048134374 -0.1333468 0.18945329
000100 ff 76 76 3e 72 51 03 be b3 4d 3d bd df 6c 07 3e
       0.24068831 -0.12824038 -0.046216678 0.13225125
000110 0b 12 49 3e 99 61 ac 3d 7c dc 20 3e c9 42 60 3d
       0.19635789 0.08417053 0.15709108 0.05475119
000120 81 4e 7d bd ea 7c 34 3d 5a a3 40 3d 9e d9 16 3d
       -0.061842445 0.04406444 0.047030784 0.03682863
000130 c1 3a bf bd ba aa aa bd 56 d6 be bc 79 6e f7 3d
       -0.09337378 -0.08333345 -0.023295563 0.12081618
000140 1f ac 7b bd de d3 03 3c 7d 5f 43 3e 7a fd 44 3e
       -0.061443444 0.008046119 0.19079395 0.19237319
000150 9a 03 6d 3d 45 88 01 bc 80 09 54 3e 68 fb 23 be
       0.057864763 -0.007906024 0.20706749 -0.16013873
000160 2c 48 15 bd a3 2f 90 3d d7 be 4e bc 6e f5 a4 bd
       -0.03644578 0.07040336 -0.012618742 -0.080546245
000170 f3 01 14 be 7b bb fa 3d 07 31 b8 bd ab a3 d6 3d
       -0.14453869 0.1224279 -0.08993726 0.10480436
000180 47 43 50 3e 30 a1 42 39 52 94 8a bb f8 ed 16 3e
       0.20338164 0.00018561329 -0.004229107 0.14739215
000190 d4 49 84 bd 5e 36 33 be e2 19 ab 3d 9d 38 46 3e
       -0.06459394 -0.17501208 0.08354546 0.19357534
0001a0 f5 d0 db bd 2a f2 17 be d8 8a 06 3e 0e 3a 08 bb
       -0.10733215 -0.14838472 0.13138902 -0.0020786556
0001b0 7c 92 6b be 98 5c 31 3e 0c 45 49 3e 27 41 ab 3c
       -0.23005098 0.17320478 0.19655246 0.02090509
0001c0 f7 bb 4c 3d 4a 03 69 3e 4f 75 3c be 6e 4e 45 be
       0.049983945 0.22755161 -0.18404125 -0.192682
0001d0 b7 a3 61 be ad c4 9f 3d 05 41 e3 bd 6a 57 a1 3d
       -0.22035109 0.07801185 -0.11096386 0.07878001
0001e0 a6 ff a4 3d df b0 1c be ff cc c0 3d 61 bc ab bd
       0.080565736 -0.15301846 0.094141 -0.0838554
0001f0 71 ce 38 be 7a 29 b6 bc 99 ea 1d be b4 96 fb ba
       -0.18047501 -0.022236574 -0.15421523 -0.0019194693
000200 e8 f0 3c bd 89 28 68 be 2b 6f 14 3e 85 a6 84 bc
       -0.046128184 -0.22671713 0.14495532 -0.016192684
000210 a0 74 9b 3d 3b bd 0d 3e 5a 25 1f 3e 8c 50 08 bc
       0.07590604 0.13841717 0.15541592 -0.008319985
000220 15 79 34 3e bd 4a 24 be 78 3f 31 3e d8 35 ae bd
       0.17624314 -0.16044135 0.17309368 -0.08506364
000230 c9 01 ae bd 5b cc 0a 3d 90 eb e6 bd 41 2a 02 bd
       -0.08496434 0.033886295 -0.11275399 -0.031778578
000240 d7 b3 25 3e 9a 8b 48 bd 32 cd 63 3e d0 3d 63 3e
       0.16181885 -0.04896126 0.22246245 0.22191548
000250 3d 3e 91 3c 20 7d 18 3e a0 b6 17 be 07 23 89 bc
       0.017729873 0.14891481 -0.1481576 -0.016740335
000260 fa b0 02 3c cf f9 16 3e 5a f4 0c 3c 9d 72 61 3c
       0.007976765 0.14743732 0.00860318 0.013760236
000270 b7 9c ca bd 0b c1 00 3e 83 99 b4 3d 1e 1f 58 be
       -0.09893172 0.1257364 0.088183425 -0.2110562
000280 d2 2e 2d be 44 74 3a 3e 99 01 db bd a2 6d fe 3c
       -0.16912392 0.18208414 -0.10693664 0.031058136
000290 e7 7a 70 3c 02 b6 7c 3d 42 98 b0 bd e3 63 7c 3e
       0.01467774 0.061697014 -0.08622791 0.24647479
0002a0 b6 da a7 3d 2d d8 bf bd 8a 3b 5d bd f4 e2 8e 3d
       0.08196013 -0.09367404 -0.05401186 0.069768816
0002b0 e8 94 db bd ec 59 b3 bd 09 b9 42 3d fe f3 26 be
       -0.10721761 -0.087573856 0.047539745 -0.16304013
0002c0 93 b2 ab 3c 7f 82 de 3d 18 d2 3b be 1d f3 08 be
       0.020959174 0.10864734 -0.18341863 -0.1337399
0002d0 53 0f b7 bc fa 8e 47 be 06 19 55 3e c2 b4 c1 bd
       -0.022346174 -0.19488135 0.20810327 -0.09458305
0002e0 35 20 40 be 45 cc 4c bd 8b b7 a9 bd 27 81 b3 3c
       -0.18762286 -0.049999494 -0.08286961 0.02191217
0002f0 76 5b f5 bc a4 8b c6 bd 08 ec 10 3e 49 fa 1d 3d
       -0.029950839 -0.09694603 0.14152539 0.03856877
000300 3a f8 1f be db 27 89 3d bd dd 31 3e 17 05 c7 3c
       -0.15622035 0.06697055 0.17369743 0.02429442
000310 8d f1 25 3e 19 1e 21 be 15 93 19 be b9 43 bc 3d
       0.16205426 -0.15734138 -0.14997514 0.091926046
000320 d7 81 69 bd 28 6a 09 bd 86 b0 ad bd d6 49 fd 3d
       -0.05700859 -0.033548504 -0.08480935 0.12367599
000330 71 9c fc 3a 79 a8 bc 3d ed 9d 14 3e 5d 28 9a bc
       0.0019272697 0.09211821 0.14513369 -0.018818075
000340 ba 0f 40 3e 35 68 49 be cd a1 cf bd 1c 62 32 3e
       0.18755999 -0.19668658 -0.10138283 0.17420238
000350 3d 54 17 be c6 52 ab 3c 3e 0e 0d bd 8a 37 0f bd
       -0.14778228 0.020913493 -0.03443741 -0.034965076
000360 d3 84 a0 3d 1d 03 1b be 85 5d 38 3e de 33 0f be
       0.07837834 -0.15137906 0.18004425 -0.1398463
000370 4f 7e 4f bd c4 b5 b7 3c 76 01 3a be 92 3e ba 3c
       -0.050657567 0.02242554 -0.1816462 0.022734914
000380 08 78 0b 3e df 9c 2a 3d c7 18 44 bc 2c aa 32 bd
       0.13620007 0.04165351 -0.011968798 -0.04361932
000390 f3 4e 0a be ad 20 dc 3b c2 e5 9e bd c7 7a 4a 3e
       -0.13506679 0.0067177624 -0.077586666 0.19773398
0003a0 90 af 00 3e 63 aa df 3d 07 d6 c5 bd 37 0c 0c be
       0.12566972 0.109211706 -0.09659963 -0.13676535
0003b0 14 36 09 3e df 89 e5 3c ef 7c 46 3c 03 b3 09 3e
       0.13399535 0.028019844 0.012114747 0.13447194
0003c0 be 97 b1 3d ca c0 f9 bd 98 a3 de bd 8f 41 57 be
       0.08671521 -0.12194975 -0.10871047 -0.21021102
0003d0 5b 8d e8 3d 8f a1 5b bd 07 e2 5d bd fe 7b 76 3e
       0.113550864 -0.05362087 -0.054170635 0.24070737
0003e0 ef e4 a1 3d 3d 33 6e bc 56 a5 f7 bd 2e d7 ab bd
       0.07904994 -0.014538583 -0.12092082 -0.08390652
0003f0 fe 77 f5 3c 79 9c 2c be 6e 3c 93 3d 15 15 2a be
       0.029964443 -0.16856565 0.071892604 -0.16609605

layers.0.bias f4 [20]
000000 07 f6 38 3e 6e ec d8 bd 61 04 50 be 76 a0 1c bd
       0.18062602 -0.105919704 -0.2031417 -0.038238965
000010 d4 b8 eb 3d ca 04 14 3e 13 3b 1b 3d 13 ad ae 3c
       0.115098625 0.14454952 0.037898134 0.021322763
000020 1d 43 02 3e b4 8b 48 3e 1d 5f 37 3d da d6 61 3d
       0.12720914 0.19584543 0.04476844 0.05513654
000030 08 9e 0c be 93 7d 73 3d b5 b5 09 be 99 1f 83 3d
       -0.13732159 0.05944593 -0.13448222 0.06402511
000040 28 f9 3d 3d dd 47 36 3e cd 04 28 be 1a 69 6a 3d
       0.046380192 0.17800851 -0.16408081 0.05722914

layers.2.weight f4 [20, 20]
000000 84 63 31 3e 90 e1 87 bc 0e fc 30 be 76 b2 ec 3d
       0.17323118 -0.016587049 -0.17283651 0.11557476
000010 26 97 fd 3d 9f c4 50 be fa ca 9d bd 7c b7 72 be
       0.12382345 -0.20387505 -0.0770473 -0.23702806
000020 b5 58 b5 bd 76 05 30 bc 99 8a 7e bd 4d 5a 00 be
       -0.0885481 -0.0107434895 -0.062143896 -0.12534447
000030 6c c4 cd bd fc f7 16 3e 13 fe 1c 3e bc ca 8c 3c
       -0.1004723 0.14743036 0.15331297 0.017186515
000040 5e e6 45 be 62 52 73 3d ab 22 15 3b c9 b1 02 3e
       -0.1932616 0.05940474 0.002275626 0.12763132
000050 81 ca 41 be b4 ef 5a 3d 59 fe 3c 3e 91 87 0d be
       -0.18924905 0.053451255 0.18456401 -0.13821246
000060 08 c9 49 3e 8d ef 26 3d 64 4b 0f bd d0 c8 17 3e
       0.19705594 0.040755797 -0.034984007 0.14822698
000070 bf e2 14 3e ad 19 23 be bf b9 a2 3d ea ea 3f be
       0.14539622 -0.15927763 0.079455845 -0.18741956
000080 28 17 4b 3e 53 12 6e bc 9a 29 1e 3e 95 a9 82 3d
       0.19833052 -0.014530736 0.15445557 0.063800015
000090 9d 74 fb bd f0 c5 56 be 39 09 bd 3d 6f a2 6a 3d
       -0.122781016 -0.20973945 0.09230275 0.057283815
0000a0 0e 9b 31 3d b0 85 91 bc f8 ff 1d be 05 d0 a9 bd
       0.043360762 -0.017763942 -0.15429676 -0.0829163
0000b0 8d 14 bc bc f6 87 63 3d bb b9 10 3e 41 17 2b be
       -0.022959018 0.055549584 0.1413335 -0.1670809
0000c0 6d 62 29 3e a7 57 9c bd ef ac a6 3b a8 c0 26 3d
       0.16541453 -0.07633906 0.0050865333 0.040711075
0000d0 20 40 37 3e 48 b3 df 3d 41 64 6e 3e bc 97 ec bb
       0.17895555 0.10922867 0.23280431 -0.0072202366
0000e0 a8 80 54 bd 2a a2 95 bd 7d d5 30 3e 60 df 3e 3e
       -0.05188051 -0.07306321 0.1726894 0.18639898
0000f0 d4 77 2e be c2 8e 78 3e a2 2a fb bd bc d5 21 be
       -0.17037898 0.24273208 -0.12263991 -0.1580419
000100 9d 0b a1 3d a0 db c2 3d 97 7d 0e 3e d1 37 e9 bc
       0.07863543 0.095145464 0.13915096 -0.028468998
000110 e0 f8 0c 3e 37 61 e4 3d 14 7f 45 be b3 68 df bd
       0.13766813 0.11151355 -0.19286758 -0.10908642
000120 61 13 c7 bd e9 e1 05 be 8e 49 36 3e 60 ee 55 3d
       -0.09720493 -0.13074459 0.17801496 0.052229285
000130 f2 22 b9 3d 5c f3 9d 3d ff 6d ba 3c 95 3c 50 3d
       0.090398684 0.07712433 0.022757528 0.050839026
000140 44 83 5b 3e a1 c4 3f 3d b5 cc 4c 3e c2 0d b0 3d
       0.21436793 0.04681838 0.19999965 0.08596374
000150 a7 31 ff bb 20 d7 da 3d 05 3b 2d bd ef 3a f4 bc
       -0.0077879014 0.10685563 -0.042292614 -0.029813258
000160 a6 d3 dc bd 43 55 95 3d 94 a1 6d bd a0 fc 43 3d
       -0.10782556 0.07291653 -0.05801542 0.047848344
000170 d0 17 b9 bc 74 7e 2c be 5d 52 44 3e 38 60 08 bd
       -0.022594362 -0.16845113 0.19172044 -0.033294886
000180 09 dd 51 be 61 37 1e 3d cf b4 a1 3d f9 e7 7a 3c
       -0.20494474 0.038627032 0.078958146 0.015314096
000190 3b af c1 bd 03 a3 77 bd 3d 6c 58 3e 85 ac 22 be
       -0.09457251 -0.060458194 0.2113504 -0.15886123
0001a0 a8 05 5b 3e 8f 92 56 3e 63 ad 05 be b3 35 83 be
       0.21388876 0.20954345 -0.13054423 -0.25626907
0001b0 4a f0 30 3c b3 dc a6 bd 34 a7 b0 3c 7f e4 1d 3e
       0.010799477 -0.08147564 0.021564104 0.15419196
0001c0 22 62 98 3d 51 b9 02 bd 75 62 cf 3d e1 fb b5 bd
       0.07440592 -0.031915013 0.10126201 -0.08885933
0001d0 79 14 87 bd 1f 4d 68 3e 76 5e 34 be 57 da c0 bc
       -0.06595702 0.2268567 -0.17614159 -0.023541613
0001e0 d3 27 e1 3c e2 a2 23 3e 41 fe 65 3e 60 36 45 be
       0.02748481 0.15980104 0.22460271 -0.19259024
0001f0 16 dc fa bd c6 0f f7 bd f9 22 7a be b8 e1 92 3d
       -0.12249009 -0.120635554 -0.24427404 0.07171959
000200 9a e9 3c be b4 92 2f 3c b4 57 03 3e 2a c3 44 be
       -0.18448487 0.010716129 0.12826425 -0.19215074
000210 0f bf 41 3e c0 16 bb bd 9c 50 68 3e 76 3b d1 3d
       0.1892054 -0.091351986 0.22687 0.102164194
000220 7a f9 0c be f1 a2 4a be 76 49 ad 3d e9 b0 8d 3d
       -0.13767043 -0.1978872 0.08461277 0.069185086
000230 02 86 91 bd ad 10 21 3e b4 85 85 bd bc 35 7b bc
       -0.07105638 0.15729018 -0.065196425 -0.0153326355
000240 99 7d 4f 3d b3 6c 28 3d 00 ef 44 3d 92 fa ab bd
       0.05065689 0.04111929 0.04807949 -0.08397402
000250 44 1b cf bd 48 82 c1 bd 5e e6 4c bd 94 fc 54 be
       -0.101126224 -0.09448677 -0.050024383 -0.20799476
000260 2b a2 51 be 05 f9 4b bb 83 34 15 3e 3f 13 44 3d
       -0.20472018 -0.003112377 0.14570813 0.047869917
000270 8f c2 03 3e 9e 98 95 bc 48 cf e3 3d db 25 c5 bc
       0.12867187 -0.01826125 0.1112352 -0.024065902
000280 8d 1c 0b 3e f4 d2 2d 3e 32 ff ec 3d d7 93 9a 3d
       0.1358511 0.16975003 0.11572112 0.075477295
000290 c5 5f 51 be 62 b6 f8 3d 61 dc 1c be 12 4d 48 3e
       -0.2044669 0.12144162 -0.15318443 0.1956065
0002a0 52 7d e2 bd de e0 08 bd 6d 7f 4d bd c5 60 c1 bd
       -0.11059059 -0.033417575 -0.05017035 -0.094422854
0002b0 44 6a c8 bd 97 bd 0c 3e cb de 47 bd 7f ce 04 be
       -0.097858936 0.13744198 -0.048796456 -0.12969397
0002c0 6d ba 48 be ea fc 43 be e4 c7 f2 3c a9 9f 18 be
       -0.19602366 -0.19139448 0.02963633 -0.14904656
0002d0 e0 59 0c be 05 84 84 bd 52 85 3f be b8 26 06 be
       -0.1370616 -0.06470493 -0.18703201 -0.13100708
0002e0 b4 bf a5 3d dd aa 12 be 23 52 e7 3d 5a 10 02 be
       0.08093205 -0.14322992 0.11294963 -0.1270155
0002f0 3a 51 c8 bc 3c b9 7d 3c 6e 33 24 bd bb a4 30 3e
       -0.024452794 0.015486058 -0.04008811 0.1725034
000300 5f 0c b9 bd da 2c 45 be ca a7 37 3e 6d b7 fb 3d
       -0.09035563 -0.19255391 0.179351 0.12290845
000310 4e a2 5a be ad e5 8a bd 9a 11 1c bd de b4 52 3d
       -0.21350977 -0.067820884 -0.038102724 0.05144202
000320 6e 5a 01 3e b8 2b d7 3d ff f6 26 3d 5f d9 27 be
       0.12632152 0.105063856 0.040762898 -0.16391514
000330 24 d5 34 be 58 9f bc 3d 12 2c cc 3c 76 a1 4e be
       -0.17659432 0.0921008 0.024923358 -0.2017878
000340 a6 b0 7b 3d 36 c9 6d 3d 38 d3 9e bd f4 2f 0b 3e
       0.061447762 0.058053218 -0.077551305 0.13592511
000350 38 ef 2e 3e 0b 57 17 3e db 89 2c be 86 7e 34 3e
       0.17083442 0.14779298 -0.16849463 0.1762639
000360 22 8c 23 3c 1a d8 69 bc 65 90 11 be c6 28 8b bd
       0.009982141 -0.014272714 -0.14215238 -0.06794886
000370 07 3d 50 3d d5 be fe bd ee 01 14 3e 7d c8 9f 3c
       0.05083945 -0.12438742 0.14453861 0.01950478
000380 22 f8 20 be 8a ba 2d 3e c0 50 28 3d 42 5b 13 3d
       -0.15719655 0.1696569 0.041092634 0.035975702
000390 63 65 28 be a9 e1 84 3d ba 3d 32 3c 55 c3 43 3e
       -0.16444926 0.06488354 0.010878975 0.19117482
0003a0 f1 68 a0 bd c0 df 33 3e 14 f3 0b be af 97 c5 bd
       -0.07832516 0.17565823 -0.13666946 -0.09648072
0003b0 c0 62 22 3e 98 d7 47 be 9c 0e 25 be 07 22 bc 3d
       0.15857983 -0.19515836 -0.16118854 0.09186178
0003c0 b1 8e b2 3c 36 1b 46 3e 0a 27 2b be 0c a7 07 be
       0.021796556 0.19346318 -0.16714111 -0.13247317
0003d0 69 b6 9d bc 88 dc 34 3e 35 ad 13 3e 23 1f 6a be
       -0.019252019 0.17662251 0.14421542 -0.2286344
0003e0 17 bb 26 3d 70 7e db bd 28 b1 44 3e 06 51 49 3e
       0.040705767 -0.107174754 0.19208205 0.19659814
0003f0 6c 6a 35 3d b9 59 0c bd ec 3f 74 3e 2b 16 46 be
       0.044290945 -0.034265254 0.2385251 -0.19344394

layers.2.bias f4 [20]
000000 88 21 c2 bd d8 7e 14 3e 71 02 3a be dc ec 5a 3d
       -0.09479052 0.14501512 -0.18164994 0.053448543
000010 6e 5c ad 3d d7 4b 2b 3e 76 44 26 be b5 05 37 3e
       0.08464895 0.1672815 -0.16237053 0.17873271
000020 02 cd ba bc 4f 36 25 3e 25 e6 4d 3d cf d1 61 be
       -0.022802833 0.16133998 0.05026831 -0.22052692
000030 a7 67 2e 3e 78 a6 46 be f2 0d 3e be 00 76 64 be
       0.17031728 -0.1939944 -0.18560007 -0.22310638
000040 cc b8 a3 bd f0 a1 d4 bd af a2 ca 3d 37 56 0f 3e
       -0.079942316 -0.103824496 0.09894311 0.13997732

layerout.weight f4 [2, 20]
000000 14 cd dc bd 11 53 df 3d 3c d5 30 be cd 2c 4f be
       -0.10781303 0.109045155 -0.17268842 -0.20231934
000010 30 c4 85 bd e7 cd 45 3d ef 3a 4c bd 2c 4d 02 be
       -0.065315604 0.048292067 -0.04986089 -0.12724751
000020 30 dd 40 be ad 3c f7 bd 53 5a 38 be 0f b3 4c be
       -0.18834376 -0.1207212 -0.18003206 -0.1999018
000030 19 8e ba 3a b9 3a bb bd 84 d3 bc 3d c3 2a 63 be
       0.0014233022 -0.0914206 0.09220031 -0.22184281
000040 8b 84 4c 3e cd d5 47 3d d1 b9 9c 3c 71 37 d2 bd
       0.19972436 0.04878788 0.019131573 -0.10264481
000050 4c 08 ba bd 5b 0b d3 3d 79 09 75 bd 63 84 ab bd
       -0.09083614 0.103049 -0.059823487 -0.0837486
000060 09 e0 64 bb 30 9b 0e be 1a 10 76 be bf 44 cf 3d
       -0.0034923574 -0.13926387 -0.2402958 0.10120534
000070 d2 56 9b 3d ca 53 96 bd 86 63 24 3e 07 19 43 be
       0.07584919 -0.073402 0.1605359 -0.19052516
000080 e3 14 4a 3c 3d d7 11 be e8 26 57 3d 12 c3 cc 3d
       0.012334081 -0.14242263 0.05252734 0.09998144
000090 ef fa 5e be aa 61 6d bd 67 cd 82 3d 48 6f 6a 3c
       -0.21775411 -0.057954468 0.06386834 0.014308758

layerout.bias f4 [2]
000000 63 bc 98 bd 57 36 36 bd
       -0.07457807 -0.044485416
