data/nnInbcs.pth (torch, 2512 bytes, 4 tensors)

layerin.weight f4 [20, 3]
000000 34 c6 dd be 1a a7 3b bd 82 26 d3 be f5 d1 e8 bd
       -0.4331528 -0.045813657 -0.41240317 -0.11368171
000010 5c 10 f5 bd 98 af a5 3e 68 cb 96 3e 85 4b 9d 3e
       -0.11966011 0.3236053 0.29452062 0.3072168
000020 26 f0 17 3f 68 fc 7e 3e da 0a 80 3e fd 8d b8 be
       0.5935081 0.24900973 0.2500828 -0.36045828
000030 ad 7d df 3e be e2 1a 3f c9 5c cd 3d cd b9 08 bf
       0.4365057 0.6050223 0.10027463 -0.5340851
000040 55 17 a5 bd 61 98 d9 3e 82 07 4e be 31 94 a9 3d
       -0.08061091 0.42499068 -0.20120052 0.082802184
000050 df ea dd be bc 50 4e 3e f5 34 dc be 2e 6c d5 3e
       -0.43343255 0.20147985 -0.43009153 0.41684097
000060 02 1b c7 be e2 56 60 3d 53 8c 66 be e4 67 56 3d
       -0.38887793 0.054770358 -0.22514467 0.05234517
000070 4c c1 e4 bc 3a 45 87 bd 82 2d 84 be 55 80 c6 bd
       -0.027924202 -0.06605001 -0.2581597 -0.09692446
000080 8c fa f1 be 5a d6 f5 be dd 04 ff bd f9 c9 d5 be
       -0.47261465 -0.480151 -0.124520995 -0.41755655
000090 11 6f 62 3e d3 e7 a9 3e 86 73 0c bf 05 3e 4a be
       0.22112681 0.3318468 -0.54863775 -0.19750221
0000a0 0d 05 92 be ba 47 b4 3e 95 e0 f1 bc ab de 08 3f
       -0.28519478 0.35210973 -0.029526034 0.53464764
0000b0 bf 90 15 3e 15 fe 09 bf 51 0a cd be a1 f8 ed be
       0.14605998 -0.53903323 -0.40046933 -0.4647875
0000c0 22 06 c0 3e 0e fa c1 be 24 85 26 be cf b1 19 3e
       0.3750468 -0.3788609 -0.16261727 0.15009235
0000d0 07 01 bb bd 58 0f aa ba eb ff fe be 3c e6 16 be
       -0.09131055 -0.0012974543 -0.49804625 -0.14736265
0000e0 1d 73 7f 3d a8 88 09 3f fc f7 67 3e fa fc 84 3e
       0.06236564 0.53724146 0.22653192 0.25974256

layerin.bias f4 [20]
000000 ec 1d c4 3d ad d0 f4 be 79 55 a0 be 7e 78 df 3b
       0.0957602 -0.47815457 -0.3131521 0.0068197837
000010 c2 26 a8 3d 25 93 98 bc 3e da af 3e b5 87 94 3e
       0.082105175 -0.018624851 0.34346193 0.29009786
000020 da d2 a8 be 09 aa a5 3e e8 58 ed be b1 97 fe 3e
       -0.32973367 0.3235629 -0.46356893 0.49725106
000030 ca 4b 9c be e9 b7 5f 3e 81 85 91 be d3 bc 08 bf
       -0.30526572 0.218475 -0.28422168 -0.5341312
000040 85 fe 36 3e 1c 90 77 be d9 86 07 bf f9 61 cf be
       0.17870529 -0.24176067 -0.52940136 -0.40504435

layerout.weight f4 [2, 20]
000000 dd 8e c7 3d cb d8 d5 3d 22 9e 34 be 3e 12 36 be
       0.09744046 0.104417406 -0.17638448 -0.17780396
000010 62 cd 16 3e 9e 21 2b 3e 91 f9 49 bd cc 5b c5 3d
       0.14726785 0.16712043 -0.04931027 0.096366495
000020 89 47 bc bb bd b5 4c 3e a7 2a a1 3d 7b ab cc bd
       -0.0057458323 0.19991203 0.078694634 -0.09993645
000030 a0 2c e7 3d aa a6 2c 3c 07 51 42 3e 5b 2b ec 3c
       0.112878084 0.010537783 0.18976222 0.028829267
000040 37 6e 23 3e 54 06 80 bd 6b 7a 25 be 45 de 4e bd
       0.15960012 -0.06251207 -0.1615998 -0.05050494
000050 e2 fe 86 3d d5 c4 8b bd 19 40 f0 bb b9 5c 57 3e
       0.06591584 -0.06824652 -0.00733186 0.21031465
000060 dd 3e 0e 3e dc 2f 43 3e c7 72 47 3e e4 43 be bc
       0.13891168 0.19061226 0.19477378 -0.023225732
000070 22 0c 20 3e 73 78 60 3e ee 0e 1a be 41 5a 23 be
       0.15629628 0.21920948 -0.15044758 -0.15952398
000080 6a 08 bc bd ce 5d 49 3e a5 d3 fe bd 0e d9 a8 3d
       -0.09181292 0.1966469 -0.12442712 0.08244525
000090 bb b6 6b 3d a0 d0 2e be 6f fd 45 be a2 7d ad bb
       0.057547312 -0.17071772 -0.19334958 -0.0052945176

layerout.bias f4 [2]
000000 25 de 7c bd cb f3 23 bd
       -0.06173529 -0.04002742
