data/nnInbcs.pth (torch, 2512 bytes, 4 tensors)

layerin.weight f4 [20, 3]
000000 ed 15 d9 3e e3 ae 52 3e ba b2 06 3d b5 47 ab 3e
       0.4239954 0.20574526 0.03288529 0.33453146
000010 fc cc 8b be 80 82 b8 3e c4 8c fd be 7c 0b ef 3e
       -0.27304828 0.36037064 -0.49521458 0.4668845
000020 fb 8a b2 3e 37 d5 76 3d 47 e9 07 3f c9 02 91 3d
       0.3487166 0.06026193 0.5309033 0.07080609
000030 7e e1 e6 be 56 5d 17 3f f8 b4 cc bc b8 62 14 bf
       -0.45093912 0.59126794 -0.024988636 -0.5796313
000040 f7 c1 af 3e 76 4f ea 3e 30 3e 92 3e 50 e8 1e 3f
       0.3432767 0.4576375 0.2856307 0.6207323
000050 84 07 98 3d 1f 65 9e 3d 7d 02 eb be 0d 3b 46 be
       0.074233085 0.07734131 -0.45900336 -0.19358464
000060 0b 65 f5 bd bc 6a e4 be ac 4c 8a be 1b 9d 00 3f
       -0.11982163 -0.44612682 -0.2701162 0.50239724
000070 4b 86 97 3d f2 5c b5 3e 82 ee aa 3e 83 9e ba 3e
       0.07398661 0.35422474 0.33385092 0.3644906
000080 b4 51 ca 3e eb 7b 6c be 59 12 17 be d3 cf 53 be
       0.3951546 -0.23094146 -0.14753093 -0.20684747
000090 90 22 01 bf bb 71 8b be cd 3a 5f 3e 18 36 7d 3e
       -0.50443363 -0.27235207 0.21799774 0.24727666
0000a0 4e c6 a3 bd f8 0f d9 3e c5 70 41 be 3c 4f d8 be
       -0.07996808 0.42394996 -0.18890674 -0.4224795
0000b0 05 b0 48 bc 7e bb 0d 3d 6f e0 f9 bd 3e 59 eb be
       -0.012248998 0.034602635 -0.122010104 -0.45966524
0000c0 3b 2e 96 3e c1 3e f8 3e f6 da ae bd 2d cd ac bd
       0.29332146 0.48485377 -0.08537857 -0.08437572
0000d0 75 1e ea 3e 1a 19 d1 be e4 67 1b 3f cd 24 13 3e
       0.45726362 -0.40839463 0.607054 0.14369507
0000e0 7e 9f 92 be 11 25 19 be 0d 1d 28 bf 8d 79 d2 be
       -0.28637308 -0.14955546 -0.6566933 -0.4110836

layerin.bias f4 [20]
000000 22 5b ac 3e 51 98 b3 be 54 c0 0c 3f eb f6 03 3e
       0.3366328 -0.35077146 0.5498097 0.1288716
000010 9d 3e f9 be a3 74 04 be 11 9d 36 be ff f8 79 3e
       -0.48680583 -0.12935118 -0.17833354 0.2441139
000020 b8 dd cd 3e 7b 7f 00 3f 86 46 8f be b2 5f 8a 3d
       0.4020822 0.5019452 -0.27983493 0.06756534
000030 b8 01 89 be e4 b8 18 3f 55 10 17 bf f5 26 b1 be
       -0.26759124 0.5965712 -0.59009296 -0.34600034
000040 81 3c a9 bb 84 47 26 3f aa 5d 93 be 9d 4e 10 bf
       -0.0051646833 0.64952874 -0.28782398 -0.56369954

layerout.weight f4 [2, 20]
000000 9c b0 1b 3e 03 5a 91 3a 1c 6d 2f be 3e 60 92 be
       0.1520409 0.0011089448 -0.17131466 -0.28589052
000010 8a b7 0c be 15 2f 77 3e 57 71 02 be 65 d0 0a 3c
       -0.1374189 0.24139054 -0.12738548 0.008472537
000020 c5 2a c9 3d 7e a0 13 3e 29 0d 0b be 5c eb 1d 3e
       0.09822611 0.14416692 -0.13579239 0.15421814
000030 aa 92 1a be 13 8e c0 bd 81 64 17 3e b2 2d 0c be
       -0.1509501 -0.094020985 0.14784433 -0.13689306
000040 6c 9b 7e bd 51 ef e5 bd 15 05 32 bc e5 54 c3 3c
       -0.06215994 -0.112272866 -0.010865469 0.023844192
000050 2f 9d 65 3d 3e 2d 08 3d f9 1d 20 be 93 25 81 3c
       0.056058105 0.03324627 -0.15636434 0.015764987
000060 1c aa 3b bc 1a c5 f4 bc 70 6a fd bc 63 7a 8c 3d
       -0.011454131 -0.029879142 -0.030934542 0.06859281
000070 00 4a 77 bc bb 51 da bd 61 e6 54 be ce f0 3b bc
       -0.015093327 -0.1066012 -0.20791008 -0.0114709865
000080 ad 1d eb 3d 0a 7b 27 be 5c 35 42 be b1 13 82 be
       0.114802696 -0.1635553 -0.18965667 -0.25405648
000090 ee ce 3a be fe 4d f1 bc 64 4f e5 3d 46 19 8b be
       -0.18243 -0.029456135 0.11196783 -0.2716772

layerout.bias f4 [2]
000000 c6 fb ba 3c ed 58 61 3d
       0.022825133 0.055016447
