data/nnInbcs.pth (torch, 6912 bytes, 8 tensors)

layerin.weight f4 [20, 3]
0	0xbe972246	-0.29518336
1	0x3ecd128c	0.40053213
2	0xbe69bb22	-0.22825292
3	0x3da348c8	0.07972866
4	0x3f0b9ee4	0.5453932
5	0xbe077cb6	-0.13231167
6	0xbea800b8	-0.32813048
7	0xbdab745c	-0.08371803
8	0x3ddb5b65	0.107107915
9	0xbca50af2	-0.02014682
10	0x3e281b59	0.16416682
11	0xbce55bc1	-0.027997853
12	0xbd9a0467	-0.07520371
13	0xbe103416	-0.14082369
14	0xbe36874a	-0.17825046
15	0x3f0c6840	0.5484657
16	0x3e924be3	0.28573522
17	0xbd14d144	-0.036332384
18	0xbee387fc	-0.44439685
19	0x3e35b04c	0.17743033
20	0x3e845b99	0.25851133
21	0x3e0db94a	0.13840213
22	0xbdad3062	-0.08456494
23	0x3eb09a3c	0.3449267
24	0xbe283be2	-0.16429093
25	0xbda0ca80	-0.07851124
26	0xbdd8c30a	-0.10584076
27	0xbeb4228f	-0.35182616
28	0xbe0d8410	-0.13819909
29	0x3eb169f1	0.3465114
30	0x3e6f2b1f	0.23356293
31	0x3ee86756	0.4539134
32	0xbec82bb0	-0.3909583
33	0xbe1916ed	-0.14950152
34	0x3deea381	0.1165228
35	0xbe7e49c6	-0.2483283
36	0x3d814158	0.063112915
37	0xbc3ace7c	-0.011401769
38	0xbb79a564	-0.0038092965
39	0xbf0bc0bb	-0.5459096
40	0xbeeea97e	-0.46613687
41	0x3ef026d1	0.46904615
42	0xbedf5cd6	-0.43625516
43	0x3ecd1dcc	0.40061796
44	0x3dd569a7	0.10420542
45	0xbee82f6c	-0.4534868
46	0xbec45be3	-0.38351354
47	0xbd6b9e1c	-0.05752383
48	0xbe115369	-0.14191975
49	0x3d94d90d	0.07267962
50	0xbe88750c	-0.266518
51	0xbcd42de9	-0.025900798
52	0xbe932484	-0.28738797
53	0xbe912ab9	-0.28352907
54	0xbe27265d	-0.16323228
55	0x3ec56d9f	0.38560197
56	0x3e2e13b9	0.16999711
57	0x3ec7b5a5	0.3900577
58	0xbebd65c4	-0.36991704
59	0xbe8e93ba	-0.2784708

layerin.bias f4 [20]
0	0x3e9ac5c6	0.30229014
1	0x3e689ebc	0.22716802
2	0x3f0f6333	0.5601074
3	0x3e1e768c	0.1547491
4	0xbe00a80e	-0.12564108
5	0x3dff1e97	0.124570064
6	0x3ed0028c	0.40626943
7	0x3f05c9e4	0.52261186
8	0x3ec33c5f	0.38131997
9	0x3db5a6de	0.08869718
10	0x3ba6fd66	0.0050961254
11	0x3e4dd5b2	0.2010105
12	0x3ecdb7a2	0.40179163
13	0xbed699bf	-0.41914174
14	0xbf03a408	-0.51422167
15	0xbe4934b1	-0.19649006
16	0xbe89e699	-0.26933745
17	0xbd54af2c	-0.05192487
18	0xbeaf6af8	-0.34261298
19	0xbdcbf20d	-0.09958277

layers.0.weight f4 [20, 20]
0	0x3e51ae46	0.20476636
1	0xbe11a6d2	-0.14223793
2	0x3e49f0a5	0.19720705
3	0x3e456f02	0.19280627
4	0x3db70c50	0.08937895
5	0xbe2c85bd	-0.16847892
6	0x3d10c3e7	0.035343077
7	0xbdec6561	-0.11542774
8	0xbd857fd1	-0.0651852
9	0xbe3945e5	-0.18093069
10	0x3d8522d4	0.065007836
11	0x3e58d4aa	0.21174875
12	0x3e0c4969	0.13699879
13	0xbe228d37	-0.15874182
14	0x3d8162a5	0.06317643
15	0x3d3278a5	0.043572087
16	0xbe07137e	-0.1319103
17	0x3dec2ce7	0.11532002
18	0xbdca2783	-0.098708175
19	0x3e296f04	0.16546255
20	0xbdef96a1	-0.11698652
21	0xbe2c5344	-0.16828638
22	0x3dc9618f	0.09833061
23	0xbe1acc57	-0.15117012
24	0x3cadadd2	0.021201048
25	0xbe3bac0f	-0.18327354
26	0x3e2a8cf0	0.16655326
27	0xbe255701	-0.1614647
28	0xbd68c36d	-0.056826998
29	0x3db6c862	0.08924939
30	0x3e4e4f37	0.20147406
31	0x3e1adc8d	0.15123196
32	0x3dfcd819	0.12345905
33	0x3dc75efc	0.09734914
34	0xbd9747a3	-0.073867105
35	0x3e0c0e51	0.13677336
36	0x3e4f3dfe	0.20238492
37	0x3dad9b2f	0.084768645
38	0xbe546eee	-0.20745441
39	0x3e48e2f7	0.1961783
40	0xbe506e06	-0.2035447
41	0xbe042527	-0.12904797
42	0x3e5fe4a0	0.21864557
43	0x3dba6e01	0.09103013
44	0xbdb45ca7	-0.088067345
45	0x3e24a688	0.16079152
46	0xbdf3727d	-0.11887071
47	0xbe0ccd55	-0.13750203
48	0x3d98cfc4	0.07461503
49	0xbe4ec7ee	-0.20193455
50	0xbddd8a5a	-0.10817404
51	0x3e534ef8	0.20635593
52	0xbe4cdfee	-0.20007297
53	0x3daf8678	0.0857057
54	0xbdbf1eee	-0.09332071
55	0xbc85d356	-0.016336124
56	0x3defae3e	0.11703156
57	0x3df65050	0.12027037
58	0x3b8df714	0.0043324325
59	0xbe44c76c	-0.19216698
60	0x3e294bd8	0.16532838
61	0xbdd25d96	-0.10271756
62	0x3e08f387	0.13374148
63	0xbbc7182a	-0.0060758786
64	0x3d884d27	0.06655341
65	0xbdf9ecef	-0.122033946
66	0x3e113ce1	0.1418338
67	0xbe1a98be	-0.15097329
68	0xbdc83760	-0.09776187
69	0xbd61a37f	-0.055087563
70	0xbd54a087	-0.051910903
71	0xbdd34f1f	-0.103178255
72	0x3ddeb184	0.10873702
73	0x3b95870d	0.0045632184
74	0x3df70830	0.120621085
75	0xbe6afd12	-0.22948101
76	0x3e06d22d	0.13166113
77	0xbd86f73f	-0.06590127
78	0x3e3d6742	0.18496421
79	0x3de62690	0.11237824
80	0x3db5f2a9	0.088841744
81	0x3d5b984d	0.053612042
82	0xbe227d44	-0.15868098
83	0xbe631710	-0.22176766
84	0xbdca436c	-0.09876141
85	0x3e494d27	0.19658338
86	0xbe156ba9	-0.1459185
87	0x3e1190ed	0.14215441
88	0x3e1bf160	0.15228796
89	0x3d84e75f	0.06489443
90	0x3c2bc5da	0.010484183
91	0x3e1a31b9	0.1505803
92	0xbd74fed3	-0.05981333
93	0x3cbd97f4	0.023143746
94	0x3e1bd62b	0.15218417
95	0xbe22e501	-0.1590767
96	0x3da65214	0.08121124
97	0xbdf03f34	-0.11730805
98	0x3dfa8c4c	0.12233791
99	0xbdb64448	-0.08899742
100	0x3e426769	0.1898476
101	0x3e439ad9	0.19102038
102	0x3e0c0fd6	0.13677916
103	0xbd525df7	-0.051359143
104	0xbdf270a2	-0.11837889
105	0x3e1d9392	0.15388325
106	0x3e57f86c	0.21090859
107	0x3cb9337d	0.02260756
108	0xbe31f656	-0.17379126
109	0x3cecb157	0.028893156
110	0xbe1ae741	-0.15127279
111	0x3e40f991	0.18845202
112	0x3d002e6a	0.031294264
113	0x3b36d0ae	0.002789538
114	0xbe3adb77	-0.18247782
115	0xbe24cfe9	-0.16094936
116	0xbe2e0ef2	-0.16997889
117	0xbdd96ed7	-0.10616844
118	0x3e22ffcc	0.15917891
119	0xbdfc1d6d	-0.123103
120	0x3dbb4206	0.09143452
121	0xbe1ddab8	-0.15415466
122	0x3d251f52	0.040313073
123	0x3ce0ff68	0.027465537
124	0xbe1332fb	-0.14374916
125	0x3da15204	0.07876971
126	0x3d7c2ea4	0.061567917
127	0x3e577713	0.21041517
128	0x3d8ac6d1	0.067762025
129	0xbe130fd3	-0.14361505
130	0x3e52ca4b	0.20584981
131	0x3e0bd9ba	0.13657275
132	0x3de3ac51	0.11116851
133	0x3cac77fd	0.021053309
134	0x3dd63d59	0.1046092
135	0xbe150d24	-0.14555794
136	0x3d54cbc5	0.051952142
137	0x3e3cff42	0.18456748
138	0xbe262d4e	-0.1622822
139	0x3d449940	0.047997713
140	0x3d74bd42	0.059750803
141	0x3d109d27	0.035306122
142	0x3db82e27	0.08993178
143	0x3cfc24c8	0.030779257
144	0x3e36f433	0.17866592
145	0xbe3616c7	-0.17782126
146	0x3d9e4346	0.07727675
147	0xbdc382fc	-0.09546468
148	0xbdd6bc2b	-0.10485109
149	0xbcdab080	-0.02669549
150	0xbc8b35e9	-0.01699348
151	0xbe3714cf	-0.17879032
152	0xbdf700f5	-0.120607294
153	0x3d69f886	0.057121776
154	0xbe388c27	-0.18022214
155	0x3e0a98d8	0.13534868
156	0x3de05ede	0.109555945
157	0x3e31806d	0.17334147
158	0x3da56aab	0.08076986
159	0xbd54ba94	-0.051935747
160	0xbd79cfd8	-0.06098923
161	0x3da24ff2	0.079254046
162	0x3e29dbe0	0.16587782
163	0x3cd7c8e9	0.026340919
164	0x3e61b9b0	0.2204349
165	0x3d88a574	0.06672183
166	0x3e1199ed	0.14218874
167	0x3d94a072	0.07257165
168	0x3c253b36	0.010084918
169	0xbe1b56fe	-0.15169904
170	0xbe237312	-0.15961865
171	0x3e129059	0.14312877
172	0x3e344cbc	0.17607397
173	0xbe101fd1	-0.14074637
174	0x3e549189	0.20758642
175	0xbc39e7bc	-0.011346754
176	0xbcaf819c	-0.021424107
177	0xbcf1e857	-0.029529734
178	0x3dbff721	0.09373308
179	0xbd7fb5c9	-0.062429223
180	0xbcdfd061	-0.027321042
181	0x3e395450	0.18098569
182	0xbe53d2b3	-0.20685844
183	0xbda3e06d	-0.0800179
184	0x3daae7b7	0.08344977
185	0xbe46ef64	-0.19427258
186	0x3c87fa17	0.016598744
187	0x3e338321	0.1753049
188	0xbe16b852	-0.1471875
189	0x3e08a27f	0.13343237
190	0x3e104a63	0.14090876
191	0x3d14ee7b	0.036360245
192	0xbd97ef8d	-0.074187376
193	0xb951211d	-0.00019944129
194	0x3e5cd6e7	0.21566354
195	0xbde1e6b4	-0.11030331
196	0xbdbd9d5e	-0.09258531
197	0x3d1a8af3	0.03773017
198	0xbe371a52	-0.17881134
199	0xbe2500bb	-0.1611356
200	0xbdf4b359	-0.1194827
201	0xbd2f2361	-0.04275835
202	0xbe289bf2	-0.16465738
203	0x3e08d81c	0.13363689
204	0x3e4c5498	0.19954145
205	0xbdf52d94	-0.11971584
206	0xbe3ee20a	-0.18640915
207	0xbd13ebeb	-0.03611366
208	0xbd41f52f	-0.047352966
209	0xbda5f894	-0.08104053
210	0xbd5e75d7	-0.0543116
211	0x3bf81478	0.0075707994
212	0xbe3603a7	-0.17774831
213	0x3da16d30	0.07882154
214	0xbe31a4ee	-0.17348072
215	0x3e27bd65	0.16380842
216	0x3e501ab5	0.20322688
217	0x3dbf8379	0.09351248
218	0xbde3a2d9	-0.11115045
219	0xbdad461c	-0.08460638
220	0xbd58821d	-0.05285846
221	0xbe241929	-0.16025223
222	0x3dc61b31	0.09673155
223	0xbcd045be	-0.02542388
224	0x3d6841f4	0.056703523
225	0xbe5b47ef	-0.21414159
226	0xbcccbe9a	-0.02499323
227	0x3d7e62f4	0.062106088
228	0xbde397d8	-0.11112946
229	0xbe2df090	-0.16986299
230	0x3e43627f	0.19080542
231	0xbcee089f	-0.029056845
232	0xbe17e379	-0.14832868
233	0x3dd00909	0.10157973
234	0x3d66e1e8	0.056367785
235	0xbd30d722	-0.043173917
236	0xbde3d716	-0.11125009
237	0x3e20f58b	0.15718667
238	0x3e20ee20	0.15715837
239	0x3e561096	0.20904765
240	0xbe4f3b75	-0.20237525
241	0x3da7abe2	0.08187081
242	0x3d83b1ce	0.06430398
243	0xbd63fe6b	-0.055662554
244	0xbd25ad6f	-0.040448602
245	0xbd7a1f28	-0.06106487
246	0xbdfae9dd	-0.12251637
247	0x3ccf9530	0.025339693
248	0x3cb683dd	0.022279674
249	0xbe0552b9	-0.13019837
250	0xbe2f1a09	-0.17099775
251	0x3e366082	0.17810252
252	0xbe15ed11	-0.14641215
253	0xbce3059b	-0.027712634
254	0x3dc7d3ef	0.0975722
255	0xbe0f2110	-0.13977456

layers.0.bias f4 [20]
0	0x3c3f019c	0.011658099
1	0xbe062b3e	-0.13102433
2	0xbdc9eace	-0.098592386
3	0x3d3c0a7a	0.04590843
4	0xbdffcf83	-0.124907516
5	0x3e244a5a	0.16043988
6	0x3e38c47c	0.18043703
7	0xbddc7a30	-0.10765493
8	0xbd3b3263	-0.04570235
9	0x3dc0233f	0.09381723
10	0xbd843bf8	-0.06456751
11	0x3cda051c	0.026613764
12	0xbdb7cf9f	-0.089751475
13	0xbb8a264b	-0.0042159907
14	0xbd5453f7	-0.051837888
15	0xbca79a3d	-0.020459289
16	0xbe5ff18c	-0.21869487
17	0xbceeb209	-0.029137628
18	0x3e617369	0.22016682
19	0xbdc87908	-0.0978871

layers.2.weight f4 [20, 20]
0	0xbe11d68e	-0.14242002
1	0x3de42ec8	0.11141735
2	0x3e35f83d	0.17770477
3	0xbd66973c	-0.056296572
4	0x3e3a6b70	0.18205047
5	0x3e4d63ce	0.20057604
6	0xbdff74b6	-0.12473433
7	0x3d52913b	0.051408034
8	0xbdc7f32e	-0.0976318
9	0x3e5babc3	0.2145224
10	0xbe0b5da2	-0.13609937
11	0xbda3294d	-0.07966862
12	0xbba9bfc3	-0.0051803305
13	0xbe37c2e5	-0.1794544
14	0x3e2bd86a	0.16781774
15	0x3e29ce16	0.16582522
16	0x3df03d43	0.11730435
17	0x3d8797d4	0.06620756
18	0xbe17b0a7	-0.14813481
19	0xbe10be32	-0.14135054
20	0x3d12e71c	0.035864934
21	0xbe108d3e	-0.1411638
22	0x3d94e97b	0.07271095
23	0x3e27b572	0.1637781
24	0x3e3d0f44	0.18462855
25	0xbd1de334	-0.038546756
26	0x3dd56fec	0.10421738
27	0x3d0ae7d8	0.03391251
28	0x3cc247a7	0.023715807
29	0x3dcc7cd3	0.09984746
30	0x3dc6fca2	0.09716155
31	0xbe478409	-0.19483961
32	0xbdd26875	-0.1027383
33	0xbda58e34	-0.08083764
34	0x3c23bf2c	0.009994309
35	0xbdf70e84	-0.120633155
36	0x3d177b4f	0.03698283
37	0xbe1b2779	-0.15151776
38	0x3e29c736	0.16579899
39	0x3e6ae3e2	0.22938493
40	0xbc44ca52	-0.012011128
41	0x3e4fcf0d	0.20293827
42	0x3df28453	0.11841645
43	0xbd84ed25	-0.06490544
44	0x3e13e142	0.14441398
45	0xbdd51f3d	-0.10406349
46	0x3e2d5f2f	0.16930841
47	0xbd869d09	-0.06572921
48	0x3c98dd98	0.018660352
49	0xbd2958bb	-0.041344386
50	0xbe6ed9be	-0.2332525
51	0x3c3453e4	0.011006329
52	0xbe10ef96	-0.14153895
53	0x3e0e52fb	0.13898842
54	0x3da844f1	0.082162745
55	0x3e1e186b	0.15439002
56	0x3e541074	0.20709401
57	0xbdb95759	-0.09049863
58	0x3e011a4d	0.12607689
59	0x3ca060ba	0.019577373
60	0xbe44e7df	-0.19229077
61	0x3ddcbb47	0.10777908
62	0x3d743c20	0.059627652
63	0x3c12ef9d	0.008968261
64	0x3e11a107	0.14221583
65	0x3ddce683	0.10786154
66	0x3e4a6733	0.1976593
67	0x3e569866	0.20956573
68	0xbe2f8e60	-0.17144156
69	0x3e368177	0.17822824
70	0xbe1b2f01	-0.1515465
71	0xbd8c710c	-0.068574995
72	0xbcf00b7c	-0.029302351
73	0x3b2f3dc5	0.0026739698
74	0x3e341b1c	0.17588466
75	0xbe2ec82d	-0.17068549
76	0xbda69efa	-0.08135791
77	0xbd827051	-0.06369079
78	0xbe409dc6	-0.18810186
79	0xbe57c213	-0.21070127
80	0xbb92d7d7	-0.0044812965
81	0x3e48c814	0.19607574
82	0xbe551df3	-0.20812206
83	0xbe18ca16	-0.1492084
84	0xbc914787	-0.017734302
85	0xbe36b2c3	-0.1784163
86	0x3e54bb51	0.2077458
87	0x3d57bf79	0.052672837
88	0xbd366290	-0.04452759
89	0x3defabbf	0.1170268
90	0xbd81b118	-0.06332606
91	0xbbd3e7b5	-0.0064668306
92	0xbe3ad397	-0.18244778
93	0xbe4ff861	-0.20309593
94	0x3d5884aa	0.052860893
95	0xbd39c7b0	-0.045356452
96	0xbd5f002e	-0.05444353
97	0x3e07cb5e	0.13261172
98	0x3d7faf7c	0.062423214
99	0x3e5b3854	0.21408206
100	0x3dc9cad9	0.09853143
101	0x3e39aaa9	0.18131508
102	0x3e35b958	0.17746484
103	0x3dce3f1c	0.10070631
104	0x3e3a3bb0	0.18186831
105	0x3d344b0f	0.044016894
106	0x3daef69f	0.08543133
107	0x3d3f5b57	0.046717968
108	0xbd9e303c	-0.07724044
109	0x3e1fa193	0.1558898
110	0xbd4c3de2	-0.049863704
111	0x3d91f610	0.07127011
112	0x3e0b061b	0.13576548
113	0xbe5751f9	-0.21027364
114	0xbdfc7203	-0.123264335
115	0x3e5aee55	0.21379979
116	0x3e1ab4ce	0.15108034
117	0xbde52b1f	-0.11189865
118	0x3db41a3c	0.08794066
119	0xbb3301d9	-0.0027314334
120	0x3e3ae47b	0.18251221
121	0xbdd123c1	-0.10211898
122	0x3d79de44	0.061002985
123	0x3e53514c	0.20636481
124	0x3e45d3d1	0.19319083
125	0xbd304350	-0.043032944
126	0x3e5abbe8	0.21360743
127	0x3cb8038f	0.022462634
128	0xbe35b5c8	-0.17745125
129	0xbe394cd6	-0.18095717
130	0x3e1c3aa8	0.1525675
131	0xbe67599c	-0.22592777
132	0xbd0ba661	-0.03409422
133	0x3d466653	0.048437428
134	0x3d80951a	0.06278439
135	0x3d7cd0cb	0.061722558
136	0xbddcaf3a	-0.10775609
137	0x3e38fe32	0.18065718
138	0xbd3ab301	-0.045580868
139	0xbe21b88c	-0.15793055
140	0xbd196f00	-0.037459373
141	0xbe2ac46a	-0.16676489
142	0xbc8e3365	-0.017358491
143	0x3db1d539	0.08683247
144	0xbe3ad7ee	-0.18246433
145	0xbe447552	-0.19185379
146	0xbe5aaccb	-0.21354978
147	0x3d5e611c	0.05429183
148	0x3d947e9c	0.07250711
149	0x3cdd389b	0.02700453
150	0xbe54a562	-0.20766214
151	0x3e5041b9	0.20337571
152	0xbd900e2e	-0.070339546
153	0x3e32d130	0.17462611
154	0x3e28979b	0.16464083
155	0x3e5fff65	0.21874769
156	0x3d972ec3	0.07381966
157	0xbe1fda7f	-0.15610693
158	0x3e753cec	0.23949021
159	0x3e36ac5c	0.17839187
160	0xbe40aee5	-0.18816717
161	0xbda2a834	-0.079422385
162	0xbe47f6ff	-0.19527815
163	0xbd020f6d	-0.031752992
164	0xbd21131d	-0.03932487
165	0x3e0e661d	0.1390614
166	0x3d371763	0.044700038
167	0xbdeab846	-0.114609286
168	0x3e19c714	0.15017349
169	0xbd672c5b	-0.056438785
170	0xbe44bbbc	-0.1921224
171	0xbcfe8d85	-0.031073341
172	0xbd48ccf5	-0.049023587
173	0x3d98cf37	0.07461398
174	0x3e48c656	0.19606909
175	0x3d7a2a11	0.061075274
176	0xbd2be9d6	-0.04197105
177	0xbe2627e7	-0.16226159
178	0xbcf209c8	-0.02954568
179	0x3e404526	0.18776378
180	0xbe37c20f	-0.17945121
181	0x3df18390	0.11792672
182	0x3e3b08b5	0.1826504
183	0xbe4bc886	-0.19900712
184	0xbe1cc083	-0.15307812
185	0x3d750d26	0.059826992
186	0xbd8ecb9c	-0.06972429
187	0x3e0dd089	0.13849081
188	0x3d44e8d0	0.04807359
189	0xbe4f664f	-0.20253871
190	0xbe4c8917	-0.1997417
191	0x3e502022	0.20324758
192	0xbdf35b6c	-0.11882672
193	0xbe329c5f	-0.17442463
194	0xbe11e99e	-0.14249274
195	0xbd5a24fc	-0.053257927
196	0xbd3571ba	-0.04429791
197	0xbe3681ed	-0.17823
198	0x3e516d76	0.20451912
199	0xbdc171a9	-0.09445507
200	0xbe582bff	-0.21110533
201	0xbe348011	-0.17626978
202	0x3e4b87c5	0.1987601
203	0x3e23f85d	0.16012712
204	0x3de4a082	0.11163427
205	0xbe3512fc	-0.17683023
206	0x3cb6ad7a	0.022299517
207	0x3e1ab0a0	0.1510644
208	0xbe4b043b	-0.19825833
209	0x3df069cf	0.117389314
210	0xbe329573	-0.17439823
211	0xbe5778cb	-0.21042173
212	0x3b09596b	0.0020957838
213	0xbe393c0d	-0.18089314
214	0xbe332d60	-0.17497778
215	0xbe26acd8	-0.16276872
216	0xbdde567e	-0.10856341
217	0xbcfe31af	-0.03102955
218	0x3dc1c36c	0.09461102
219	0x3e050d2c	0.12993306
220	0xbdc9017f	-0.098147385
221	0xbe5216be	-0.20516488
222	0x3c782109	0.015144595
223	0xbe028be6	-0.1274868
224	0x3e0da765	0.13833387
225	0x3e52b256	0.20575842
226	0x3d3d98f3	0.046288442
227	0x3e03c6d9	0.12868823
228	0x3de4a218	0.111637294
229	0xbdafc75a	-0.08582945
230	0x3dc40604	0.0957146
231	0xbd90d645	-0.07072119
232	0x3de2b477	0.11069577
233	0x3cbc4769	0.02298327
234	0x3da9cb38	0.08290714
235	0x3af4660a	0.0018646133
236	0x3d8af88e	0.06785689
237	0x3e6a4312	0.22877148
238	0xbcaf8063	-0.021423524
239	0xbd11ada8	-0.035566002
240	0x3e2c6a1b	0.16837351
241	0x3d74c41d	0.05975734
242	0x3e1e3f9d	0.15453954
243	0xbcc2597e	-0.023724314
244	0x3bddfe26	0.0067746816
245	0xbd882cc4	-0.06649163
246	0x3e587279	0.21137418
247	0x3d982743	0.074293636
248	0x3e381ec9	0.17980494
249	0x3e06d6a7	0.13167821
250	0xbd5db4ea	-0.05412761
251	0xbdddfe93	-0.10839572
252	0x3de5f6a5	0.11228684
253	0x3e1588ac	0.14602917
254	0xbd0831a6	-0.033250473
255	0x3d123a0c	0.03569989

layers.2.bias f4 [20]
0	0xbe365579	-0.17806043
1	0xbe3be97c	-0.18350786
2	0x3e52b281	0.20575906
3	0xbe11ad2f	-0.1422622
4	0x3e1fc952	0.15604141
5	0x3caae8b5	0.020862916
6	0x3e312db7	0.17302595
7	0xbdabf8c2	-0.08397056
8	0x3e3d122f	0.18463968
9	0xbd775dc3	-0.060392153
10	0xbcd6ba7c	-0.02621197
11	0xbd95793e	-0.07298516
12	0xbd8ab54d	-0.06772862
13	0xbda9378a	-0.08262546
14	0xbd7576e1	-0.059927825
15	0x3e344a1a	0.17606393
16	0xbe33c8e2	-0.175571
17	0x3df97052	0.121796265
18	0xbdcee574	-0.101023585
19	0xbe3a2643	-0.18178658

layerout.weight f4 [2, 20]
0	0x3b0c2922	0.0021386822
1	0xbe562c42	-0.2091532
2	0x3d1cc92f	0.0382778
3	0x3e2a64f4	0.16640073
4	0xbe17a9f3	-0.14810924
5	0xbe5174b0	-0.20454669
6	0xbe5929a9	-0.21207298
7	0x3da5245c	0.080635756
8	0x3da488ee	0.0803393
9	0xbcdc27b1	-0.026874395
10	0xbe11ef98	-0.14251554
11	0x3cb20b16	0.021733802
12	0x3e1493fa	0.14509574
13	0x3d90475c	0.07044861
14	0x3d73801c	0.059448346
15	0xbc8c1bf2	-0.01710317
16	0x3e467472	0.19380358
17	0x3db975f5	0.09055702
18	0x3e3aca99	0.18241347
19	0x3de724e9	0.11286337
20	0xbe05a9c9	-0.13053049
21	0xbe54c2cc	-0.20777434
22	0x3e561bea	0.20909086
23	0xbe35f3db	-0.17768805
24	0xbd494110	-0.049134314
25	0xbdcc4f9b	-0.09976121
26	0x3e457b55	0.19285329
27	0xbe12c31c	-0.14332241
28	0xbde44d04	-0.11147502
29	0xbdccceea	-0.10000403
30	0x3e4f854c	0.20265692
31	0xbdc29694	-0.09501377
32	0xbe56fb79	-0.20994367
33	0xbca39432	-0.019968126
34	0xbdc6da39	-0.097095914
35	0x3da75c60	0.08171916
36	0xbe4fe8fb	-0.20303719
37	0xbb5e0668	-0.003387833
38	0x3c177222	0.00924352
39	0xbdab4148	-0.08362061

layerout.bias f4 [2]
0	0x3df3fcea	0.11913474
1	0xbc4c27f6	-0.012460699
