data/nnInbcs.pth (torch, 6848 bytes, 8 tensors)

layerin.weight f4 [20, 3]
000000 05 0e 02 3f 70 e9 06 3e f6 db df 3d 86 f4 cb 3e
       0.5080264 0.13174987 0.10930626 0.39834994
000010 6b 97 73 be 14 74 b5 3e 38 e6 01 bf d3 62 0c bf
       -0.2378823 0.35440123 -0.5074191 -0.54838294
000020 02 27 40 be d6 0d f4 be 9d 68 f3 bd 85 78 e4 be
       -0.1876488 -0.47666806 -0.11885188 -0.446232
000030 70 6e 5f 3e 52 e4 6e be 43 05 4b be 33 b3 d4 be
       0.21819472 -0.23329285 -0.19826226 -0.41542968
000040 b9 59 dc be 3c 0b 35 3e 0a 6c 4a 3e 77 bb 01 3f
       -0.43037203 0.17680067 0.19767776 0.50676674
000050 86 51 2d be 00 36 d7 3e 23 92 ef 3e 37 1d 03 3f
       -0.1692563 0.42033386 0.4679118 0.51216453
000060 e6 49 54 bc 7c 46 9d be e4 e6 8f 3e 64 45 da 3e
       -0.012957072 -0.30717838 0.28105843 0.42631066
000070 8e 70 50 3e f5 8f df 3e 50 5b ae be 9b 83 08 3e
       0.20355436 0.43664518 -0.3405404 0.13331454
000080 66 2d 85 be b4 ba 01 3f dc 55 6e 3e 7b c8 07 be
       -0.260112 0.5067551 0.2327494 -0.13260071
000090 3c b0 a7 bd 5b 06 da 3e 68 f7 5c 3d 2e 2b 10 be
       -0.08187911 0.42582974 0.053946882 -0.14078972
0000a0 d0 85 ef be e7 50 04 bf 9f 1d aa 3e 1f 95 ca be
       -0.46781778 -0.5168595 0.33225724 -0.39566895
0000b0 59 3a 3d bd d2 c8 b2 be f7 87 bf be 72 18 1b 3c
       -0.046198223 -0.3491884 -0.3740842 0.009466277
0000c0 4d 24 aa be 00 10 4f be 2c 0b 10 3e f6 f7 f0 bd
       -0.3323082 -0.20220947 0.14066762 -0.11766045
0000d0 58 3b 5a 3e ab cb 28 be 49 2b 0f bf 4d 5d f9 be
       0.213117 -0.16483943 -0.5592542 -0.48703995
0000e0 f7 0d ce 3e 1d 79 05 bf b5 ec f6 3d b1 05 0c 3f
       0.4024503 -0.5213793 0.12056867 0.54696184

layerin.bias f4 [20]
000000 f0 f9 0b bf 34 12 10 3f c6 16 01 3e 78 85 b3 bd
       -0.5467825 0.56277776 0.12606344 -0.087656915
000010 2d 48 ff 3d a2 85 5f bd f9 01 00 3f 3d a4 30 bd
       0.12464938 -0.0545708 0.5000301 -0.04312538
000020 26 93 db bd 5c 60 6d be 79 18 1d be dd ed de 3e
       -0.10721426 -0.2318129 -0.15341367 0.4354085
000030 fb d4 9e 3e e2 b0 d5 be a5 6f d3 bd 35 c6 8d 3d
       0.31021866 -0.41736513 -0.10324029 0.069225706
000040 60 44 4e 3d 23 5a c0 be c5 b5 ca 3e 46 6e 10 3f
       0.050358176 -0.3756877 0.39591804 0.56418264

layers.0.weight f4 [20, 20]
000000 ac f3 e6 3c 2d df 1a bd 92 4c 91 bd 45 19 1e be
       0.028192364 -0.037810493 -0.07094683 -0.15439327
000010 f6 f0 99 3d 7e a9 25 be 15 4e 0f be a1 c0 cf 3d
       0.07516663 -0.16177937 -0.1399463 0.10144163
000020 f0 9c a8 bd 1d 28 3f 3e 61 20 2d 3e f5 e7 d2 3d
       -0.082330585 0.18667646 0.16906883 0.102981485
000030 3d 04 56 3e a4 5d 30 be e6 e9 a6 3d ae ed be bc
       0.20900054 -0.17223221 0.08150081 -0.023306694
000040 78 69 82 3d d7 6a 0f 3e 0a e9 5b be 26 f8 a7 3d
       0.06367773 0.140056 -0.21475616 0.082016274
000050 28 cb 5e bd 3e a8 3e be 91 38 8a 3d 72 95 93 bd
       -0.054392964 -0.18618867 0.067490704 -0.07206239
000060 51 2e ad 3d fc 04 dd 3c 71 31 16 bd ce 70 14 3e
       0.084561 0.026979916 -0.036668245 0.14496157
000070 f6 11 1f be 05 40 0b bd bb 3a 8e 3d fe e7 2a 3e
       -0.15534195 -0.0339966 0.06944796 0.1669006
000080 4a d9 b7 bd 72 8e 2f be 09 ab f7 bd 63 da 37 be
       -0.089769915 -0.17144182 -0.12093169 -0.17954402
000090 6b 1c 26 bb a9 6c 1b 3e 0a f8 60 3e 6d 48 0b 3d
       -0.0025346528 0.1517817 0.2196962 0.034004617
0000a0 72 3a 4b 3d 82 d3 59 3d 30 58 3a bd 56 59 c7 bb
       0.049616285 0.053180225 -0.04549426 -0.0060836477
0000b0 fd 68 63 be 5d c9 50 bd 9b 10 3a be 17 25 20 3d
       -0.22208019 -0.050973285 -0.18170397 0.03909787
0000c0 61 18 10 bd 58 30 22 3e 5d 03 b5 bd f5 51 d5 3d
       -0.0351795 0.15838754 -0.08838532 0.10416023
0000d0 f8 5a 47 3e 98 41 61 3e dc e5 4b be 84 39 8d bc
       0.19468296 0.21997678 -0.19911903 -0.01723934
0000e0 35 82 ca 3b b9 10 33 be c3 47 aa bd fa 0f 25 be
       0.0061800727 -0.17486848 -0.08314469 -0.16119376
0000f0 be e9 e9 3d 9d 74 8e bc eb b1 f1 3d 19 a5 02 be
       0.11421536 -0.01738959 0.11801513 -0.12758292
000100 d3 bf 46 3e 9f 77 3a 3e 06 30 44 bc 68 6e 9f 3d
       0.19409113 0.18209694 -0.01197434 0.0778473
000110 f4 7e 4c 3d b2 4f d4 bd 4f 54 2a be a7 92 18 3e
       0.04992576 -0.10366763 -0.16633724 0.14899693
000120 6f 45 61 be 6b a9 cb 3d a0 ad 5d bd 5d 3c 99 bd
       -0.21999143 0.09944423 -0.05412066 -0.074822165
000130 93 73 9e 3c 31 8d 62 bd 50 ff 77 3d a9 00 1e be
       0.01934222 -0.055310432 0.06054622 -0.1542994
000140 23 7f e4 3d 5b 31 4e 3e d9 fb e1 3c 22 82 10 be
       0.11157062 0.20136015 0.02758591 -0.14112142
000150 68 99 30 3e 9d 19 5a 3e bc f7 1e 3e a7 ea 95 bd
       0.1724602 0.21298833 0.1552419 -0.07320147
000160 3e fd 11 bd 8a 35 1f 3d b5 0c 0e be 60 0f 2a be
       -0.0356419 0.03886942 -0.13872035 -0.16607428
000170 f0 dd 07 3d 07 88 8b bd 04 75 a7 3b 13 7d ae 3c
       0.03317064 -0.068130545 0.005110385 0.021299874
000180 e5 1e 46 be 9d 03 48 bd 87 cb 3b 3e fa de 08 be
       -0.19347723 -0.04883157 0.18339358 -0.13366309
000190 df 95 c7 bd 86 91 5c be d5 0f 76 3d 96 b2 20 3e
       -0.097453825 -0.21539888 0.060073692 0.15693125
0001a0 53 cf f5 3c 41 73 c3 3d f1 ee 2c 3e 59 44 b3 bd
       0.030006086 0.09543467 0.16888024 -0.08753271
0001b0 b1 89 bc bd ba 9c 59 3d d1 7e 8f bd 34 37 1b 3e
       -0.0920595 0.05312798 -0.0700661 0.15157777
0001c0 96 9f 25 be 8e d3 f8 3d 28 6b 34 38 71 ba 9b 3d
       -0.16174158 0.12149726 4.301514e-05 0.0760392
0001d0 d6 20 ce bd 23 84 f0 bd 54 86 34 3e 2e 09 2a be
       -0.10064857 -0.11743953 0.17629367 -0.16605064
0001e0 0a 57 2b be 1f a3 0f be b5 02 3b be 10 ce da bd
       -0.16732422 -0.1402707 -0.18262751 -0.106838346
0001f0 1c a4 54 3e ce 48 f6 bd 4c 91 b7 bb e8 ab 40 3d
       0.20765728 -0.12025605 -0.0056020375 0.047038943
000200 8f 6e 53 3e e5 1d 71 3d 20 da c0 3d 9a d0 46 3c
       0.20647644 0.0588664 0.09416604 0.012134695
000210 87 7f c6 3c 81 a2 3e be c1 8c 5d 3d e2 05 70 bd
       0.024230732 -0.18616678 0.05408931 -0.05859936
000220 c4 b6 2a 3e 6c 62 3a 3e 07 69 9e bc 26 b7 52 be
       0.16671282 0.18201607 -0.01933719 -0.20577678
000230 f7 a7 39 3e b7 e9 92 3d a4 b0 52 3e 15 9a 0f be
       0.1813048 0.07173484 0.20575196 -0.14023621
000240 5d 87 10 bc 31 06 4b 3e 08 e6 e7 bd 30 ce 23 3e
       -0.008821336 0.1982658 -0.11323172 0.15996623
000250 30 9d 59 3e 53 1c 81 bd ca 53 3c be f4 86 2f 3b
       0.21251369 -0.063042305 -0.18391338 0.002678332
000260 7e fd 13 3e 40 37 c8 bc 27 23 27 be 6e 2a 7e 3d
       0.14452168 -0.024440408 -0.16322003 0.062052183
000270 d1 2b 42 3e e4 38 21 3e 17 23 21 3e 0c 4d 41 be
       0.18962027 0.15744358 0.15736042 -0.18877047
000280 a9 31 dc 3b 57 88 53 be 30 1b 31 3e 33 7d 4f 3b
       0.006719787 -0.20657478 0.17295527 0.0031660318
000290 fe b7 46 be a3 98 35 3d 0b c2 40 be c1 5f d2 3d
       -0.19406125 0.04433502 -0.18824022 0.1027217
0002a0 20 da 30 be 72 af 3a be 52 e6 3c 3e a4 ba 37 3a
       -0.17270708 -0.1823099 0.18447235 0.00070087076
0002b0 c0 92 28 3e 70 b5 4f be 5d 14 14 be 5e 7f d6 3c
       0.1646223 -0.20284057 -0.14460893 0.02618378
0002c0 c6 a3 4f 3e 62 94 54 bd 7a 8c 3a 3e a2 71 e4 3d
       0.20277318 -0.05189932 0.1821765 0.11154486
0002d0 82 c1 ae bd 0c 36 ea 3d 16 94 41 be 9c 3a 17 3a
       -0.085330024 0.1143609 -0.18904147 0.00057689263
0002e0 05 67 09 be 7b 2d 1d 3e af ad 44 3e dd 7e fb bb
       -0.13418205 0.1534938 0.1920688 -0.0076750354
0002f0 71 0f 8a bd 0f 2a 4d 3e d2 0e 85 3d be f8 56 3e
       -0.067412265 0.20035575 0.064969674 0.20993325
000300 29 69 1e 3e 93 01 02 be 3f 85 a3 bd 03 b6 47 be
       0.15469803 -0.12695913 -0.07984399 -0.19503026
000310 a8 d9 07 bd 40 fe b0 3d fa f6 3f be 5e ec 2b be
       -0.033166558 0.08642244 -0.18746558 -0.16789386
000320 ab 6b ae 3c a2 ad e7 3b 44 50 2d 3e fa 7e 1e 3e
       0.021291574 0.007070259 0.1692515 0.15478125
000330 f8 82 18 3d f0 b7 41 3e 54 7c 5f be 7b 26 39 be
       0.037234277 0.18917823 -0.21824771 -0.18081085
000340 1b dc 06 bd 80 9c d3 bc e8 64 51 be eb 77 2b 3e
       -0.032924753 -0.025831461 -0.20448649 0.16744964
000350 c6 84 13 3c 80 4a 33 bd 56 b7 b5 bd 17 7b f8 3d
       0.009003824 -0.04377222 -0.08872859 0.121328525
000360 84 a6 61 bd ae d0 39 be e8 69 31 3d 4e f2 49 be
       -0.055090442 -0.18146011 0.04331389 -0.19721338
000370 5c eb 98 3d df 8c 43 be 97 d8 ca bc cb db f2 3d
       0.07466766 -0.19096707 -0.024761481 0.118583284
000380 07 60 dd 3c ba a2 42 3e 25 6f 71 3d e7 4c 23 3e
       0.027023328 0.19007388 0.058943886 0.15947305
000390 13 3f 21 be 99 c4 4a 3e 7f f4 f2 3d aa 78 12 3e
       -0.15746717 0.19801559 0.1186304 0.14303842
0003a0 2f 4a a3 bc 22 03 92 bd d4 04 21 be f5 c6 ec 3d
       -0.019932834 -0.07129504 -0.15724498 0.115613855
0003b0 5e 7d ee 3b 1a 8c b4 3d 55 b5 96 bd 33 d1 33 3e
       0.0072781285 0.08815785 -0.07358805 0.17560272
0003c0 81 15 11 3c e3 d3 9b bc 32 12 ac bd 9c b7 ca 3d
       0.008855225 -0.019021934 -0.08401908 0.09898302
0003d0 98 e7 35 3e c9 db 98 bd f3 64 c1 bd fa c7 d0 bd
       0.17764127 -0.07463796 -0.09443083 -0.101943925
0003e0 a2 12 fc 3c 9c 6d 44 3e 0d b2 31 3e 4c 90 a1 bd
       0.030770604 0.19182438 0.17353077 -0.078888506
0003f0 e4 df 92 bd 71 d0 0f be f6 43 57 3e 7f c7 37 be
       -0.0717161 -0.14044358 0.21022019 -0.17947195

layers.0.bias f4 [20]
000000 20 85 65 3e 9e 69 31 3d 2e 32 3e 3e ba 0a b7 39
       0.22414064 0.043313615 0.1857383 0.00034912472
000010 51 01 08 3e d4 9a 94 3d 65 5b 9c 3d a2 7d 20 be
       0.13281752 0.072560936 0.076346196 -0.15672925
000020 a5 72 27 3e 79 cb 0f 3e 87 bf e1 bd 75 45 d0 bd
       0.16352327 0.14042462 -0.11022859 -0.10169498
000030 33 d4 4f 3e 39 c8 57 be 10 ba 22 3e 0d cd 5d 3e
       0.20295791 -0.21072473 0.1589129 0.21660252
000040 47 56 81 bb 20 ad 3c bd 54 5d cd bd b8 33 ed 3c
       -0.0039470526 -0.046063542 -0.100275666 0.028955325

layers.2.weight f4 [20, 20]
000000 67 3f 1b bc ca 4d dc 3d e8 62 1c 3e 78 22 fc 3d
       -0.0094755655 0.107570246 0.15272105 0.12311262
000010 ce 96 bf bc fe e6 ed bd b1 4b 10 be eb 12 2b 3e
       -0.023387339 -0.11616324 -0.14091374 0.16706435
000020 41 4f b3 bd 4e c3 06 bd 09 da 03 3e 1a ad 58 3e
       -0.08755351 -0.0329011 0.12876143 0.21159783
000030 d8 fc 1d 3e 96 20 20 3e 3a ea 16 3e 3e df 0b 3d
       0.15428483 0.1563743 0.14737788 0.034148447
000040 a7 b3 8a 3d 21 2e d6 3d a0 02 37 bd 93 c7 e1 3d
       0.06772547 0.10458017 -0.044680238 0.11024394
000050 7e 1b 14 3d 2b 3d 04 3e 7f aa 76 3c 76 b1 60 3d
       0.03615903 0.12913959 0.015055298 0.05485674
000060 e7 84 ea bd 1e 3c 6a bd 34 98 8f 3d 61 30 ba bd
       -0.1145113 -0.05718624 0.07011452 -0.09091259
000070 0f 97 92 bc d7 49 bc 3c 4d 83 1d 3e 88 c1 ff bd
       -0.017894296 0.022984428 0.15382119 -0.12488085
000080 85 11 71 bc 02 24 0c bd 2c 70 c9 3d 80 79 95 3d
       -0.01471365 -0.034214027 0.09835848 0.07298565
000090 a2 76 96 bd e5 09 34 be 4c 41 0e 3e 03 24 43 be
       -0.07346846 -0.175819 0.13892096 -0.19056706
0000a0 6e dd 3d bd 71 81 c3 3d f5 48 96 bd 24 d4 b0 3d
       -0.04635375 0.09546173 -0.07338134 0.086342126
0000b0 c0 70 51 be 8f e7 83 bd ab 1f ba bd 8b ff 0c be
       -0.20453167 -0.06440651 -0.090880714 -0.13769357
0000c0 c1 6e a4 bd 96 8b ba 3d 96 96 4b be b9 8a e6 bc
       -0.08028937 0.09108655 -0.19881663 -0.02814232
0000d0 87 37 f2 bd de 44 57 3e 8d 75 c1 3d 62 94 88 bc
       -0.11826997 0.21022364 0.09446249 -0.016672317
0000e0 db db 7b bd 65 72 57 3e 62 90 0b bc 93 5e 2d 3e
       -0.061488967 0.21039732 -0.00851831 0.16930608
0000f0 c2 d2 2a bd 2e f7 42 be 14 1b 38 3e 12 a8 b1 3d
       -0.0417049 -0.19039604 0.1797908 0.08674635
000100 2b ee c8 bd 8d 0e 50 3d d7 00 5e be 86 78 f8 bc
       -0.09811052 0.050795127 -0.21680008 -0.030330908
000110 1a 9f 1a 3d d7 7f 0f bd b8 4c 40 bd f5 d2 44 be
       0.037749387 -0.035034027 -0.046948165 -0.19221099
000120 66 bd 40 3e 92 89 da 3c 72 cf a9 3d 27 59 a3 3d
       0.1882225 0.026676927 0.0829152 0.07975989
000130 02 d7 1a 3e 55 ec 12 bd 88 bd f2 bd b0 d2 d8 bc
       0.15121081 -0.035869915 -0.118525565 -0.026467651
000140 e5 1a 1b bd 39 61 33 be 5e 90 2e 3e bf e5 4a 3d
       -0.037867445 -0.17517556 0.17047259 0.04953551
000150 9b cf d2 3c d1 7f 87 bc c1 78 d1 bd e5 e3 f3 3d
       0.02573376 -0.01654044 -0.1022811 0.11908702
000160 ce b1 2b 3e 5a 30 95 bc c1 eb 41 3e a6 69 d3 3b
       0.16767046 -0.018211532 0.18937589 0.0064518033
000170 fb a9 3c be be 35 68 bc d6 f2 e5 bc 86 c2 bb bd
       -0.18424217 -0.014172969 -0.028069895 -0.09167962
000180 79 d2 d3 3d 31 63 2b be 5e 23 8f bc b8 7c 3e 3e
       0.10342879 -0.16737057 -0.01747292 0.18602264
000190 e1 76 c1 bd 4e 22 bc 3d 3c 2a 38 bd ad f8 95 3d
       -0.094465025 0.091862306 -0.044962153 0.07322822
0001a0 ba b9 61 be 12 38 a1 bd 68 92 d4 bc a0 eb 88 bc
       -0.22043505 -0.07872023 -0.025948718 -0.016713917
0001b0 0c bd 65 3e 3e c7 73 3c 2c 88 53 3d e5 ef cb bd
       0.22435397 0.014879046 0.051643535 -0.099578656
0001c0 69 3e ca bd 1f ae 42 be 9a ea f4 3b 04 68 2b be
       -0.09875185 -0.19011734 0.0074742557 -0.16738898
0001d0 f0 a8 01 3e 55 53 98 3d d6 fe f3 bd 23 71 8d bd
       0.12662101 0.07437769 -0.119138405 -0.06906345
0001e0 c1 bf 47 be 07 63 52 bd 97 e7 b7 bd 59 9d 4e 3e
       -0.19506742 -0.05136397 -0.08979719 0.20177211
0001f0 d9 6d e8 bd 16 43 ba bd f9 54 5f 3e c9 0a 40 bd
       -0.11349077 -0.09094827 0.21809758 -0.046885286
000200 52 04 3d be 71 d6 55 be 36 5f ab bd 89 2e f9 3d
       -0.1845868 -0.20882584 -0.083677694 0.12167079
000210 0f 64 0c bd 9c c5 eb bd 71 90 51 3e 52 91 10 3e
       -0.03427511 -0.115123 0.20465256 0.14117935
000220 1c 11 43 3d 02 d3 b5 bd 39 c8 56 bd f6 9d 25 3e
       0.04762374 -0.08878137 -0.05243704 0.16173539
000230 aa d1 26 3d 87 b8 0f 3d 8b d9 e0 bc 4e 55 95 bb
       0.040727295 0.03508809 -0.027447483 -0.0045572883
000240 58 ae d4 bd 9b 4b ad bd 15 fd 0a bd 60 21 e3 bc
       -0.10384816 -0.08461686 -0.033932764 -0.027725875
000250 a1 42 c3 bd d3 41 4b be ee 1a d8 bd ff 54 da bd
       -0.09534193 -0.19849329 -0.105520114 -0.10660743
000260 b1 11 57 3e f3 5f b9 bc 52 06 c5 bd 72 46 5b 3e
       0.21002842 -0.02262876 -0.09620346 0.21413592
000270 55 fc be 3d 4c f4 2b 3e 5f b5 01 3e 98 37 ee 3d
       0.09325472 0.1679241 0.12666844 0.116316974
000280 e9 84 aa 3d bd 03 22 be 20 22 20 3e bb a2 3e 3e
       0.08326132 -0.15821739 0.15638018 0.18616764
000290 82 86 6a 3e 73 1d 7b bd 03 5a 1d 3e 6a c8 26 bb
       0.22902873 -0.06130738 0.15366368 -0.0025449046
0002a0 ea 26 89 3c 9c ec a8 bc 9f f4 61 be 21 66 42 3e
       0.016742188 -0.020620637 -0.22065972 0.18984272
0002b0 0c 4f ef 3c c3 13 8a 3d f5 1e b2 bd 44 6e 1a 3e
       0.029212497 0.067420505 -0.08697311 0.15081125
0002c0 31 04 f2 bd 35 80 3f be bb 65 3a 3e 8e 2e a8 3c
       -0.11817206 -0.18701251 0.1820287 0.020530012
0002d0 0e ab f8 bc 5b 8d 53 3e 17 17 b5 bd 49 ca 24 be
       -0.030355003 0.20659392 -0.08842295 -0.1609279
0002e0 00 bb c3 bd a6 15 5c be 33 98 f5 3d 92 be 9f 3d
       -0.09557152 -0.21492633 0.1199192 0.0780002
0002f0 6a c5 a9 3d f2 b7 41 3e 8a be 3e be 9d 90 04 3e
       0.08289607 0.18917826 -0.18627372 0.1294579
000300 b6 32 71 bc d3 88 5f be f9 2a e4 3d 1c 4f b1 3d
       -0.014721563 -0.21829538 0.11141009 0.08657667
000310 c7 c9 2e 3e 4c 47 02 be 2c 52 55 be dd 3e 28 3e
       0.1706916 -0.1272251 -0.20832127 0.1643023
000320 94 12 25 bb b2 2a c6 bd 86 4c bf 3c ea 28 74 3d
       -0.0025188075 -0.09676112 0.023351919 0.05960933
000330 bc 31 08 bd a7 20 52 3c 8d a0 62 ba 2a 3b 66 be
       -0.033250555 0.012825168 -0.000864514 -0.22483507
000340 6b 55 45 3d 22 85 fc 3d 07 00 32 be 12 93 c2 3c
       0.048177164 0.123300806 -0.17382823 0.02375177
000350 92 02 a7 3d 54 da 82 3c 80 99 58 bc c4 95 09 bd
       0.08154787 0.015973248 -0.013220191 -0.033590093
000360 f0 1d 16 be 9a 19 35 3e 47 14 c9 3d c8 8f 1b 3d
       -0.14659858 0.17685547 0.09818321 0.037978917
000370 69 36 f3 bd 50 07 08 3e 0c 72 15 3d d6 28 79 3d
       -0.11875612 0.1328404 0.036485717 0.06082996
000380 21 eb 4c 3e 3b 58 3d be 75 96 54 bd 34 ec 5d be
       0.2001157 -0.18490689 -0.0519013 -0.21672136
000390 c8 8a 7b bd d1 4d e7 bd db e5 c1 3d c3 0d 27 3e
       -0.06141165 -0.11294139 0.094676696 0.16313843
0003a0 3d 8d 15 be 55 0a f7 bd b1 f8 a4 bd 18 fb 76 3d
       -0.1460466 -0.120625176 -0.080552466 0.060298055
0003b0 cd aa 3e bd 9e 5f 5f 3d 1b 4f 99 bd 93 89 58 be
       -0.046549607 0.054534547 -0.07485791 -0.2114623
0003c0 59 25 dc bd 17 b7 13 3e 84 4a b0 3c e0 6d 44 3e
       -0.10749311 0.14425312 0.021519907 0.19182539
0003d0 b8 f1 50 3e 09 16 28 be 65 1e 43 3d 70 c1 c7 3d
       0.20404708 -0.16414656 0.04763641 0.09753692
0003e0 c3 4a 18 be 01 4e df bd c2 4f f9 3d ad c5 14 3e
       -0.1487227 -0.1090355 0.12173416 0.14528532
0003f0 0d bc 39 3e 27 51 1d be cf c9 3f be 14 d4 4e be
       0.18138142 -0.15362988 -0.18729328 -0.20198089

layers.2.bias f4 [20]
000000 db f9 c0 bd a7 a4 0b 3e 5f 37 38 3e 4d 13 5d be
       -0.09422656 0.13637029 0.17989872 -0.21589394
000010 7d 22 bb bc 3c 77 6b 3d cb 4c e4 bc 05 c7 6c 3b
       -0.022843594 0.057486758 -0.027868649 0.0036129367
000020 50 67 12 be 07 0d 30 3d 7e 62 16 bc 4e 87 26 be
       -0.14297223 0.042981174 -0.009178756 -0.16262552
000030 a1 9f 04 be d6 fe 32 3e 55 40 56 3b dd 00 40 bd
       -0.12951519 0.17480025 0.0032692153 -0.046875823
000040 56 8e 2b 3e 4b a3 38 3e 5b 51 32 be 94 92 76 bd
       0.16753516 0.18031041 -0.17413847 -0.06019838

layerout.weight f4 [2, 20]
000000 9e ec f2 bc 06 07 24 3e 00 64 54 3e ad 55 61 3e
       -0.029653843 0.16018304 0.20741272 0.22005339
000010 90 6b 45 3d 63 69 14 3e 37 50 57 be 7f 23 55 be
       0.048198283 0.14493327 -0.21026693 -0.20814322
000020 b3 72 27 3e 99 ca e1 bd 0f 20 45 be a8 5d 56 be
       0.16352348 -0.110249706 -0.1925051 -0.20934165
000030 d8 ee 15 bd 99 bd 30 bd 9e c3 e8 3d 23 f6 2b be
       -0.036604732 -0.043149564 0.11365436 -0.16793112
000040 7c 0a 54 3e d0 de fd 3d 06 f5 bf 3c 52 fe 26 3e
       0.20707124 0.12396014 0.023432266 0.16307953
000050 65 6d 28 be 19 ee 0d be 7e 36 5b be 40 40 0b be
       -0.1644798 -0.13860358 -0.21407506 -0.13598728
000060 45 88 82 3c cb 57 ce 3c a2 cd 01 be e2 dd da 3b
       0.015934119 0.025188347 -0.12676099 0.0066792825
000070 2c e1 4f 3e 8e 6d 98 bd 5c 91 b9 bd ff b9 e3 bc
       0.2030074 -0.07442771 -0.09060928 -0.02779865
000080 d5 ae 24 be 15 19 19 be cf 3d 2c 3e cf d8 1d be
       -0.16082318 -0.14950974 0.16820453 -0.15414737
000090 9a 65 d3 3d be 9e 10 be f0 c3 2c be 2b ea 07 3e
       0.10322113 -0.14123055 -0.16871619 0.13272922

layerout.bias f4 [2]
000000 77 47 1c be 56 49 3a 3d
       -0.15261637 0.045480095
